ckpt/empirical/training/2023-06-08_13-37-20-rep1.pt (torch, 846718 bytes, 271 tensors)

w1 f4 [3, 1]
0	0xbec075fa	-0.3759001
1	0xbef87def	-0.4853358
2	0xbeab0966	-0.33405608

exp_avg f4 [3, 1]
0	0xbb27a266	-0.0025578975
1	0x3b02a667	0.001993561
2	0xbb818998	-0.00395317

exp_avg_sq f4 [3, 1]
0	0x39a8de86	0.0003220925
1	0x398eb1c8	0.00027216808
2	0x38d70d97	0.0001025453

value f8 []
0	0x3f77addcd3a2d6b1	0.005781042675314361

w1 f4 [3, 1]
0	0xbed768a6	-0.42072028
1	0xbf08249f	-0.5318088
2	0xbe8f9b43	-0.28048143

exp_avg f4 [3, 1]
0	0x3b8c889b	0.0042887456
1	0xbb630ef0	-0.0034646355
2	0xba97349c	-0.0011536065

exp_avg_sq f4 [3, 1]
0	0x39a99e0a	0.0003235194
1	0x39a31c71	0.00031110973
2	0x38de7ec6	0.00010609398

w1 f4 [3, 1]
0	0xbeefde6a	-0.46849376
1	0xbf1a5eed	-0.60301095
2	0xbe7bde20	-0.24596453

exp_avg f4 [3, 1]
0	0x3950a430	0.0001989759
1	0x3b7a41de	0.0038186233
2	0x3b58d89e	0.0033088098

exp_avg_sq f4 [3, 1]
0	0x39aeb09a	0.00033319445
1	0x39b08a9a	0.00033672602
2	0x3908cd4b	0.00013046448

w1 f4 [3, 1]
0	0xbf061917	-0.52382034
1	0xbf2b6ea4	-0.669657
2	0xbe6c025e	-0.23047778

exp_avg f4 [3, 1]
0	0xb8bb3d60	-8.928287e-05
1	0x3ab7ec8d	0.001403229
2	0xbb755ad0	-0.0037438162

exp_avg_sq f4 [3, 1]
0	0x39abcb6b	0.0003276722
1	0x39c53118	0.00037611346
2	0x3911958e	0.00013883991

w1 f4 [3, 1]
0	0xbf148107	-0.5800938
1	0xbf3744cd	-0.71589357
2	0xbe677c9f	-0.22606133

exp_avg f4 [3, 1]
0	0x3bbea366	0.0058178185
1	0xbb92c523	-0.004479067
2	0xbb083e02	-0.0020788913

exp_avg_sq f4 [3, 1]
0	0x39d62da7	0.00040851274
1	0x39fd9754	0.0004836867
2	0x39174c91	0.00014429005

w1 f4 [3, 1]
0	0xbf21ae03	-0.63156146
1	0xbf3eea82	-0.7457658
2	0xbe6877b9	-0.2270192

exp_avg f4 [3, 1]
0	0x3a8c1196	0.0010686393
1	0x3aab1112	0.0013051352
2	0x3ae734d4	0.0017639645

exp_avg_sq f4 [3, 1]
0	0x39ed71ad	0.00045288858
1	0x3a1c93cb	0.00059729506
2	0x3912759a	0.00013967455

w1 f4 [3, 1]
0	0xbf2c7ca6	-0.673777
1	0xbf44a097	-0.7680754
2	0xbe68bdcd	-0.22728653

exp_avg f4 [3, 1]
0	0x38d842b8	0.0001031211
1	0x3a52e014	0.00080442545
2	0xbb240a74	-0.0025030645

exp_avg_sq f4 [3, 1]
0	0x39e096c4	0.00042836939
1	0x3a1f297a	0.0006071549
2	0x38fb9b91	0.00011997589

w1 f4 [3, 1]
0	0xbf35967c	-0.70932746
1	0xbf493353	-0.7859394
2	0xbe688418	-0.2270664

exp_avg f4 [3, 1]
0	0x3b427dd1	0.0029677043
1	0xbb3c35dd	-0.0028718628
2	0x3aa972e6	0.0012927919

exp_avg_sq f4 [3, 1]
0	0x39daaf94	0.00041711016
1	0x3a216639	0.0006156895
2	0x38f913ee	0.000118769574

w1 f4 [3, 1]
0	0xbf3c5f6a	-0.7358309
1	0xbf4d55a8	-0.80208826
2	0xbe691cc8	-0.22764885

exp_avg f4 [3, 1]
0	0xbb122cd9	-0.0022304563
1	0x3b5de0ce	0.0033855918
2	0x3abe8040	0.0014534071

exp_avg_sq f4 [3, 1]
0	0x39e7ed6a	0.0004423664
1	0x3a2dc464	0.0006628691
2	0x38f69a1c	0.00011758899

w1 f4 [3, 1]
0	0xbf4138a2	-0.7547704
1	0xbf50edd7	-0.81612915
2	0xbe654fc7	-0.22393714

exp_avg f4 [3, 1]
0	0x3ab66973	0.0013916924
1	0xbada8650	-0.0016672108
2	0x3a85e9a6	0.0010216727

exp_avg_sq f4 [3, 1]
0	0x39ed4709	0.00045257088
1	0x3a4555a0	0.0007527713
2	0x38e54b61	0.00010933611

w1 f4 [3, 1]
0	0xbf445ecf	-0.76707166
1	0xbf5441b6	-0.82912767
2	0xbe65a21e	-0.22425124

exp_avg f4 [3, 1]
0	0xb80119e0	-3.0780095e-05
1	0xbb1fc950	-0.0024381466
2	0x3b29fde2	0.002593868

exp_avg_sq f4 [3, 1]
0	0x39f02b46	0.00045808608
1	0x3a454754	0.00075255823
2	0x38ea2507	0.000111648864

w1 f4 [3, 1]
0	0xbf474069	-0.7783266
1	0xbf573ae2	-0.84074223
2	0xbe6161ca	-0.2200996

exp_avg f4 [3, 1]
0	0xbb5f0050	-0.0034027286
1	0x3be7b921	0.0070716296
2	0x3ac1a2d5	0.0014773259

exp_avg_sq f4 [3, 1]
0	0x39f77c57	0.00047204152
1	0x3a51541b	0.000798525
2	0x38e89c80	0.000110917725

w1 f4 [3, 1]
0	0xbf49e334	-0.7886231
1	0xbf59e0e4	-0.8510878
2	0xbe5fdd6d	-0.21861811

exp_avg f4 [3, 1]
0	0x3b21cd8d	0.0024689168
1	0xbb816809	-0.0039491695
2	0xb9867580	-0.00025646016

exp_avg_sq f4 [3, 1]
0	0x39f96d07	0.00047574213
1	0x3a4b5a40	0.0007757284
2	0x38e9312a	0.00011119463

w1 f4 [3, 1]
0	0xbf4c929d	-0.79911214
1	0xbf5c5a09	-0.8607488
2	0xbe622cca	-0.22087398

exp_avg f4 [3, 1]
0	0x3a9c849a	0.0011941374
1	0xba235d80	-0.0006231889
2	0xbac60875	-0.0015108722

exp_avg_sq f4 [3, 1]
0	0x39ea939a	0.0004474193
1	0x3a3f9f50	0.0007309811
2	0x38dfd686	0.00010673427

w1 f4 [3, 1]
0	0xbf4efc7c	-0.8085401
1	0xbf5eabbf	-0.86980814
2	0xbe617903	-0.22018819

exp_avg f4 [3, 1]
0	0x3bf64af8	0.007516261
1	0xbc0ba290	-0.008522645
2	0x38d1f7f8	0.000100120844

exp_avg_sq f4 [3, 1]
0	0x39fc456f	0.00048116918
1	0x3a4f701f	0.00079131307
2	0x38ec17e4	0.00011257807

w1 f4 [3, 1]
0	0xbf51348e	-0.8172082
1	0xbf60d085	-0.87818176
2	0xbe60cfd9	-0.21954288

exp_avg f4 [3, 1]
0	0x3bc000a7	0.0058594528
1	0xbc0334f2	-0.008008229
2	0xbaefeddc	-0.001830514

exp_avg_sq f4 [3, 1]
0	0x39f9e433	0.00047663003
1	0x3a4a0152	0.0007705885
2	0x38e6fe74	0.0001101465

w1 f4 [3, 1]
0	0xbf536196	-0.8257078
1	0xbf62df24	-0.88621736
2	0xbe606929	-0.21915115

exp_avg f4 [3, 1]
0	0x3b03e300	0.0020124316
1	0xbac59480	-0.0015074164
2	0xba6c6036	-0.0009017022

exp_avg_sq f4 [3, 1]
0	0x3a065cb2	0.0005125507
1	0x3a546c90	0.0008103335
2	0x38ea3148	0.00011167169

w1 f4 [3, 1]
0	0xbf55a7bd	-0.83459073
1	0xbf64b7d7	-0.8934302
2	0xbe60e76b	-0.21963279

exp_avg f4 [3, 1]
0	0xbac87a48	-0.0015295232
1	0x3b5904d2	0.0033114445
2	0x3a641fe8	0.0008702264

exp_avg_sq f4 [3, 1]
0	0x3a054c50	0.0005084919
1	0x3a5705ec	0.00082024815
2	0x38e1aa00	0.00010760501

w1 f4 [3, 1]
0	0xbf57bcfe	-0.84272754
1	0xbf66a8a7	-0.90101093
2	0xbe6156b9	-0.22005738

exp_avg f4 [3, 1]
0	0xb9f55ce0	-0.0004679924
1	0xb8b81700	-8.778088e-05
2	0x3a1a0a3a	0.00058761577

exp_avg_sq f4 [3, 1]
0	0x39fef870	0.00048631756
1	0x3a4f908a	0.00079179613
2	0x38f0b766	0.000114782524

w1 f4 [3, 1]
0	0xbf59ae2f	-0.8503141
1	0xbf68c037	-0.90918297
2	0xbe6058fe	-0.21908948

exp_avg f4 [3, 1]
0	0xbb92b26c	-0.004476836
1	0x3b2aa1fa	0.0026036487
2	0xbacd09ab	-0.001564314

exp_avg_sq f4 [3, 1]
0	0x3a045d2d	0.00050492847
1	0x3a580d51	0.00082417304
2	0x38e08cd6	0.00010707385

w1 f4 [3, 1]
0	0xbf5baae8	-0.8580766
1	0xbf6a92f4	-0.9163048
2	0xbe6219e1	-0.22080185

exp_avg f4 [3, 1]
0	0x3b81e9f0	0.003964655
1	0xbb8dd61d	-0.004328503
2	0xba22fc3f	-0.0006217397

exp_avg_sq f4 [3, 1]
0	0x3a020068	0.0004959167
1	0x3a589c6f	0.00082630565
2	0x38e41f5c	0.00010877728

w1 f4 [3, 1]
0	0xbf5dae44	-0.86594033
1	0xbf6c5465	-0.92316276
2	0xbe60de87	-0.21959887

exp_avg f4 [3, 1]
0	0xb90d5572	-0.00013478639
1	0xbb584145	-0.0032997888
2	0xbaea70b3	-0.001788637

exp_avg_sq f4 [3, 1]
0	0x3a00b6a9	0.0004910031
1	0x3a543b0e	0.0008095958
2	0x38ed5c8b	0.00011318278

w1 f4 [3, 1]
0	0xbf5f7d2e	-0.87300384
1	0xbf6e1fab	-0.9301707
2	0xbe615855	-0.22006352

exp_avg f4 [3, 1]
0	0xbabdf2c4	-0.0014491905
1	0x39fd2320	0.0004828209
2	0xbb9a0d75	-0.0047013112

exp_avg_sq f4 [3, 1]
0	0x3a019769	0.00049435213
1	0x3a54f2f5	0.00081233616
2	0x38defde0	0.00010633073

w1 f4 [3, 1]
0	0xbf618b65	-0.88103324
1	0xbf6fc8e2	-0.936659
2	0xbe5fecb6	-0.21867642

exp_avg f4 [3, 1]
0	0x3a336362	0.00068431173
1	0x39dcc91c	0.00042111508
2	0x3af499dc	0.0018661576

exp_avg_sq f4 [3, 1]
0	0x3a0268f8	0.0004974748
1	0x3a5b78f6	0.00083722116
2	0x38feeb4e	0.00012155493

w1 f4 [3, 1]
0	0xbf632a09	-0.88736016
1	0xbf717bbc	-0.9432943
2	0xbe6123b6	-0.21986279

exp_avg f4 [3, 1]
0	0xbb5f0fd3	-0.0034036532
1	0x3b925189	0.004465286
2	0x3ae99fd9	0.0017824128

exp_avg_sq f4 [3, 1]
0	0x3a011573	0.00049241557
1	0x3a586f35	0.0008256317
2	0x38ef2981	0.00011404139

w1 f4 [3, 1]
0	0xbf64b9e4	-0.89346147
1	0xbf73370b	-0.95005864
2	0xbe6071cc	-0.2191841

exp_avg f4 [3, 1]
0	0x39de15a0	0.00042359252
1	0x3ac11423	0.0014730733
2	0xbafe0aa1	-0.001938183

exp_avg_sq f4 [3, 1]
0	0x3a08dbd0	0.0005220743
1	0x3a6e03b7	0.0009079533
2	0x38f26756	0.00011558707

w1 f4 [3, 1]
0	0xbf668aca	-0.90055525
1	0xbf74bd42	-0.95601285
2	0xbe621b71	-0.2208078

exp_avg f4 [3, 1]
0	0x3b57acec	0.0032909466
1	0xbb17f2f9	-0.0023185594
2	0x3a1dfd85	0.0006026852

exp_avg_sq f4 [3, 1]
0	0x3a002453	0.0004888225
1	0x3a4f3a4c	0.000790511
2	0x38ec08f6	0.00011255026

w1 f4 [3, 1]
0	0xbf6807ed	-0.90637094
1	0xbf765a20	-0.9623127
2	0xbe61031e	-0.21973845

exp_avg f4 [3, 1]
0	0xbbabb8a2	-0.005240516
1	0x3badcf70	0.0053042695
2	0xbb160a80	-0.0022894442

exp_avg_sq f4 [3, 1]
0	0x3a14e412	0.0005679737
1	0x3a6e1d13	0.0009083312
2	0x38f31c7f	0.00011592451

w1 f4 [3, 1]
0	0xbf69d0f2	-0.9133445
1	0xbf7791ae	-0.96706665
2	0xbe60a75a	-0.2193884

exp_avg f4 [3, 1]
0	0x3b93e3e6	0.0045132516
1	0xbbb047a6	-0.005379635
2	0xbafb6e2b	-0.0019182613

exp_avg_sq f4 [3, 1]
0	0x3a19cd67	0.0005867094
1	0x3a85d073	0.0010209217
2	0x38eff2fd	0.00011441668

w1 f4 [3, 1]
0	0xbf6b1dd1	-0.9184237
1	0xbf793b26	-0.9735588
2	0xbe5e3db5	-0.21703227

exp_avg f4 [3, 1]
0	0xbb613f4c	-0.0034370003
1	0x3b41e16a	0.002958382
2	0xbb2b3ea0	-0.0026129857

exp_avg_sq f4 [3, 1]
0	0x3a09795f	0.0005244221
1	0x3a6aeb9d	0.0008961501
2	0x38e5553e	0.000109354485

w1 f4 [3, 1]
0	0xbf6cb4a3	-0.9246313
1	0xbf7ac824	-0.9796164
2	0xbe61e53d	-0.22060104

exp_avg f4 [3, 1]
0	0xbace267a	-0.001572802
1	0x3b4e3bad	0.0031468675
2	0x3a8a1bad	0.0010536812

exp_avg_sq f4 [3, 1]
0	0x3a01e6e6	0.0004955366
1	0x3a550bbf	0.00081270555
2	0x38db790d	0.00010465281

w1 f4 [3, 1]
0	0xbf6e70a3	-0.9314062
1	0xbf7c2201	-0.98489386
2	0xbe602597	-0.2188934

exp_avg f4 [3, 1]
0	0x3b52aa27	0.0032144876
1	0xbb09e2f2	-0.002103981
2	0x39e2614c	0.0004317857

exp_avg_sq f4 [3, 1]
0	0x3a1e5466	0.0006039798
1	0x3a7eaabe	0.00097147736
2	0x38e83b18	0.00011073629

w1 f4 [3, 1]
0	0xbf6fd1c3	-0.93679446
1	0xbf7d98ea	-0.99061453
2	0xbe619f0e	-0.22033331

exp_avg f4 [3, 1]
0	0xbb36f57a	-0.0027917312
1	0x3bb5fe9e	0.0055540344
2	0x3ad73dd2	0.0016421622

exp_avg_sq f4 [3, 1]
0	0x3a09a1ab	0.00052502257
1	0x3a5f0c19	0.00085085776
2	0x38dc2f29	0.00010499202

w1 f4 [3, 1]
0	0xbf715af5	-0.94279414
1	0xbf7f05a7	-0.99618
2	0xbe604b7b	-0.21903794

exp_avg f4 [3, 1]
0	0xbad4f892	-0.0016248396
1	0x3b35f02b	0.002776156
2	0xbaba1ef1	-0.0014199895

exp_avg_sq f4 [3, 1]
0	0x3a0be2c2	0.0005336219
1	0x3a6acec2	0.0008957201
2	0x38ebd841	0.00011245954

w1 f4 [3, 1]
0	0xbf72c266	-0.9482788
1	0xbf801dec	-1.0009131
2	0xbe60564b	-0.21907918

exp_avg f4 [3, 1]
0	0x3b806aef	0.0039189975
1	0xbbd4bfba	-0.006492582
2	0xbb40fa27	-0.0029445977

exp_avg_sq f4 [3, 1]
0	0x3a196f52	0.0005853075
1	0x3a7da481	0.0009675697
2	0x38f58f6e	0.00011709226

w1 f4 [3, 1]
0	0xbf73e229	-0.9526697
1	0xbf80e54a	-1.0069973
2	0xbe61dbf4	-0.22056562

exp_avg f4 [3, 1]
0	0x3b7cf166	0.0038596033
1	0xbb13f5da	-0.002257696
2	0xba87fd2d	-0.0010375135

exp_avg_sq f4 [3, 1]
0	0x3a1ca0d5	0.00059748936
1	0x3a859cfb	0.0010193879
2	0x38f5cb86	0.000117204196

w1 f4 [3, 1]
0	0xbf758c5c	-0.95917296
1	0xbf8167e2	-1.0109828
2	0xbe623972	-0.22092226

exp_avg f4 [3, 1]
0	0xbb8d72d3	-0.0043166666
1	0x3bc2e1ec	0.005947342
2	0xb9824914	-0.0002484998

exp_avg_sq f4 [3, 1]
0	0x3a16e7eb	0.00057566044
1	0x3a811301	0.0009847583
2	0x38e8f582	0.000111083515

w1 f4 [3, 1]
0	0xbf76c541	-0.96394736
1	0xbf820cbc	-1.0160136
2	0xbe60bf30	-0.21947932

exp_avg f4 [3, 1]
0	0x3a6be432	0.00089985423
1	0xba8d74f1	-0.0010792298
2	0x3ab1ef2b	0.0013575306

exp_avg_sq f4 [3, 1]
0	0x3a17f6cb	0.0005796968
1	0x3a80c7c8	0.0009825164
2	0x38def042	0.000106305364

w1 f4 [3, 1]
0	0xbf781348	-0.9690442
1	0xbf82abd7	-1.0208691
2	0xbe608657	-0.21926247

exp_avg f4 [3, 1]
0	0x3ba27035	0.004957224
1	0xbba4dd86	-0.0050312905
2	0xbb171f22	-0.0023059328

exp_avg_sq f4 [3, 1]
0	0x3a1470b3	0.00056625454
1	0x3a6eba07	0.00091067
2	0x38e90403	0.00011111053

w1 f4 [3, 1]
0	0xbf79688e	-0.9742516
1	0xbf834875	-1.0256487
2	0xbe5f2cbe	-0.21794412

exp_avg f4 [3, 1]
0	0xbb101da3	-0.002199032
1	0x3ac507e8	0.0015032263
2	0xba1d1204	-0.0005991759

exp_avg_sq f4 [3, 1]
0	0x3a166a3a	0.0005737875
1	0x3a6fa41b	0.000914158
2	0x38e9a57c	0.0001114113

w1 f4 [3, 1]
0	0xbf7ab9a3	-0.9793951
1	0xbf83e7fc	-1.0305171
2	0xbe617461	-0.22017051

exp_avg f4 [3, 1]
0	0x3b661061	0.0035104977
1	0xbb2f55d8	-0.0026754048
2	0xba687794	-0.0008867916

exp_avg_sq f4 [3, 1]
0	0x3a1fbeeb	0.00060938176
1	0x3a85211a	0.001015696
2	0x38f0c7e8	0.00011481327

w1 f4 [3, 1]
0	0xbf7bf0f1	-0.9841452
1	0xbf84818a	-1.0352032
2	0xbe61d377	-0.22053324

exp_avg f4 [3, 1]
0	0xbb1b480b	-0.0023694064
1	0x3b200c12	0.0024421257
2	0x3a85bb53	0.0010202922

exp_avg_sq f4 [3, 1]
0	0x3a21c501	0.00061710185
1	0x3a836a01	0.0010026098
2	0x38e0ee4f	0.00010725541

w1 f4 [3, 1]
0	0xbf7d546b	-0.98956937
1	0xbf85120b	-1.0396131
2	0xbe617c0e	-0.2201998

exp_avg f4 [3, 1]
0	0x3affe668	0.0019523622
1	0x37e4bb80	2.726703e-05
2	0x3b1c5dfd	0.0023859732

exp_avg_sq f4 [3, 1]
0	0x3a174b26	0.0005771391
1	0x3a78ac93	0.0009486165
2	0x38e5b95e	0.00010954098

w1 f4 [3, 1]
0	0xbf7e5c00	-0.9935913
1	0xbf85a5c3	-1.0441211
2	0xbe611e90	-0.21984315

exp_avg f4 [3, 1]
0	0x3b2162cd	0.002462554
1	0xbb9a08fb	-0.0047007776
2	0x3969e4de	0.00022305871

exp_avg_sq f4 [3, 1]
0	0x3a294154	0.0006456573
1	0x3a8c45ad	0.0010701917
2	0x38f5f607	0.000117283365

w1 f4 [3, 1]
0	0xbf7f8aba	-0.99821055
1	0xbf862593	-1.0480217
2	0xbe61e795	-0.22060998

exp_avg f4 [3, 1]
0	0x3a22f462	0.00062162254
1	0x3ac57045	0.0015063366
2	0x3a89d0f2	0.0010514541

exp_avg_sq f4 [3, 1]
0	0x3a327e31	0.0006808965
1	0x3a97a3ff	0.001156926
2	0x38fc2017	0.000120222736

w1 f4 [3, 1]
0	0xbf80585a	-1.0026963
1	0xbf86bc66	-1.0526245
2	0xbe61111e	-0.21979186

exp_avg f4 [3, 1]
0	0x3b82185c	0.003970189
1	0xbb8df385	-0.0043320083
2	0xbb11290a	-0.0022149705

exp_avg_sq f4 [3, 1]
0	0x3a1c3f03	0.0005960317
1	0x3a859bd5	0.0010193536
2	0x38f0a395	0.00011474561

w1 f4 [3, 1]
0	0xbf80e0f8	-1.0068655
1	0xbf8754e3	-1.057278
2	0xbe5f033a	-0.21778575

exp_avg f4 [3, 1]
0	0xba3c2546	-0.0007177185
1	0x3a505bba	0.00079482386
2	0xba30eb46	-0.00067489257

exp_avg_sq f4 [3, 1]
0	0x3a217df5	0.00061604317
1	0x3a8751cb	0.0010324059
2	0x38ef2329	0.00011402957

w1 f4 [3, 1]
0	0xbf818514	-1.0118737
1	0xbf87d55d	-1.0611988
2	0xbe608513	-0.21925764

exp_avg f4 [3, 1]
0	0xbbc8b8ba	-0.0061255367
1	0x3bc65c8f	0.0060535143
2	0x39ae1007	0.00033199808

exp_avg_sq f4 [3, 1]
0	0x3a250814	0.0006295454
1	0x3a860800	0.0010225773
2	0x38e7fc70	0.000110619585

w1 f4 [3, 1]
0	0xbf8200e7	-1.0156525
1	0xbf886a0e	-1.0657365
2	0xbe60bb31	-0.21946408

exp_avg f4 [3, 1]
0	0xbb1dd50e	-0.002408329
1	0x3b84a53e	0.0040480187
2	0xbab578bf	-0.0013845189

exp_avg_sq f4 [3, 1]
0	0x3a29c75a	0.0006476544
1	0x3a8c7600	0.0010716319
2	0x38f8e876	0.00011868861

w1 f4 [3, 1]
0	0xbf8293e0	-1.0201378
1	0xbf88e3e4	-1.0694547
2	0xbe624b48	-0.2209903

exp_avg f4 [3, 1]
0	0x3baa27dc	0.00519274
1	0xbbf46fc2	-0.0074596116
2	0x3abab1fd	0.0014243718

exp_avg_sq f4 [3, 1]
0	0x3a3bbe57	0.0007161847
1	0x3a9badf0	0.0011877399
2	0x38fc207c	0.00012022347

w1 f4 [3, 1]
0	0xbf833208	-1.0249643
1	0xbf895606	-1.0729377
2	0xbe646ecc	-0.2230789

exp_avg f4 [3, 1]
0	0xb8b71280	-8.729566e-05
1	0xbb2525fe	-0.0025199647
2	0xba9dd194	-0.0012040609

exp_avg_sq f4 [3, 1]
0	0x3a296019	0.0006461158
1	0x3a895dbc	0.0010480206
2	0x38f6d68a	0.00011770155

w1 f4 [3, 1]
0	0xbf83aa5f	-1.0286368
1	0xbf89f14d	-1.0776764
2	0xbe61eefe	-0.22063825

exp_avg f4 [3, 1]
0	0xbaf1d745	-0.0018450996
1	0x3b59919e	0.0033198367
2	0x3b09bfd9	0.002101889

exp_avg_sq f4 [3, 1]
0	0x3a2df0ce	0.0006635309
1	0x3a8ba218	0.0010653166
2	0x38f6cbab	0.0001176813

w1 f4 [3, 1]
0	0xbf843e23	-1.0331463
1	0xbf8a5ecc	-1.081018
2	0xbe61ff70	-0.22070098

exp_avg f4 [3, 1]
0	0xbb85a51c	-0.0040785205
1	0x3ba33edb	0.004981858
2	0x393f22ea	0.00018228186

exp_avg_sq f4 [3, 1]
0	0x3a37eb0e	0.0007015922
1	0x3a95f4b0	0.001144072
2	0x38fda9d7	0.00012095615

w1 f4 [3, 1]
0	0xbf84bd78	-1.0370321
1	0xbf8adc87	-1.084855
2	0xbe616825	-0.22012384

exp_avg f4 [3, 1]
0	0x3bf284da	0.007401091
1	0xbbfdde7b	-0.007747469
2	0xba6e3b43	-0.000908781

exp_avg_sq f4 [3, 1]
0	0x3a2af475	0.0006521412
1	0x3a880363	0.0010376986
2	0x38f57a95	0.00011705343

w1 f4 [3, 1]
0	0xbf85489a	-1.0412781
1	0xbf8b60a2	-1.0888865
2	0xbe62f8cc	-0.22165221

exp_avg f4 [3, 1]
0	0xbb87b0bc	-0.0041409414
1	0x3b95d75e	0.004572793
2	0x3a8608a2	0.0010225961

exp_avg_sq f4 [3, 1]
0	0x3a24fed4	0.0006294076
1	0x3a83dc95	0.0010060245
2	0x38ea4b1a	0.00011171978

w1 f4 [3, 1]
0	0xbf85b30f	-1.0445269
1	0xbf8be297	-1.0928525
2	0xbe62dee3	-0.22155337

exp_avg f4 [3, 1]
0	0x3ae7d06c	0.0017686016
1	0xbb675f62	-0.0035304655
2	0x3b065b7e	0.002050131

exp_avg_sq f4 [3, 1]
0	0x3a2f39a9	0.0006684312
1	0x3a902fb0	0.001100054
2	0x38efe746	0.00011439486

w1 f4 [3, 1]
0	0xbf864b2e	-1.0491693
1	0xbf8c5cf3	-1.0965866
2	0xbe60cba5	-0.21952684

exp_avg f4 [3, 1]
0	0x3a12d6fa	0.0005601492
1	0x3a97ad4c	0.0011572032
2	0x3aac592e	0.0013149136

exp_avg_sq f4 [3, 1]
0	0x3a27709d	0.0006387325
1	0x3a8e2431	0.0010844526
2	0x38f9ecc8	0.00011917349

w1 f4 [3, 1]
0	0xbf86a887	-1.052018
1	0xbf8ce308	-1.1006784
2	0xbe61ce1c	-0.2205128

exp_avg f4 [3, 1]
0	0x3aa6d61e	0.0012728607
1	0xba50e730	-0.000796902
2	0xbaa2dda6	-0.0012425676

exp_avg_sq f4 [3, 1]
0	0x3a489d0a	0.0007652795
1	0x3aa9e123	0.0012960773
2	0x390245bb	0.00012423743

w1 f4 [3, 1]
0	0xbf872392	-1.055773
1	0xbf8d4e71	-1.1039563
2	0xbe622805	-0.22085579

exp_avg f4 [3, 1]
0	0xbb21d44b	-0.0024693187
1	0x3b39ffb7	0.0028381178
2	0x38fb69e8	0.00011988339

exp_avg_sq f4 [3, 1]
0	0x3a40a2d9	0.0007348485
1	0x3a9f76f9	0.0012166194
2	0x38fc3a38	0.000120271405

w1 f4 [3, 1]
0	0xbf87abae	-1.0599267
1	0xbf8db9a2	-1.1072276
2	0xbe62acfa	-0.22136298

exp_avg f4 [3, 1]
0	0xba1987bd	-0.00058567134
1	0x39e0e11c	0.0004289233
2	0xba52e29c	-0.00080446317

exp_avg_sq f4 [3, 1]
0	0x3a2a1aaf	0.00064889615
1	0x3a8f0c47	0.0010913693
2	0x38f36dd0	0.00011607597

w1 f4 [3, 1]
0	0xbf882e10	-1.0639057
1	0xbf8e31c0	-1.1108932
2	0xbe636035	-0.22204669

exp_avg f4 [3, 1]
0	0xbb018f0e	-0.0019769105
1	0x3a409330	0.00073461514
2	0xb9b1aa5a	-0.00033886993

exp_avg_sq f4 [3, 1]
0	0x3a2447f7	0.0006266827
1	0x3a8c171b	0.0010688038
2	0x38f0e160	0.00011486071

w1 f4 [3, 1]
0	0xbf88a1ae	-1.0674341
1	0xbf8ea8fa	-1.1145318
2	0xbe60f680	-0.21969032

exp_avg f4 [3, 1]
0	0x3af36782	0.0018570276
1	0xbb1a61b2	-0.0023556766
2	0x37ec1500	2.8143171e-05

exp_avg_sq f4 [3, 1]
0	0x3a2f8b78	0.00066965027
1	0x3a8f1d43	0.0010918755
2	0x38efce84	0.000114348746

w1 f4 [3, 1]
0	0xbf891af5	-1.0711352
1	0xbf8f18f6	-1.1179492
2	0xbe6111f0	-0.21979499

exp_avg f4 [3, 1]
0	0x39686a50	0.00022164849
1	0xbac9c83c	-0.0015394758
2	0xba8f52dd	-0.0010934729

exp_avg_sq f4 [3, 1]
0	0x3a350c44	0.000690643
1	0x3a93a4e2	0.0011264349
2	0x38facd6f	0.00011959194

w1 f4 [3, 1]
0	0xbf898c8d	-1.0746018
1	0xbf8f94a0	-1.1217232
2	0xbe60a3f1	-0.21937539

exp_avg f4 [3, 1]
0	0xbb972006	-0.004611972
1	0x3b9ccdf0	0.004785292
2	0xbab09b0f	-0.0013473945

exp_avg_sq f4 [3, 1]
0	0x3a2c0a85	0.0006562847
1	0x3a8c9c90	0.0010727812
2	0x38f4713e	0.0001165592

w1 f4 [3, 1]
0	0xbf89fe68	-1.0780764
1	0xbf901587	-1.125657
2	0xbe61273d	-0.21987624

exp_avg f4 [3, 1]
0	0x3abd789a	0.0014455498
1	0xbae16fa6	-0.0017199412
2	0xba840935	-0.0010073545

exp_avg_sq f4 [3, 1]
0	0x3a2d7fc5	0.00066184654
1	0x3a8b02b3	0.0010605663
2	0x38f0ad2d	0.00011476348

w1 f4 [3, 1]
0	0xbf8a755e	-1.0817068
1	0xbf907942	-1.1287005
2	0xbe626a22	-0.22110799

exp_avg f4 [3, 1]
0	0xbb81207a	-0.003940639
1	0x3b705916	0.0036674193
2	0x3a98e4aa	0.0011664827

exp_avg_sq f4 [3, 1]
0	0x3a41547a	0.0007374954
1	0x3a9c7310	0.0011936147
2	0x38f0217b	0.00011450328

w1 f4 [3, 1]
0	0xbf8ad121	-1.0845071
1	0xbf90e468	-1.1319704
2	0xbe626734	-0.22109681

exp_avg f4 [3, 1]
0	0xbbb2a3ac	-0.00545164
1	0x3c2d0427	0.010560072
2	0x39d992ce	0.00041498843

exp_avg_sq f4 [3, 1]
0	0x3a472cc7	0.000759792
1	0x3aa4e3eb	0.0012580132
2	0x38f20b50	0.00011541566

w1 f4 [3, 1]
0	0xbf8b555a	-1.0885422
1	0xbf913cfb	-1.1346735
2	0xbe619eb2	-0.22033194

exp_avg f4 [3, 1]
0	0x3a23f442	0.0006254354
1	0xbac5a96b	-0.0015080398
2	0x3ac39958	0.0014923019

exp_avg_sq f4 [3, 1]
0	0x3a397d2f	0.0007075844
1	0x3a97ad5d	0.0011572052
2	0x38eb7bb3	0.00011228714

w1 f4 [3, 1]
0	0xbf8bb46a	-1.0914433
1	0xbf91b9d3	-1.1384834
2	0xbe622f42	-0.2208834

exp_avg f4 [3, 1]
0	0xbbd833de	-0.00659798
1	0x3b6e9922	0.0036407192
2	0x3a71e446	0.0009227436

exp_avg_sq f4 [3, 1]
0	0x3a2ed942	0.0006669947
1	0x3a894364	0.0010472354
2	0x38e5c5a4	0.00010956384

w1 f4 [3, 1]
0	0xbf8c3c20	-1.0955849
1	0xbf920824	-1.1408734
2	0xbe62434b	-0.22095983

exp_avg f4 [3, 1]
0	0xbbac7d42	-0.0052639553
1	0x3b9e6710	0.0048340634
2	0xbaa7fb0d	-0.0012815908

exp_avg_sq f4 [3, 1]
0	0x3a422e79	0.00074074377
1	0x3aa22901	0.0012371839
2	0x38fc5684	0.00012032411

w1 f4 [3, 1]
0	0xbf8cb4e3	-1.0992702
1	0xbf9278a2	-1.1443064
2	0xbe62ea0a	-0.22159591

exp_avg f4 [3, 1]
0	0x3a458af8	0.00075356616
1	0xba63b194	-0.0008685824
2	0xbb529b25	-0.003213593

exp_avg_sq f4 [3, 1]
0	0x3a295f1f	0.00064610125
1	0x3a8a837d	0.0010567751
2	0x38ebf897	0.00011251977

w1 f4 [3, 1]
0	0xbf8d1c3f	-1.1024245
1	0xbf92ee54	-1.1478982
2	0xbe61c603	-0.22048192

exp_avg f4 [3, 1]
0	0xbba54d31	-0.0050446023
1	0x3bb0ec64	0.0053992737
2	0x3ade1884	0.0016944562

exp_avg_sq f4 [3, 1]
0	0x3a27d8f3	0.00064028724
1	0x3a8a9bf6	0.0010575044
2	0x38e0c03a	0.00010716957

w1 f4 [3, 1]
0	0xbf8d9082	-1.1059725
1	0xbf935b07	-1.1512154
2	0xbe615e61	-0.22008659

exp_avg f4 [3, 1]
0	0x39c951e0	0.0003839871
1	0x3b209f01	0.0024508836
2	0x39e4a7f2	0.00043612678

exp_avg_sq f4 [3, 1]
0	0x3a26a011	0.0006356249
1	0x3a84094b	0.001007357
2	0x38ea9fbd	0.00011187743

w1 f4 [3, 1]
0	0xbf8df001	-1.1088868
1	0xbf93c7f4	-1.1545396
2	0xbe625944	-0.22104365

exp_avg f4 [3, 1]
0	0x3a88da52	0.0010441041
1	0xbafca472	-0.0019275083
2	0xbb2cd398	-0.0026371237

exp_avg_sq f4 [3, 1]
0	0x3a47a4f4	0.00076158275
1	0x3aa2a6ed	0.0012409367
2	0x38f1b5e7	0.000115256575

w1 f4 [3, 1]
0	0xbf8e4132	-1.1113646
1	0xbf943aab	-1.1580404
2	0xbe612fec	-0.21990937

exp_avg f4 [3, 1]
0	0xbb65529e	-0.003499187
1	0x3ba89bf5	0.0051455447
2	0x395e0330	0.00021172757

exp_avg_sq f4 [3, 1]
0	0x3a452b8d	0.0007521443
1	0x3a9f9c75	0.0012177365
2	0x38f0d2b6	0.0001148334

w1 f4 [3, 1]
0	0xbf8ebd7e	-1.1151578
1	0xbf948ca6	-1.1605422
2	0xbe608240	-0.21924686

exp_avg f4 [3, 1]
0	0x3ba36044	0.004985841
1	0xbbaada0e	-0.0052139824
2	0x3a206d24	0.0006119779

exp_avg_sq f4 [3, 1]
0	0x3a40367c	0.00073323376
1	0x3a9a8850	0.0011789892
2	0x38f6af5e	0.00011762859

w1 f4 [3, 1]
0	0xbf8f3201	-1.1187135
1	0xbf94f3d7	-1.1636914
2	0xbe6010e3	-0.21881442

exp_avg f4 [3, 1]
0	0x39e861ec	0.00044323446
1	0xb8ad0e78	-8.251978e-05
2	0x3ab6450c	0.0013906076

exp_avg_sq f4 [3, 1]
0	0x3a288716	0.0006428821
1	0x3a878098	0.0010338007
2	0x38ee4282	0.000113611124

w1 f4 [3, 1]
0	0xbf8f931e	-1.1216772
1	0xbf9558cb	-1.1667722
2	0xbe5f8bc8	-0.21830666

exp_avg f4 [3, 1]
0	0xbba49dd2	-0.0050236965
1	0x3bbbf423	0.0057358905
2	0xbb4206d6	-0.0029606125

exp_avg_sq f4 [3, 1]
0	0x3a4008fe	0.00073255587
1	0x3a9ab355	0.0011802713
2	0x38edcc24	0.00011339065

w1 f4 [3, 1]
0	0xbf8ff292	-1.1245902
1	0xbf95c112	-1.1699545
2	0xbe61b888	-0.2204305

exp_avg f4 [3, 1]
0	0xb9f1f588	-0.00046150037
1	0x3b5f7b4b	0.0034100588
2	0x39804776	0.00024467305

exp_avg_sq f4 [3, 1]
0	0x3a495400	0.00076800585
1	0x3aa18dac	0.0012325547
2	0x38fd4b44	0.000120779994

w1 f4 [3, 1]
0	0xbf905ded	-1.1278664
1	0xbf961e7c	-1.1728053
2	0xbe61bda5	-0.22045

exp_avg f4 [3, 1]
0	0x3b84a96a	0.004048516
1	0xbb67e9fe	-0.0035387273
2	0x39ae20cb	0.000332123

exp_avg_sq f4 [3, 1]
0	0x3a3b1567	0.0007136673
1	0x3a983f45	0.0011615535
2	0x38fb8e74	0.000119951466

w1 f4 [3, 1]
0	0xbf90be18	-1.1308012
1	0xbf96704d	-1.1753021
2	0xbe6094e3	-0.21931796

exp_avg f4 [3, 1]
0	0x3b52e948	0.0032182503
1	0xbbc73c87	-0.0060802135
2	0xbac364ee	-0.0014907399

exp_avg_sq f4 [3, 1]
0	0x3a47b1ea	0.0007617759
1	0x3aa1c1ad	0.0012341045
2	0x39014c14	0.0001233074

w1 f4 [3, 1]
0	0xbf9119c6	-1.133599
1	0xbf96e385	-1.1788183
2	0xbe60750f	-0.21919654

exp_avg f4 [3, 1]
0	0x3ba36bc9	0.004987214
1	0xbb332597	-0.0027335638
2	0x3b12c71a	0.0022396506

exp_avg_sq f4 [3, 1]
0	0x3a30d9d9	0.0006746329
1	0x3a8b69e2	0.0010636414
2	0x38f5a864	0.000117138756

w1 f4 [3, 1]
0	0xbf91877b	-1.136947
1	0xbf974622	-1.1818278
2	0xbe61f1c4	-0.22064883

exp_avg f4 [3, 1]
0	0x3a8122b6	0.0009852264
1	0xba872b77	-0.0010312636
2	0x3a1de73e	0.00060235325

exp_avg_sq f4 [3, 1]
0	0x3a2fb534	0.00067027216
1	0x3a8685e5	0.0010263292
2	0x38ec5b98	0.000112704176

w1 f4 [3, 1]
0	0xbf91f2e3	-1.1402248
1	0xbf979ca8	-1.1844683
2	0xbe6013a0	-0.21882486

exp_avg f4 [3, 1]
0	0x3b3531f9	0.0027648194
1	0xbb08640b	-0.0020811583
2	0xbab761f2	-0.0013990982

exp_avg_sq f4 [3, 1]
0	0x3a3a0b4e	0.00070970214
1	0x3a98458c	0.0011617406
2	0x38f91c7c	0.00011878551

w1 f4 [3, 1]
0	0xbf925307	-1.1431588
1	0xbf97fc44	-1.187386
2	0xbe61c4a9	-0.22047676

exp_avg f4 [3, 1]
0	0xba740d80	-0.0009309873
1	0xbaa277c8	-0.0012395317
2	0x3b553fb2	0.0032539186

exp_avg_sq f4 [3, 1]
0	0x3a3b0150	0.00071336795
1	0x3a96f431	0.0011516867
2	0x38fafccc	0.00011968016

w1 f4 [3, 1]
0	0xbf92b8d7	-1.1462659
1	0xbf986326	-1.1905258
2	0xbe604617	-0.21901737

exp_avg f4 [3, 1]
0	0xb9977a98	-0.00028892304
1	0x3b4abf21	0.0030936676
2	0x3b7444e0	0.0037272498

exp_avg_sq f4 [3, 1]
0	0x3a2ecf6f	0.0006668483
1	0x3a8c65b8	0.0010711467
2	0x38ef0ad4	0.00011398425

w1 f4 [3, 1]
0	0xbf932a08	-1.1497202
1	0xbf98b37f	-1.1929778
2	0xbe5ff800	-0.21871948

exp_avg f4 [3, 1]
0	0x3b08f2e1	0.002089672
1	0xbaf5afb8	-0.0018744385
2	0xbab66be3	-0.0013917651

exp_avg_sq f4 [3, 1]
0	0x3a41443d	0.0007372534
1	0x3a99bf81	0.0011730046
2	0x38fb9e07	0.000119980476

w1 f4 [3, 1]
0	0xbf937c77	-1.1522359
1	0xbf9912a6	-1.1958816
2	0xbe6264b8	-0.22108734

exp_avg f4 [3, 1]
0	0x3aefb9e2	0.001828965
1	0xbb2f44b5	-0.0026743833
2	0x3a7f128c	0.0009730242

exp_avg_sq f4 [3, 1]
0	0x3a3c4db1	0.0007183208
1	0x3a995716	0.0011698927
2	0x38fb09ac	0.00011970414

w1 f4 [3, 1]
0	0xbf93e77d	-1.155502
1	0xbf99654d	-1.198404
2	0xbe613962	-0.21994546

exp_avg f4 [3, 1]
0	0xbb81304a	-0.003942524
1	0x3ba74154	0.0051042233
2	0xb8f4f190	-0.00011679821

exp_avg_sq f4 [3, 1]
0	0x3a486bf7	0.00076454825
1	0x3aa67e16	0.0012702371
2	0x3901f5f6	0.00012394026

w1 f4 [3, 1]
0	0xbf9437a6	-1.1579483
1	0xbf99b922	-1.2009623
2	0xbe62192a	-0.22079912

exp_avg f4 [3, 1]
0	0x397a16b0	0.0002385031
1	0x3ad4c5a6	0.001623322
2	0x3a5672dc	0.00081805675

exp_avg_sq f4 [3, 1]
0	0x3a4c9635	0.0007804365
1	0x3aa445f3	0.0012533054
2	0x390112e6	0.00012309439
