ckpt/empirical/training/2023-06-09_11-47-46-rep1.pt (torch, 183831 bytes, 34 tensors)

w1 f4 [6, 1]
00000000: 2379 c8be ec3c 4d3e 38a7 ccbe 1492 eabe
00000010: 20a5 c73e 2dd7 34bf
-0.3915492 0.20042771 -0.39971328 -0.45814574 0.38993168 -0.7064083

exp_avg f4 [6, 1]
00000000: 10cc c93a b650 91bb fd41 b33a 6654 7fbb
00000010: 8224 85bb 4403 0fbb
0.0015395898 -0.0044346703 0.0013676282 -0.0038960217 -0.00406319 -0.0021822015

exp_avg_sq f4 [6, 1]
00000000: 422e 5538 59b3 993a 7c2b 8239 e5ac 1b39
00000010: 0543 8c3a 650d 9c39
5.082624e-05 0.0011726423 0.0002482793 0.0001484636 0.0010701126 0.00029764618

value f8 []
00000000: 0000 0000 0000 f87f
nan

w1 f4 [6, 1]
00000000: 6013 e6be 3006 423e bf27 bdbe 47f8 dcbe
00000010: 51c9 c13e 03b2 36bf
-0.44936657 0.18947673 -0.36944386 -0.4315817 0.37848905 -0.71365374

exp_avg f4 [6, 1]
00000000: 30b5 44b9 c374 c93b 10a7 5ab9 84e0 5f3b
00000010: 05fe c03b 7569 333b
-0.00018759514 0.0061479523 -0.00020852336 0.0034160921 0.0058896565 0.002737609

exp_avg_sq f4 [6, 1]
00000000: 9837 4b38 788b a73a 73c8 7f39 61c9 3139
00000010: 1270 9b3a 2095 b739
4.8450747e-05 0.0012782654 0.00024393368 0.00016955055 0.0011858961 0.00035015587

w1 f4 [6, 1]
00000000: ea2f f3be e878 393e ab04 b0be ef50 d0be
00000010: 1298 bd3e 8fef 34bf
-0.47497493 0.18112528 -0.3437856 -0.40686747 0.37030083 -0.7067804

exp_avg f4 [6, 1]
00000000: dfb8 393a cbc9 4dba fcc4 a53a 17e0 daba
00000010: 6425 3fba 1322 65ba
0.0007084738 -0.0007850199 0.0012647207 -0.0016698864 -0.00072916434 -0.0008740734

exp_avg_sq f4 [6, 1]
00000000: 4000 4338 46c4 b33a 8205 7239 ca26 4639
00000010: 9c31 a83a c07b d739
4.6491856e-05 0.001371511 0.0002308097 0.00018897202 0.0012832168 0.00041100197

w1 f4 [6, 1]
00000000: 1b1f f2be 7ccc 323e 4188 a4be 7ec2 c2be
00000010: e7b3 ba3e f724 31bf
-0.47289357 0.17460817 -0.32135203 -0.3803901 0.3646538 -0.6919703

exp_avg f4 [6, 1]
00000000: dfb3 0f3a 7c9c dbba 6143 973a 2efa f5ba
00000010: 7725 d3ba 2447 a7ba
0.000548182 -0.001675501 0.0011540466 -0.0018766576 -0.0016109188 -0.001276229

exp_avg_sq f4 [6, 1]
00000000: 9df6 2f38 b9b6 b53a 70f4 6539 b9f1 5639
00000010: 607a aa3a 1526 f039
4.1952928e-05 0.001386366 0.00021930202 0.00020498679 0.0013006441 0.0004580474

w1 f4 [6, 1]
00000000: 0714 e7be 62e6 2e3e 6a28 9bbe 68da b4be
00000010: 9d7c b93e 76e7 2bbf
-0.45132467 0.17080072 -0.3030427 -0.3532288 0.36227885 -0.67150056

exp_avg f4 [6, 1]
00000000: 552f a039 f7b6 033b 388e d939 2bd3 3c3a
00000010: 25e7 f93a 1cb8 f839
0.00030552843 0.002009807 0.00041495427 0.00072030973 0.0019066079 0.00047439418

exp_avg_sq f4 [6, 1]
00000000: 9443 1f38 f2a2 9c3a ba49 4539 bb48 5139
00000010: 78f7 923a c446 e539
3.797149e-05 0.0011950417 0.0001881485 0.00019958887 0.0011212667 0.00043731008

w1 f4 [6, 1]
00000000: 1a10 d5be 9d1e 2f3e 6b54 93be 6659 a7be
00000010: f47c ba3e 74a2 25bf
-0.41613847 0.17101522 -0.28775343 -0.32685393 0.36423457 -0.6470101

exp_avg f4 [6, 1]
00000000: 888f 3bbb 5ee2 393a e089 b2bb 531e 553b
00000010: d609 113a 427e 303a
-0.0028619487 0.0007090921 -0.005448565 0.0032519295 0.00055327767 0.0006732681

exp_avg_sq f4 [6, 1]
00000000: f3b3 0b38 9e10 7f3a 42f2 2a39 b634 4539
00000010: 0a65 6f3a e2a8 d439
3.3307773e-05 0.0009729954 0.00016302711 0.0001880702 0.00091321825 0.00040561619

w1 f4 [6, 1]
00000000: 9234 c3be 1aeb 323e e238 8dbe f557 9bbe
00000010: b738 bd3e 4e36 1fbf
-0.38126045 0.17472497 -0.2758246 -0.30340543 0.36957332 -0.6219224

exp_avg f4 [6, 1]
00000000: 9b10 bfb9 67ae 993b fa15 ce3a 2b9e ab3a
00000010: d826 953b 3a66 6f3b
-0.0003644273 0.00468998 0.0015723102 0.0013093402 0.0045517497 0.0036529438

exp_avg_sq f4 [6, 1]
00000000: 0718 1438 20f5 663a 3bfc 2239 dd7f 5739
00000010: e22b 593a ac33 e139
3.5308327e-05 0.000881033 0.00015543487 0.0002055163 0.0008284432 0.00042953843

w1 f4 [6, 1]
00000000: 3d44 b7be a6c3 383e adb1 88be 909b 90be
00000010: 7dca c03e 05c0 19bf
-0.3579425 0.18043384 -0.26698056 -0.28243685 0.37654486 -0.60058624

exp_avg f4 [6, 1]
00000000: 8418 47ba f8a6 16bb a6e5 a0bb 28f9 fab9
00000010: c2a7 16bb 4892 c1ba
-0.00075949007 -0.0022987705 -0.0049101887 -0.00047869352 -0.0022988175 -0.0014768327

exp_avg_sq f4 [6, 1]
00000000: 3d34 2038 b48c 3e3a 63f3 1b39 0e8b 4c39
00000010: c312 343a 8ca3 d639
3.8195623e-05 0.0007268891 0.0001487262 0.00019506758 0.0006869251 0.00040939113

w1 f4 [6, 1]
00000000: 86f5 b2be 6536 3f3e 42a6 85be 8737 87be
00000010: d788 c43e 4f1d 15bf
-0.34952945 0.18673094 -0.26103407 -0.26409552 0.3838565 -0.58247846

exp_avg f4 [6, 1]
00000000: 4031 ba3a 9efc 82ba 8505 a33a f0c0 faba
00000010: 8b4c 72ba 23ce 9cba
0.0014205351 -0.0009993499 0.0012437558 -0.0019130986 -0.0009242973 -0.0011963289

exp_avg_sq f4 [6, 1]
00000000: 151e 4c38 563c 1a3a 1be9 1639 91fb 4439
00000010: ee7b 123a b96a c939
4.8665406e-05 0.00058836245 0.00014391953 0.00018785732 0.0005587925 0.00038417222

w1 f4 [6, 1]
00000000: aa47 b3be 6400 463e 007d 83be 3173 7fbe
00000010: a25b c83e 6960 11bf
-0.35015613 0.19336087 -0.25681305 -0.24946286 0.3913241 -0.56787735

exp_avg f4 [6, 1]
00000000: 3392 38ba 1714 d3ba 60f6 02bb 4422 2c39
00000010: b449 daba acca a5ba
-0.00070408284 -0.001610401 -0.0019983277 0.00016415963 -0.0016654045 -0.0012648902

exp_avg_sq f4 [6, 1]
00000000: e1b9 8838 a3a6 013a 7bff 0a39 fad0 4239
00000010: 9650 f739 d3cd c339
6.519608e-05 0.000494579 0.0001325588 0.00018579132 0.00047171552 0.0003734665

w1 f4 [6, 1]
00000000: 2d52 b5be 015c 4c3e 00c1 81be 1af8 73be
00000010: 2fec cb3e 2875 0ebf
-0.35414258 0.19956972 -0.2534256 -0.23825112 0.3982863 -0.55647516

exp_avg f4 [6, 1]
00000000: 300a fbba 05bb 6d3b f41e 083a 80fe 2f3b
00000010: 8b88 673b e798 663b
-0.0019152816 0.0036274802 0.00051926007 0.0026854575 0.0035329189 0.0035186352

exp_avg_sq f4 [6, 1]
00000000: 8857 aa38 9b95 ea39 b089 0b39 4874 4539
00000010: b1b8 e039 9fd6 c939
8.122536e-05 0.00044743423 0.00013307366 0.00018830702 0.00042862215 0.00038497613
