ckpt/empirical/training/2023-06-06_03-22-45-rep1.pt (torch, 317476 bytes, 58 tensors)

w1 f4 [6, 1]
-0.023557045 0.10624326 -0.21417269 -0.19261383 0.16559833 -0.49363095
00000000: b4fa c0bc 1196 d93d 1650 5bbe 8f3c 45be
00000010: 9c92 293e 32bd fcbe

exp_avg f4 [6, 1]
0.0006386612 0.0038695815 0.003259773 -5.299378e-05 0.0046328423 0.0036546388
00000000: d46b 273a ce98 7d3b eaa1 553b a345 5eb8
00000010: 19cf 973b aa82 6f3b

exp_avg_sq f4 [6, 1]
0.00037683247 0.00095932855 0.00077068876 0.00016348438 0.0015667778 0.0011651157
00000000: 9991 c539 737b 7b3a 0c08 4a3a 016d 2b39
00000010: 575c cd3a ccb6 983a

value f8 []
0.008584784769536342
00000000: e479 a04e e694 813f

w1 f4 [6, 1]
-0.016484676 0.10808294 -0.21698841 -0.19077289 0.16542017 -0.49387679
00000000: df0a 87bc 975a dd3d 3632 5ebe f859 43be
00000010: e863 293e 6bdd fcbe

exp_avg f4 [6, 1]
0.00090534263 0.003919326 0.0028189798 -0.00026170316 0.0043698414 0.0037048243
00000000: 8454 6d3a b06d 803b a2be 383b 3435 89b9
00000010: e330 8f3b a3cc 723b

exp_avg_sq f4 [6, 1]
0.0003261579 0.00083813653 0.0006675777 0.00011602374 0.0013119539 0.00096365646
00000000: 2c00 ab39 64b6 5b3a 6200 2f3a c551 f338
00000010: def5 ab3a e49d 7c3a

w1 f4 [6, 1]
-0.008236711 0.11008741 -0.21959808 -0.1896687 0.16491413 -0.49443337
00000000: 45f3 06bc 8275 e13d 52de 60be 8338 42be
00000010: 40df 283e 5f26 fdbe

exp_avg f4 [6, 1]
-0.002357961 -0.003057376 -0.0028140605 0.00011505039 -0.003482969 -0.002851953
00000000: 0588 1abb 425e 48bb 1a6c 38bb 3547 f138
00000010: 8642 64bb d5e7 3abb

exp_avg_sq f4 [6, 1]
0.00028654217 0.0007563976 0.0005914698 8.2328865e-05 0.001137551 0.0008238925
00000000: 0a3b 9639 fc48 463a de0c 1b3a f9a7 ac38
00000010: e119 953a 7dfa 573a

w1 f4 [6, 1]
-0.0014354724 0.11245165 -0.22295728 -0.18821569 0.1638799 -0.4957169
00000000: 7626 bcba 0d4d e63d ea4e 64be 9dbb 40be
00000010: 22d0 273e 9bce fdbe

exp_avg f4 [6, 1]
-0.0035529584 0.0010317921 -0.0017301836 0.00039915723 0.0008234314 0.00031463616
00000000: c0d8 68bb 333d 873a 54c7 e2ba fa45 d139
00000010: 8cdb 573a c0f5 a439

exp_avg_sq f4 [6, 1]
0.00026790015 0.0007476913 0.0005664155 5.8453035e-05 0.0010830146 0.00077145844
00000000: f374 8c39 b700 443a 807b 143a 782b 7538
00000010: f1f3 8d3a b33b 4a3a

w1 f4 [6, 1]
0.0062374007 0.115597166 -0.22502677 -0.18687136 0.1640614 -0.49626198
00000000: 1c63 cc3b 35be ec3d 6b6d 66be 355b 3fbe
00000010: b6ff 273e 0d16 febe

exp_avg f4 [6, 1]
-0.0020333882 0.0015918256 -0.0012671847 0.00015217529 0.0011031474 0.0010625685
00000000: 9842 05bb cea4 d03a aa17 a6ba 3e91 1f39
00000010: 7c97 903a e245 8b3a

exp_avg_sq f4 [6, 1]
0.00025191836 0.0007335175 0.00053947524 4.1590163e-05 0.001040435 0.00073050585
00000000: e913 8439 8749 403a 926b 0d3a 1971 2e38
00000010: 355f 883a 6b7f 3f3a

w1 f4 [6, 1]
0.012536044 0.11836276 -0.22841352 -0.18596785 0.16370416 -0.4974573
00000000: fb63 4d3c 2d68 f23d 3ce5 69be 5b6e 3ebe
00000010: 10a2 273e b9b2 febe

exp_avg f4 [6, 1]
0.0060534193 0.0024341918 0.0066736634 -0.0004274192 0.004103979 0.0038850086
00000000: c35b c63b f686 1f3b bfae da3b 3c17 e0b9
00000010: ac7a 863b a19b 7e3b

exp_avg_sq f4 [6, 1]
0.00024433224 0.0007421004 0.00052501034 2.9794977e-05 0.0010346386 0.0007166062
00000000: b819 8039 8489 423a d9a0 093a 3af0 f937
00000010: b69c 873a a1da 3b3a

w1 f4 [6, 1]
0.020369953 0.122384325 -0.22999457 -0.18464506 0.16419709 -0.4980416
00000000: e3de a63c a2a4 fa3d b283 6bbe 9813 3dbe
00000010: 4823 283e 4fff febe

exp_avg f4 [6, 1]
-0.0022499203 -0.0044462504 -0.0035503083 -0.0001247638 -0.0061035156 -0.004605841
00000000: 6673 13bb dab1 91bb 4aac 68bb 07d3 02b9
00000010: 0000 c8bb 98ec 96bb

exp_avg_sq f4 [6, 1]
0.00024070973 0.00069768063 0.0004963225 2.1563232e-05 0.00096969923 0.0006660808
00000000: 0767 7c39 8ee4 363a a41b 023a b0e2 b437
00000010: 6a33 7e3a ed9b 2e3a

w1 f4 [6, 1]
0.025975905 0.12599279 -0.23312823 -0.18333657 0.16391616 -0.49939245
00000000: 6ccb d43c 4104 013e 2bb9 6ebe 95bc 3bbe
00000010: a3d9 273e 5eb0 ffbe

exp_avg f4 [6, 1]
-0.0002720782 0.0027878 0.0020380456 0.00021986889 0.005089063 0.0035943454
00000000: b8a5 8eb9 86b3 363b bb90 053b 9b8c 6639
00000010: 28c2 a63b 1c8f 6b3b

exp_avg_sq f4 [6, 1]
0.00025280303 0.0007719466 0.00053777656 1.5762138e-05 0.0010896164 0.00073830655
00000000: a68a 8439 765c 4a3a 93f9 0c3a ef38 8437
00000010: 76d1 8e3a ea8a 413a

w1 f4 [6, 1]
0.032882415 0.13074966 -0.23463374 -0.18167175 0.16429122 -0.50027734
00000000: b6af 063d 3de3 053e d443 70be 2908 3abe
00000010: f53b 283e 2d12 00bf

exp_avg f4 [6, 1]
0.0027981135 -0.0011306409 0.0032182324 -0.00032569093 0.0011250861 0.0009930402
00000000: 8e60 373b 0332 94ba fbe8 523b 7fc1 aab9
00000010: a077 933a e628 823a

exp_avg_sq f4 [6, 1]
0.00024013387 0.00076568016 0.00052137126 1.16570145e-05 0.0010970612 0.0007350377
00000000: 72cc 7b39 edb7 483a a2ac 083a 7f92 4337
00000010: 44cb 8f3a 8caf 403a

w1 f4 [6, 1]
0.0394087 0.13490732 -0.23669277 -0.17991123 0.1647675 -0.50146854
00000000: 046b 213d 2525 0a3e 975f 72be a63a 38be
00000010: d0b8 283e 3e60 00bf

exp_avg f4 [6, 1]
-0.0002055869 3.079977e-05 1.76311e-05 -4.4422344e-05 0.00022471417 0.0003641122
00000000: d092 57b9 002f 0138 80e6 9337 2152 3ab8
00000010: 40a1 6b39 50e6 be39

exp_avg_sq f4 [6, 1]
0.00022997471 0.00074643095 0.00049724814 8.894016e-06 0.0010833726 0.00071865297
00000000: 5e25 7139 22ac 433a c259 023a 8237 1537
00000010: f4ff 8d3a fc63 3c3a

w1 f4 [6, 1]
0.0454173 0.13878608 -0.23939426 -0.17779085 0.16486429 -0.50317204
00000000: 7e07 3a3d f01d 0e3e c523 75be ce0e 36be
00000010: 2fd2 283e e2cf 00bf

exp_avg f4 [6, 1]
-0.001728284 -0.0014534702 -0.001608369 0.00011892042 -0.002377013 -0.0016815311
00000000: 9787 e2ba 5e82 beba e9cf d2ba ea64 f938
00000010: a9c7 1bbb d266 dcba

exp_avg_sq f4 [6, 1]
0.0002169108 0.00071085035 0.00046569222 6.965658e-06 0.0010466616 0.0006861625
00000000: 8d72 6339 5c58 3a3a 2728 f439 8cba e936
00000010: 2330 893a 96df 333a

w1 f4 [6, 1]
0.051588938 0.14396276 -0.24127534 -0.17513967 0.16556957 -0.5041769
00000000: ec4e 533d f96a 133e e210 77be d057 33be
00000010: 128b 293e bd11 01bf

exp_avg f4 [6, 1]
0.0020910464 -0.0045876536 9.487476e-05 -0.00046716526 -0.0056778444 -0.0035388852
00000000: f009 093b 0754 96bb 80f7 c638 dced f4b9
00000010: 360d babb a4ec 67bb

exp_avg_sq f4 [6, 1]
0.00020881117 0.0006779132 0.0004503398 5.51019e-06 0.0010313664 0.0006669506
00000000: 52f4 5a39 fcb5 313a 961b ec39 2ce4 b836
00000010: ea2e 873a 4cd6 2e3a

w1 f4 [6, 1]
0.05790517 0.14865698 -0.2434985 -0.17137769 0.16566037 -0.5060352
00000000: f92d 6d3d 8939 183e ac57 79be a27d 2fbe
00000010: dfa2 293e 868b 01bf

exp_avg f4 [6, 1]
0.0012712236 0.002706151 0.0026150066 1.3902907e-05 0.0026786076 0.0025679213
00000000: 309f a63a ae59 313b 8860 2b3b 8840 6937
00000010: 948b 2f3b 924a 283b

exp_avg_sq f4 [6, 1]
0.00019669867 0.00066396093 0.00044212115 4.45188e-06 0.0010635757 0.0006722221
00000000: e640 4e39 aa0d 2e3a 7fcc e739 5c61 9536
00000010: ae67 8b3a 1038 303a

w1 f4 [6, 1]
0.064162485 0.1541354 -0.24572173 -0.16851202 0.16663389 -0.5069901
00000000: 9f67 833d acd5 1d3e 7a9e 7bbe 6a8e 2cbe
00000010: 13a2 2a3e 1aca 01bf

exp_avg f4 [6, 1]
-0.00015530293 -0.0061451457 -0.0018296025 -0.00024766623 -0.0053758994 -0.0044107735
00000000: d0d8 22b9 385d c9bb 46cf efba 33d9 81b9
00000010: 5028 b0bb 4088 90bb

exp_avg_sq f4 [6, 1]
0.00018921857 0.0007076965 0.00047211206 3.6160993e-06 0.0012053775 0.0007433428
00000000: f968 4639 b584 393a cf85 f739 1dac 7236
00000010: c2fd 9d3a e4dc 423a

w1 f4 [6, 1]
0.07041264 0.15923242 -0.2478295 -0.16452031 0.16657402 -0.5088079
00000000: 8134 903d d30d 233e 04c7 7dbe 0378 28be
00000010: 6192 2a3e 3c41 02bf

exp_avg f4 [6, 1]
0.0016639635 0.003419449 0.0047414806 -0.00022027918 0.006775576 0.005166089
00000000: 5a19 da3a d618 603b 6c5e 9b3b befa 66b9
00000010: a705 de3b 4c48 a93b

exp_avg_sq f4 [6, 1]
0.00017900532 0.0006866986 0.00046372725 3.2740832e-06 0.0012243363 0.0007400013
00000000: 60b3 3b39 9003 343a 6b20 f339 52b8 5b36
00000010: e979 a03a a6fc 413a

w1 f4 [6, 1]
0.07609088 0.16424489 -0.25089407 -0.16317089 0.16731073 -0.5101992
00000000: 89d5 9b3d d02f 283e 3075 80be 4516 27be
00000010: 8153 2b3e 6a9c 02bf

exp_avg f4 [6, 1]
-0.0010485228 -0.00090593135 -0.00043257256 0.00027183467 -0.0008333913 -0.00078168936
00000000: 966e 89ba 067c 6dba e8ca e2b9 0885 8e39
00000010: f277 5aba 49ea 4cba

exp_avg_sq f4 [6, 1]
0.00017657634 0.0007278135 0.00048580448 3.582815e-06 0.001370267 0.00080473797
00000000: 5a27 3939 bdca 3e3a 93b3 fe39 4b70 7036
00000010: 889a b33a 0df5 523a

w1 f4 [6, 1]
0.082024164 0.16902408 -0.253446 -0.1618194 0.16774812 -0.51193315
00000000: 49fc a73d a614 2d3e adc3 81be fcb3 25be
00000010: 2ac6 2b3e 0d0e 03bf

exp_avg f4 [6, 1]
0.00076162716 0.005779631 0.0045425873 -0.00036937938 0.009875473 0.006874403
00000000: efa7 473a 0f63 bd3b fcd9 943b 43a9 c1b9
00000010: bccc 213c ac42 e13b

exp_avg_sq f4 [6, 1]
0.00017131741 0.0006920639 0.00046490363 4.3660675e-06 0.0013513344 0.00077685463
00000000: aba3 3339 9f6b 353a 4fbe f339 3c80 9236
00000010: 421f b13a d5a5 4b3a

w1 f4 [6, 1]
0.08754249 0.17444682 -0.25666434 -0.16267462 0.1689159 -0.5130893
00000000: 7a49 b33d 30a2 323e 8269 83be 2d94 26be
00000010: 4af8 2c3e d259 03bf

exp_avg f4 [6, 1]
0.0011604184 0.00033607567 0.0018334955 -0.00011081106 0.00020921044 0.00057948474
00000000: 2e19 983a 5033 b039 e651 f03a 3c63 e8b8
00000010: 805f 5b39 90e8 173a

exp_avg_sq f4 [6, 1]
0.0001623487 0.00067500566 0.00045876412 5.8197447e-06 0.0013753232 0.0007743412
00000000: 263c 2a39 ddf2 303a 4786 f039 3a47 c336
00000010: 3044 b43a 29fd 4a3a

w1 f4 [6, 1]
0.094176464 0.18029824 -0.25905076 -0.16538058 0.16999875 -0.51405865
00000000: 97df c03d 1aa0 383e 4da2 84be 8759 29be
00000010: 2714 2e3e 5999 03bf

exp_avg f4 [6, 1]
0.0038972897 -0.004012879 0.0010510627 -0.00053373544 -0.0062904023 -0.0031105224
00000000: ac69 7f3b 787e 83bb d0c3 893a 61ea 0bba
00000010: b81f cebb e8d9 4bbb

exp_avg_sq f4 [6, 1]
0.00016404717 0.00066270836 0.0004597739 8.453818e-06 0.0014146693 0.00077783194
00000000: 1404 2c39 9bb9 2d3a cf0d f139 dfd4 0d37
00000010: 6d6c b93a 6be7 4b3a
