ckpt/empirical/training/2023-06-06_13-05-27-rep5.pt (torch, 670008 bytes, 121 tensors)

w1 f4 [6, 1]
-0.023557045 0.10624326 -0.21417269 -0.19261383 0.16559833 -0.49363095
00000000: b4fa c0bc 1196 d93d 1650 5bbe 8f3c 45be
00000010: 9c92 293e 32bd fcbe

exp_avg f4 [6, 1]
0.0006386612 0.0038695815 0.003259773 -5.299378e-05 0.0046328423 0.0036546388
00000000: d46b 273a ce98 7d3b eaa1 553b a345 5eb8
00000010: 19cf 973b aa82 6f3b

exp_avg_sq f4 [6, 1]
0.00037683247 0.00095932855 0.00077068876 0.00016348438 0.0015667778 0.0011651157
00000000: 9991 c539 737b 7b3a 0c08 4a3a 016d 2b39
00000010: 575c cd3a ccb6 983a

value f8 []
0.008116809160804796
00000000: f4f2 25af 8b9f 803f

w1 f4 [6, 1]
-0.016484676 0.10808294 -0.21698841 -0.19077289 0.16542017 -0.49387679
00000000: df0a 87bc 975a dd3d 3632 5ebe f859 43be
00000010: e863 293e 6bdd fcbe

exp_avg f4 [6, 1]
0.00090534263 0.003919326 0.0028189798 -0.00026170316 0.0043698414 0.0037048243
00000000: 8454 6d3a b06d 803b a2be 383b 3435 89b9
00000010: e330 8f3b a3cc 723b

exp_avg_sq f4 [6, 1]
0.0003261579 0.00083813653 0.0006675777 0.00011602374 0.0013119539 0.00096365646
00000000: 2c00 ab39 64b6 5b3a 6200 2f3a c551 f338
00000010: def5 ab3a e49d 7c3a

w1 f4 [6, 1]
-0.008236711 0.11008741 -0.21959808 -0.1896687 0.16491413 -0.49443337
00000000: 45f3 06bc 8275 e13d 52de 60be 8338 42be
00000010: 40df 283e 5f26 fdbe

exp_avg f4 [6, 1]
-0.002357961 -0.003057376 -0.0028140605 0.00011505039 -0.003482969 -0.002851953
00000000: 0588 1abb 425e 48bb 1a6c 38bb 3547 f138
00000010: 8642 64bb d5e7 3abb

exp_avg_sq f4 [6, 1]
0.00028654217 0.0007563976 0.0005914698 8.2328865e-05 0.001137551 0.0008238925
00000000: 0a3b 9639 fc48 463a de0c 1b3a f9a7 ac38
00000010: e119 953a 7dfa 573a

w1 f4 [6, 1]
-0.0014354724 0.11245165 -0.22295728 -0.18821569 0.1638799 -0.4957169
00000000: 7626 bcba 0d4d e63d ea4e 64be 9dbb 40be
00000010: 22d0 273e 9bce fdbe

exp_avg f4 [6, 1]
-0.0035529584 0.0010317921 -0.0017301836 0.00039915723 0.0008234314 0.00031463616
00000000: c0d8 68bb 333d 873a 54c7 e2ba fa45 d139
00000010: 8cdb 573a c0f5 a439

exp_avg_sq f4 [6, 1]
0.00026790015 0.0007476913 0.0005664155 5.8453035e-05 0.0010830146 0.00077145844
00000000: f374 8c39 b700 443a 807b 143a 782b 7538
00000010: f1f3 8d3a b33b 4a3a

w1 f4 [6, 1]
0.0062374007 0.115597166 -0.22502677 -0.18687136 0.1640614 -0.49626198
00000000: 1c63 cc3b 35be ec3d 6b6d 66be 355b 3fbe
00000010: b6ff 273e 0d16 febe

exp_avg f4 [6, 1]
-0.0020333882 0.0015918256 -0.0012671847 0.00015217529 0.0011031474 0.0010625685
00000000: 9842 05bb cea4 d03a aa17 a6ba 3e91 1f39
00000010: 7c97 903a e245 8b3a

exp_avg_sq f4 [6, 1]
0.00025191836 0.0007335175 0.00053947524 4.1590163e-05 0.001040435 0.00073050585
00000000: e913 8439 8749 403a 926b 0d3a 1971 2e38
00000010: 355f 883a 6b7f 3f3a

w1 f4 [6, 1]
0.012536044 0.11836276 -0.22841352 -0.18596785 0.16370416 -0.4974573
00000000: fb63 4d3c 2d68 f23d 3ce5 69be 5b6e 3ebe
00000010: 10a2 273e b9b2 febe

exp_avg f4 [6, 1]
0.0060534193 0.0024341918 0.0066736634 -0.0004274192 0.004103979 0.0038850086
00000000: c35b c63b f686 1f3b bfae da3b 3c17 e0b9
00000010: ac7a 863b a19b 7e3b

exp_avg_sq f4 [6, 1]
0.00024433224 0.0007421004 0.00052501034 2.9794977e-05 0.0010346386 0.0007166062
00000000: b819 8039 8489 423a d9a0 093a 3af0 f937
00000010: b69c 873a a1da 3b3a

w1 f4 [6, 1]
0.020369953 0.122384325 -0.22999457 -0.18464506 0.16419709 -0.4980416
00000000: e3de a63c a2a4 fa3d b283 6bbe 9813 3dbe
00000010: 4823 283e 4fff febe

exp_avg f4 [6, 1]
-0.0022499203 -0.0044462504 -0.0035503083 -0.0001247638 -0.0061035156 -0.004605841
00000000: 6673 13bb dab1 91bb 4aac 68bb 07d3 02b9
00000010: 0000 c8bb 98ec 96bb

exp_avg_sq f4 [6, 1]
0.00024070973 0.00069768063 0.0004963225 2.1563232e-05 0.00096969923 0.0006660808
00000000: 0767 7c39 8ee4 363a a41b 023a b0e2 b437
00000010: 6a33 7e3a ed9b 2e3a

w1 f4 [6, 1]
0.025975905 0.12599279 -0.23312823 -0.18333657 0.16391616 -0.49939245
00000000: 6ccb d43c 4104 013e 2bb9 6ebe 95bc 3bbe
00000010: a3d9 273e 5eb0 ffbe

exp_avg f4 [6, 1]
-0.0002720782 0.0027878 0.0020380456 0.00021986889 0.005089063 0.0035943454
00000000: b8a5 8eb9 86b3 363b bb90 053b 9b8c 6639
00000010: 28c2 a63b 1c8f 6b3b

exp_avg_sq f4 [6, 1]
0.00025280303 0.0007719466 0.00053777656 1.5762138e-05 0.0010896164 0.00073830655
00000000: a68a 8439 765c 4a3a 93f9 0c3a ef38 8437
00000010: 76d1 8e3a ea8a 413a

w1 f4 [6, 1]
0.032882415 0.13074966 -0.23463374 -0.18167175 0.16429122 -0.50027734
00000000: b6af 063d 3de3 053e d443 70be 2908 3abe
00000010: f53b 283e 2d12 00bf

exp_avg f4 [6, 1]
0.0027981135 -0.0011306409 0.0032182324 -0.00032569093 0.0011250861 0.0009930402
00000000: 8e60 373b 0332 94ba fbe8 523b 7fc1 aab9
00000010: a077 933a e628 823a

exp_avg_sq f4 [6, 1]
0.00024013387 0.00076568016 0.00052137126 1.16570145e-05 0.0010970612 0.0007350377
00000000: 72cc 7b39 edb7 483a a2ac 083a 7f92 4337
00000010: 44cb 8f3a 8caf 403a

w1 f4 [6, 1]
0.0394087 0.13490732 -0.23669277 -0.17991123 0.1647675 -0.50146854
00000000: 046b 213d 2525 0a3e 975f 72be a63a 38be
00000010: d0b8 283e 3e60 00bf

exp_avg f4 [6, 1]
-0.0002055869 3.079977e-05 1.76311e-05 -4.4422344e-05 0.00022471417 0.0003641122
00000000: d092 57b9 002f 0138 80e6 9337 2152 3ab8
00000010: 40a1 6b39 50e6 be39

exp_avg_sq f4 [6, 1]
0.00022997471 0.00074643095 0.00049724814 8.894016e-06 0.0010833726 0.00071865297
00000000: 5e25 7139 22ac 433a c259 023a 8237 1537
00000010: f4ff 8d3a fc63 3c3a

w1 f4 [6, 1]
0.0454173 0.13878608 -0.23939426 -0.17779085 0.16486429 -0.50317204
00000000: 7e07 3a3d f01d 0e3e c523 75be ce0e 36be
00000010: 2fd2 283e e2cf 00bf

exp_avg f4 [6, 1]
-0.001728284 -0.0014534702 -0.001608369 0.00011892042 -0.002377013 -0.0016815311
00000000: 9787 e2ba 5e82 beba e9cf d2ba ea64 f938
00000010: a9c7 1bbb d266 dcba

exp_avg_sq f4 [6, 1]
0.0002169108 0.00071085035 0.00046569222 6.965658e-06 0.0010466616 0.0006861625
00000000: 8d72 6339 5c58 3a3a 2728 f439 8cba e936
00000010: 2330 893a 96df 333a

w1 f4 [6, 1]
0.051588938 0.14396276 -0.24127534 -0.17513967 0.16556957 -0.5041769
00000000: ec4e 533d f96a 133e e210 77be d057 33be
00000010: 128b 293e bd11 01bf

exp_avg f4 [6, 1]
0.0020910464 -0.0045876536 9.487476e-05 -0.00046716526 -0.0056778444 -0.0035388852
00000000: f009 093b 0754 96bb 80f7 c638 dced f4b9
00000010: 360d babb a4ec 67bb

exp_avg_sq f4 [6, 1]
0.00020881117 0.0006779132 0.0004503398 5.51019e-06 0.0010313664 0.0006669506
00000000: 52f4 5a39 fcb5 313a 961b ec39 2ce4 b836
00000010: ea2e 873a 4cd6 2e3a

w1 f4 [6, 1]
0.05790517 0.14865698 -0.2434985 -0.17137769 0.16566037 -0.5060352
00000000: f92d 6d3d 8939 183e ac57 79be a27d 2fbe
00000010: dfa2 293e 868b 01bf

exp_avg f4 [6, 1]
0.0012712236 0.002706151 0.0026150066 1.3902907e-05 0.0026786076 0.0025679213
00000000: 309f a63a ae59 313b 8860 2b3b 8840 6937
00000010: 948b 2f3b 924a 283b

exp_avg_sq f4 [6, 1]
0.00019669867 0.00066396093 0.00044212115 4.45188e-06 0.0010635757 0.0006722221
00000000: e640 4e39 aa0d 2e3a 7fcc e739 5c61 9536
00000010: ae67 8b3a 1038 303a

w1 f4 [6, 1]
0.064162485 0.1541354 -0.24572173 -0.16851202 0.16663389 -0.5069901
00000000: 9f67 833d acd5 1d3e 7a9e 7bbe 6a8e 2cbe
00000010: 13a2 2a3e 1aca 01bf

exp_avg f4 [6, 1]
-0.00015530293 -0.0061451457 -0.0018296025 -0.00024766623 -0.0053758994 -0.0044107735
00000000: d0d8 22b9 385d c9bb 46cf efba 33d9 81b9
00000010: 5028 b0bb 4088 90bb

exp_avg_sq f4 [6, 1]
0.00018921857 0.0007076965 0.00047211206 3.6160993e-06 0.0012053775 0.0007433428
00000000: f968 4639 b584 393a cf85 f739 1dac 7236
00000010: c2fd 9d3a e4dc 423a

w1 f4 [6, 1]
0.07041264 0.15923242 -0.2478295 -0.16452031 0.16657402 -0.5088079
00000000: 8134 903d d30d 233e 04c7 7dbe 0378 28be
00000010: 6192 2a3e 3c41 02bf

exp_avg f4 [6, 1]
0.0016639635 0.003419449 0.0047414806 -0.00022027918 0.006775576 0.005166089
00000000: 5a19 da3a d618 603b 6c5e 9b3b befa 66b9
00000010: a705 de3b 4c48 a93b

exp_avg_sq f4 [6, 1]
0.00017900532 0.0006866986 0.00046372725 3.2740832e-06 0.0012243363 0.0007400013
00000000: 60b3 3b39 9003 343a 6b20 f339 52b8 5b36
00000010: e979 a03a a6fc 413a

w1 f4 [6, 1]
0.07609088 0.16424489 -0.25089407 -0.16317089 0.16731073 -0.5101992
00000000: 89d5 9b3d d02f 283e 3075 80be 4516 27be
00000010: 8153 2b3e 6a9c 02bf

exp_avg f4 [6, 1]
-0.0010485228 -0.00090593135 -0.00043257256 0.00027183467 -0.0008333913 -0.00078168936
00000000: 966e 89ba 067c 6dba e8ca e2b9 0885 8e39
00000010: f277 5aba 49ea 4cba

exp_avg_sq f4 [6, 1]
0.00017657634 0.0007278135 0.00048580448 3.582815e-06 0.001370267 0.00080473797
00000000: 5a27 3939 bdca 3e3a 93b3 fe39 4b70 7036
00000010: 889a b33a 0df5 523a

w1 f4 [6, 1]
0.082024164 0.16902408 -0.253446 -0.1618194 0.16774812 -0.51193315
00000000: 49fc a73d a614 2d3e adc3 81be fcb3 25be
00000010: 2ac6 2b3e 0d0e 03bf

exp_avg f4 [6, 1]
0.00076162716 0.005779631 0.0045425873 -0.00036937938 0.009875473 0.006874403
00000000: efa7 473a 0f63 bd3b fcd9 943b 43a9 c1b9
00000010: bccc 213c ac42 e13b

exp_avg_sq f4 [6, 1]
0.00017131741 0.0006920639 0.00046490363 4.3660675e-06 0.0013513344 0.00077685463
00000000: aba3 3339 9f6b 353a 4fbe f339 3c80 9236
00000010: 421f b13a d5a5 4b3a

w1 f4 [6, 1]
0.08754249 0.17444682 -0.25666434 -0.16267462 0.1689159 -0.5130893
00000000: 7a49 b33d 30a2 323e 8269 83be 2d94 26be
00000010: 4af8 2c3e d259 03bf

exp_avg f4 [6, 1]
0.0011604184 0.00033607567 0.0018334955 -0.00011081106 0.00020921044 0.00057948474
00000000: 2e19 983a 5033 b039 e651 f03a 3c63 e8b8
00000010: 805f 5b39 90e8 173a

exp_avg_sq f4 [6, 1]
0.0001623487 0.00067500566 0.00045876412 5.8197447e-06 0.0013753232 0.0007743412
00000000: 263c 2a39 ddf2 303a 4786 f039 3a47 c336
00000010: 3044 b43a 29fd 4a3a

w1 f4 [6, 1]
0.094176464 0.18029824 -0.25905076 -0.16538058 0.16999875 -0.51405865
00000000: 97df c03d 1aa0 383e 4da2 84be 8759 29be
00000010: 2714 2e3e 5999 03bf

exp_avg f4 [6, 1]
0.0038972897 -0.004012879 0.0010510627 -0.00053373544 -0.0062904023 -0.0031105224
00000000: ac69 7f3b 787e 83bb d0c3 893a 61ea 0bba
00000010: b81f cebb e8d9 4bbb

exp_avg_sq f4 [6, 1]
0.00016404717 0.00066270836 0.0004597739 8.453818e-06 0.0014146693 0.00077783194
00000000: 1404 2c39 9bb9 2d3a cf0d f139 dfd4 0d37
00000010: 6d6c b93a 6be7 4b3a

w1 f4 [6, 1]
0.100484274 0.18571077 -0.2615475 -0.16858229 0.17072508 -0.5153882
00000000: b3ca cd3d f72a 3e3e 8ee9 85be d6a0 2cbe
00000010: 8ed2 2e3e 7bf0 03bf

exp_avg f4 [6, 1]
0.002951853 -0.0036048975 0.0018838919 7.211625e-05 -0.004018206 -0.0023620094
00000000: e073 413b 2540 6cbb ecec f63a 1e3d 9738
00000010: 28ab 83bb f1cb 1abb

exp_avg_sq f4 [6, 1]
0.00016041638 0.00069951976 0.00048786553 1.2265512e-05 0.0015857123 0.0008450318
00000000: 7235 2839 fa5f 373a 34c8 ff39 f9c7 4d37
00000010: add7 cf3a 2085 5d3a

w1 f4 [6, 1]
0.10623466 0.19095667 -0.26481402 -0.17300597 0.17194104 -0.51639295
00000000: 8f91 d93d 258a 433e b495 87be 7a28 31be
00000010: 5011 303e 5432 04bf

exp_avg f4 [6, 1]
-0.0027843616 -0.005485913 -0.00625351 0.00092565914 -0.009575901 -0.006649007
00000000: d679 36bb 2cc3 b3bb 3eea ccbb efa7 723a
00000010: 3de4 1cbc eadf d9bb

exp_avg_sq f4 [6, 1]
0.00015789426 0.000674766 0.0004851836 1.5617741e-05 0.0016057456 0.00083623914
00000000: 6b90 2539 c8e2 303a 3e60 fe39 d802 8337
00000010: e277 d23a 0f37 5b3a

w1 f4 [6, 1]
0.113354854 0.19673052 -0.26667592 -0.1782569 0.17338082 -0.51668316
00000000: 9726 e83d ba73 493e bf89 88be fa88 36be
00000010: be8a 313e 5945 04bf

exp_avg f4 [6, 1]
0.0006739718 -0.005081956 -0.0022966117 0.0008799133 -0.008606244 -0.0052648378
00000000: 7bad 303a 8986 a6bb c082 16bb fba9 663a
00000010: 3401 0dbc a984 acbb

exp_avg_sq f4 [6, 1]
0.00015426494 0.000677832 0.00050024776 1.9732253e-05 0.0017157857 0.0008684824
00000000: 2ec2 2139 89b0 313a 0f23 033a b186 a537
00000010: 37e4 e03a deaa 633a

w1 f4 [6, 1]
0.11928997 0.2016882 -0.26984394 -0.18316975 0.17388956 -0.51792127
00000000: 4d4e f43d 5a87 4e3e fc28 8abe da90 3bbe
00000010: 1b10 323e 7d96 04bf

exp_avg f4 [6, 1]
-0.0015210479 0.0012707482 9.113946e-05 0.00021674007 0.0026528644 0.001387947
00000000: e65d c7ba 3c8f a63a 2022 bf38 b844 6339
00000010: aedb 2d3b c6eb b53a

exp_avg_sq f4 [6, 1]
0.00014817344 0.00067912636 0.0005083968 2.3583469e-05 0.0018099244 0.00089207373
00000000: 015f 1b39 6607 323a ef45 053a 1dd5 c537
00000010: fc3a ed3a 0eda 693a

w1 f4 [6, 1]
0.12537457 0.20710142 -0.27237028 -0.18871282 0.17507467 -0.5186207
00000000: 3162 003e 6512 543e 1e74 8bbe ef3d 41be
00000010: c646 333e 54c4 04bf

exp_avg f4 [6, 1]
0.00072672905 0.004495362 0.0049636047 -0.0008715004 0.009162815 0.0063496633
00000000: f681 3e3a d44d 933b bca5 a23b 6775 64ba
00000010: a21f 163c d610 d03b

exp_avg_sq f4 [6, 1]
0.00014660499 0.00066553144 0.0005084764 2.7237438e-05 0.0018460739 0.00089175603
00000000: fab9 1939 0f77 2e3a 464b 053a f47b e437
00000010: f6f7 f13a bcc4 693a

w1 f4 [6, 1]
0.13120987 0.21286985 -0.274581 -0.1936431 0.17715791 -0.5185602
00000000: e15b 063e 8efa 593e e195 8cbe 604a 46be
00000010: e268 353e 5cc0 04bf

exp_avg f4 [6, 1]
-0.002015873 -0.0020915484 -0.0036104333 0.0006585876 -0.0057110437 -0.0034655635
00000000: bd1c 04bb 5c12 09bb 059d 6cbb 11a5 2c3a
00000010: b523 bbbb 821e 63bb

exp_avg_sq f4 [6, 1]
0.00014696247 0.000602979 0.0004802899 2.8667617e-05 0.0017204249 0.00082258193
00000000: f019 1a39 3c11 1e3a 6bcf fb39 3d7b f037
00000010: e17f e13a 8aa2 573a

w1 f4 [6, 1]
0.13834904 0.21836086 -0.27668372 -0.19980454 0.17846479 -0.5185842
00000000: 5fab 0d3e fd99 5f3e 7da9 8dbe 9099 4cbe
00000010: 79bf 363e efc1 04bf

exp_avg f4 [6, 1]
0.0024194368 -0.00086566515 0.0025254432 -0.0002323633 0.00022721873 0.00045563665
00000000: 6a8f 1e3b ceed 62ba e881 253b 8ca6 73b9
00000010: 9041 6e39 84e2 ee39

exp_avg_sq f4 [6, 1]
0.00015777168 0.00061762845 0.0005042738 3.3615474e-05 0.0018823843 0.0008715548
00000000: 836f 2539 58e8 213a 3e31 043a 57fe 0c38
00000010: 56ba f63a 0d79 643a

w1 f4 [6, 1]
0.14427882 0.22420648 -0.2788156 -0.20515028 0.17939705 -0.51916057
00000000: d4bd 133e 6296 653e ebc0 8ebe ea12 52be
00000010: dcb3 373e b5e7 04bf

exp_avg f4 [6, 1]
-0.0012743585 0.004241404 0.002512129 -0.0012027739 0.009724059 0.0057756854
00000000: 6008 a7ba 7afb 8a3b 88a2 243b 65a6 9dba
00000010: a951 1f3c f641 bd3b

exp_avg_sq f4 [6, 1]
0.00014617387 0.00059550366 0.00049572496 3.5866367e-05 0.001884703 0.0008602102
00000000: 4046 1939 931b 1c3a 8af3 013a 386f 1638
00000010: 2308 f73a bb7f 613a

w1 f4 [6, 1]
0.15083496 0.23014612 -0.280864 -0.21048911 0.1810071 -0.5190286
00000000: 7b74 1a3e 6dab 6b3e 68cd 8fbe 758a 57be
00000010: ed59 393e 0fdf 04bf

exp_avg f4 [6, 1]
-0.0056075477 -0.003121254 -0.005743066 0.0014074536 -0.004173322 -0.003808753
00000000: 85bf b7bb f48d 4cbb 5430 bcbb 4e7a b83a
00000010: 5dc0 88bb 469c 79bb

exp_avg_sq f4 [6, 1]
0.00014173845 0.00058790296 0.0004999715 3.8928152e-05 0.0019125941 0.00086550665
00000000: a09f 1439 801d 1a3a 8510 033a c946 2338
00000010: 02b0 fa3a 2be3 623a

w1 f4 [6, 1]
0.15590118 0.23527984 -0.28369385 -0.21537296 0.18240684 -0.519407
00000000: 8fa4 1f3e 33ed 703e 5240 91be bb8a 5cbe
00000010: dcc8 3a3e dbf7 04bf

exp_avg f4 [6, 1]
0.0025422045 0.0005943442 0.002549113 -0.0005805326 0.00031995517 0.0010413611
00000000: 1d9b 263b c4cd 1b3a 050f 273b e22e 18ba
00000010: a8bf a739 487e 883a

exp_avg_sq f4 [6, 1]
0.000144008 0.00060303987 0.00052174303 4.2667813e-05 0.0020367757 0.00090751797
00000000: da00 1739 5215 1e3a 95c5 083a 37f6 3238
00000010: 6d7b 053b 80e6 6d3a

w1 f4 [6, 1]
0.16177827 0.24077442 -0.28611445 -0.22044656 0.18367626 -0.51969904
00000000: 34a9 253e 928d 763e 987d 92be bebc 61be
00000010: a115 3c3e ff0a 05bf

exp_avg f4 [6, 1]
0.0025310619 -0.0026607588 -0.00084253616 1.953954e-05 -0.008708012 -0.003939076
00000000: 2ce0 253b 2060 2ebb a5dd 5cba d8e8 a337
00000010: 0dac 0ebc 5d13 81bb

exp_avg_sq f4 [6, 1]
0.00014308376 0.0005920051 0.00052144483 4.3939006e-05 0.0020678665 0.0009092559
00000000: c108 1639 ca30 1b3a 92b1 083a 264b 3838
00000010: 0b85 073b 215b 6e3a

w1 f4 [6, 1]
0.1681219 0.2461317 -0.28761604 -0.2247207 0.18567306 -0.5192852
00000000: 2628 2c3e f309 7c3e 6942 93be 2f1d 66be
00000010: 1421 3e3e e0ef 04bf

exp_avg f4 [6, 1]
0.00018536107 0.001310478 0.000888743 -0.00035174913 0.0014231955 0.0012686788
00000000: 7c5d 4239 58c4 ab3a 88fa 683a f86a b8b9
00000010: 848a ba3a cc49 a63a

exp_avg_sq f4 [6, 1]
0.00013057004 0.0005937779 0.0005138852 4.423245e-05 0.0021702098 0.0009302138
00000000: a1e9 0839 c3a7 1b3a 41b6 063a 3b86 3938
00000010: 143a 0e3b 97d9 733a

w1 f4 [6, 1]
0.17444015 0.25081176 -0.28985357 -0.22901213 0.18714318 -0.5193659
00000000: 70a0 323e 666a 803e b067 94be 2882 6abe
00000010: 76a2 3f3e 2af5 04bf

exp_avg f4 [6, 1]
-0.0008678349 -0.00762136 -0.006487502 0.0020238431 -0.015875623 -0.00951834
00000000: 6a7f 63ba 9abc f9bb 1c95 d4bb 74a2 043b
00000010: 980d 82bc d0f2 1bbc

exp_avg_sq f4 [6, 1]
0.0001390026 0.00062632014 0.0005595233 4.909838e-05 0.0023499127 0.001002768
00000000: 3ac1 1139 a22f 243a f9ac 123a fcee 4d38
00000010: fe00 1a3b 506f 833a

w1 f4 [6, 1]
0.18032047 0.2555074 -0.29165632 -0.23234683 0.18863384 -0.5195057
00000000: eea5 383e ded1 823e fa53 95be 54ec 6dbe
00000010: 3b29 413e 53fe 04bf

exp_avg f4 [6, 1]
-0.0015879463 -0.0010231326 -0.0008521584 0.00057246804 -1.3982877e-05 -0.0004544917
00000000: a322 d0ba a21a 86ba 6263 5fba ae11 163a
00000010: 0098 6ab7 d848 eeb9

exp_avg_sq f4 [6, 1]
0.00014227953 0.00064041384 0.0005714558 5.1034785e-05 0.0024771772 0.0010406681
00000000: df30 1539 72e1 273a c0cd 153a 2f0e 5638
00000010: 2358 223b 0767 883a

w1 f4 [6, 1]
0.1855162 0.26013848 -0.29372957 -0.23550248 0.19014592 -0.5196208
00000000: f5f7 3d3e df30 853e b963 96be 9027 71be
00000010: 9db5 423e de05 05bf

exp_avg f4 [6, 1]
0.00075853855 -0.0009557558 -0.00085470494 -1.5596568e-05 -0.004766318 -0.0019917348
00000000: a9d8 463a b08b 7aba 470e 60ba 60d5 82b7
00000010: c62e 9cbb c487 02bb

exp_avg_sq f4 [6, 1]
0.00013443912 0.00060062396 0.000530506 4.7843772e-05 0.0023393184 0.00097568805
00000000: 3af8 0c39 3173 1d3a a811 0b3a dcab 4838
00000010: 404f 193b 51c5 7f3a

w1 f4 [6, 1]
0.19105698 0.26440644 -0.29558185 -0.23865968 0.1916263 -0.5197802
00000000: 71a4 433e 4860 873e 8156 97be 3463 74be
00000010: af39 443e 5110 05bf

exp_avg f4 [6, 1]
0.001920568 0.0026288573 0.00520378 -0.0006628599 0.0074560377 0.005237934
00000000: 91bb fb3a e848 2c3b 7884 aa3b c6c3 2dba
00000010: c751 f43b faa2 ab3b

exp_avg_sq f4 [6, 1]
0.00014505172 0.0006113658 0.0005591994 4.8811664e-05 0.0024301724 0.0010105146
00000000: 0619 1839 1044 203a 3d97 123a 20bb 4c38
00000010: 8743 1f3b 3e73 843a

w1 f4 [6, 1]
0.19639397 0.2680735 -0.29729563 -0.24110873 0.19310917 -0.5199955
00000000: 801b 493e ee40 893e 2237 98be 35e5 76be
00000010: 69be 453e 6d1e 05bf

exp_avg f4 [6, 1]
-0.002053034 -0.0021316877 -0.003605809 0.00085128134 -0.006553117 -0.0039749118
00000000: 328c 06bb c9b3 0bbb 704f 6cbb 8628 5f3a
00000010: 88bb d6bb fa3f 82bb

exp_avg_sq f4 [6, 1]
0.00015326102 0.0006502436 0.0005943295 5.1301835e-05 0.0026372678 0.0010851161
00000000: b1b4 2039 1c75 2a3a c7cc 1b3a ed2c 5738
00000010: 03d6 2c3b 743a 8e3a

w1 f4 [6, 1]
0.20029083 0.2717239 -0.2994529 -0.24406423 0.19477972 -0.520451
00000000: 0a19 4d3e 651f 8b3e e451 99be f9eb 79be
00000010: 5674 473e 473c 05bf

exp_avg f4 [6, 1]
-0.002059916 0.0019366073 0.0007995572 -0.00043937593 0.0057729105 0.0029508527
00000000: a8ff 06bb c2d5 fd3a 6099 513a 0a5c e6b9
00000010: af2a bd3b 1863 413b

exp_avg_sq f4 [6, 1]
0.00014946675 0.0006085657 0.00056013354 4.7722675e-05 0.0024938418 0.0010195532
00000000: 2dba 1c39 2788 1f3a edd5 123a d529 4838
00000010: b96f 233b 87a2 853a

w1 f4 [6, 1]
0.20443006 0.27516562 -0.30181146 -0.24530959 0.19599013 -0.52121216
00000000: 1d56 513e 82e2 8c3e 0887 9abe 7032 7bbe
00000010: a3b1 483e 296e 05bf

exp_avg f4 [6, 1]
-0.0031640667 -0.003302887 -0.0034600901 0.0010967467 -0.0039372277 -0.0032201735
00000000: 3b5c 4fbb 4075 58bb aec2 62bb b6c0 8f3a
00000010: dc03 81bb 8c09 53bb

exp_avg_sq f4 [6, 1]
0.00016281141 0.0005849171 0.0005511739 4.6177523e-05 0.0024085415 0.0009839155
00000000: 5bb8 2a39 1f55 193a a77c 103a bdae 4138
00000010: 9fd8 1d3b baf6 803a

w1 f4 [6, 1]
0.20919843 0.2789104 -0.3026568 -0.24783573 0.19807507 -0.5206507
00000000: 1d38 563e 58cd 8e3e d5f5 9abe a6c8 7dbe
00000010: 31d4 4a3e 5d49 05bf

exp_avg f4 [6, 1]
-0.0017888276 -0.0043249885 -0.0033064932 0.0018296019 -0.0064784708 -0.0051485356
00000000: 1877 eaba a2b8 8dbb c0b1 58bb 41cf ef3a
00000010: 5a49 d4bb 0cb5 a8bb

exp_avg_sq f4 [6, 1]
0.0001586061 0.00059522566 0.0005603095 4.631039e-05 0.0024717 0.0010065973
00000000: 804f 2639 eb08 1c3a bce1 123a 673d 4238
00000010: 3ffc 213b cdef 833a

w1 f4 [6, 1]
0.21269192 0.28133705 -0.304424 -0.24875358 0.19958606 -0.5213093
00000000: e9cb 593e 690b 903e 76dd 9bbe 42b9 7ebe
00000010: 4a60 4c3e 8774 05bf

exp_avg f4 [6, 1]
0.00023528359 0.007501927 0.006242481 -0.0023187278 0.014258001 0.00946162
00000000: 75b6 7639 bad2 f53b ba8d cc3b ccf5 17bb
00000010: 649a 693c e904 1b3c

exp_avg_sq f4 [6, 1]
0.00015094866 0.00073021086 0.00067376427 5.458722e-05 0.0031237253 0.0012566671
00000000: f947 1e39 9f6b 3f3a 8e9f 303a 95f4 6438
00000010: 6ab7 4c3b c0b6 a43a
