ckpt/empirical/training/2023-06-08_16-22-50-rep1.pt (torch, 846718 bytes, 271 tensors)

w1 f4 [3, 1]
-0.18172948 -0.3456689 -0.23994386
00000000: 4b17 3abe 84fb b0be d8b3 75be

exp_avg f4 [3, 1]
-0.0017733241 0.0015448258 -0.0024016572
00000000: e26e e8ba c17b ca3a 1f65 1dbb

exp_avg_sq f4 [3, 1]
0.00092058146 0.00022966685 0.00012513238
00000000: 2d53 713a bad2 7039 f835 0339

value f8 []
0.0019447095671213195
00000000: a79d 6cff b3dc 5f3f

w1 f4 [3, 1]
-0.1906618 -0.3420227 -0.22008638
00000000: d93c 43be 991d afbe 535e 61be

exp_avg f4 [3, 1]
-0.0034462758 0.0024332926 -0.0014701148
00000000: eada 61bb e077 1f3b deb0 c0ba

exp_avg_sq f4 [3, 1]
0.00084079907 0.00025960384 0.00014115314
00000000: 1269 5c3a 701b 8839 8202 1439

w1 f4 [3, 1]
-0.2028676 -0.3407822 -0.19561744
00000000: 86bc 4fbe 017b aebe f04f 48be

exp_avg f4 [3, 1]
-0.00077235565 0.0006392434 0.0019561446
00000000: e977 4aba e692 273a a932 003b

exp_avg_sq f4 [3, 1]
0.0006519117 0.00025717984 0.00013893154
00000000: 0ee5 2a3a 18d6 8639 27ae 1139

w1 f4 [3, 1]
-0.22098462 -0.34515166 -0.17092183
00000000: cb49 62be b8b7 b0be 2206 2fbe

exp_avg f4 [3, 1]
0.002089091 -0.0009060217 -0.0014791634
00000000: 22e9 083b 1682 6dba 7de0 c1ba

exp_avg_sq f4 [3, 1]
0.0005555922 0.00029498944 0.0001354801
00000000: 29a5 113a d0a8 9a39 aa0f 0e39

w1 f4 [3, 1]
-0.24423061 -0.3587111 -0.14415254
00000000: 9717 7abe fba8 b7be b99c 13be

exp_avg f4 [3, 1]
0.0036898358 -0.0020301107 -0.0004974662
00000000: 2cd1 713b 9b0b 05bb 6468 02ba

exp_avg_sq f4 [3, 1]
0.0004692033 0.00031970264 0.00013044143
00000000: 67ff f539 c39d a739 1bc7 0839

w1 f4 [3, 1]
-0.27064458 -0.3839571 -0.120675534
00000000: ed91 8abe 0696 c4be bc24 f7bd

exp_avg f4 [3, 1]
0.004433506 -0.0018566044 0.0011089194
00000000: f246 913b 4e59 f3ba 2959 913a

exp_avg_sq f4 [3, 1]
0.0005372672 0.0004353897 0.00014346887
00000000: 64d7 0c3a 0445 e439 2270 1639

w1 f4 [3, 1]
-0.29797754 -0.4135315 -0.10685197
00000000: 8390 98be 67ba d3be 35d5 dabd

exp_avg f4 [3, 1]
0.0017914127 -0.0004004126 -0.00016051775
00000000: d6cd ea3a 78ee d1b9 a850 28b9

exp_avg_sq f4 [3, 1]
0.00051156234 0.00043925227 0.00014846258
00000000: 5e1a 063a 714b e639 9fac 1b39

w1 f4 [3, 1]
-0.32584488 -0.43481815 -0.09993712
00000000: 24d5 a6be 7ca0 debe d5ab ccbd

exp_avg f4 [3, 1]
0.00256025 1.5898375e-05 0.0046877656
00000000: dec9 273b 805d 8537 d49b 993b

exp_avg_sq f4 [3, 1]
0.00048463675 0.0005283898 0.00018560787
00000000: d816 fe39 a483 0a3a bc9f 4239

w1 f4 [3, 1]
-0.3570971 -0.44654348 -0.09815905
00000000: 6ed5 b6be 59a1 e4be 9d07 c9bd

exp_avg f4 [3, 1]
-0.004912632 0.004713866 -0.00094026397
00000000: 25fa a0bb c676 9a3b 0c7c 76ba

exp_avg_sq f4 [3, 1]
0.0004455926 0.0005808518 0.00020438657
00000000: 6d9e e939 4e44 183a 9a50 5639

w1 f4 [3, 1]
-0.38812512 -0.45274603 -0.09837987
00000000: 56b8 c6be 54ce e7be 637b c9bd

exp_avg f4 [3, 1]
-0.0023554584 0.0013000148 0.00031103473
00000000: 095e 1abb 4265 aa3a 6012 a339

exp_avg_sq f4 [3, 1]
0.0004377182 0.00066526886 0.0002074843
00000000: 8b7d e539 7065 2e3a 2590 5939

w1 f4 [3, 1]
-0.41156766 -0.45745817 -0.10039332
00000000: ffb8 d2be f537 eabe 039b cdbd

exp_avg f4 [3, 1]
-0.0013751048 -0.00038790517 -0.002311446
00000000: dc3c b4ba c05f cbb9 a17b 17bb

exp_avg_sq f4 [3, 1]
0.00047272735 0.0008165722 0.00019411494
00000000: 64d8 f739 3c0f 563a 558b 4b39

w1 f4 [3, 1]
-0.42897508 -0.4609345 -0.09868866
00000000: 9fa2 dbbe 9bff ebbe 481d cabd

exp_avg f4 [3, 1]
-0.0022261036 0.002426708 -0.0002970767
00000000: d2e3 11bb 6709 1f3b f6c0 9bb9

exp_avg_sq f4 [3, 1]
0.0004783784 0.0007948901 0.00016449408
00000000: ddce fa39 2c60 503a 0b7c 2c39

w1 f4 [3, 1]
-0.44014883 -0.46378055 -0.099536896
00000000: 305b e1be a574 edbe 00da cbbd

exp_avg f4 [3, 1]
0.00036912292 -0.0026726234 -0.0032357704
00000000: d786 c139 2e27 2fbb 380f 54bb

exp_avg_sq f4 [3, 1]
0.0005786275 0.0010205152 0.00015851148
00000000: 09af 173a cfc2 853a 1a36 2639

w1 f4 [3, 1]
-0.4464016 -0.46678638 -0.0978761
00000000: c08e e4be a0fe eebe 4473 c8bd

exp_avg f4 [3, 1]
-0.0007695926 0.00075430283 -0.0015520665
00000000: 7cbe 49ba 68bc 453a b66e cbba

exp_avg_sq f4 [3, 1]
0.0005757188 0.0011048286 0.00014230609
00000000: d6eb 163a e5cf 903a 0038 1539

w1 f4 [3, 1]
-0.4505009 -0.46965215 -0.09844356
00000000: 0ea8 e6be 3f76 f0be c79c c9bd

exp_avg f4 [3, 1]
0.0030617262 -0.0024764384 0.0025223386
00000000: 3ea7 483b be4b 22bb d24d 253b

exp_avg_sq f4 [3, 1]
0.00057585264 0.0010727289 0.00014136359
00000000: d1f4 163a cf9a 8c3a 003b 1439

w1 f4 [3, 1]
-0.453484 -0.47227064 -0.0968107
00000000: 0e2f e8be 75cd f1be b044 c6bd

exp_avg f4 [3, 1]
-0.0040767556 0.004146615 -0.0012297152
00000000: 4e96 85bb 54e0 873b 652e a1ba

exp_avg_sq f4 [3, 1]
0.000619206 0.0011551846 0.00013874144
00000000: 3652 223a 9069 973a 1f7b 1139

w1 f4 [3, 1]
-0.45598853 -0.4750675 -0.09687927
00000000: 5477 e9be 0c3c f3be a468 c6bd

exp_avg f4 [3, 1]
0.002395512 -0.004025774 -0.003367737
00000000: 06fe 1c3b a4ea 83bb 40b5 5cbb

exp_avg_sq f4 [3, 1]
0.00063224346 0.001242417 0.00014353909
00000000: 24bd 253a 99d8 a23a fb82 1639

w1 f4 [3, 1]
-0.4588719 -0.47769678 -0.09659957
00000000: 42f1 eabe ac94 f4be ffd5 c5bd

exp_avg f4 [3, 1]
-0.0039784634 0.004679506 -0.001851415
00000000: c55d 82bb 8b56 993b 2eab f2ba

exp_avg_sq f4 [3, 1]
0.00060939044 0.0011685273 0.0001321749
00000000: 80bf 1f3a 4529 993a 6e98 0a39

w1 f4 [3, 1]
-0.46176878 -0.48049065 -0.09660285
00000000: f56c ecbe df02 f6be b7d7 c5bd

exp_avg f4 [3, 1]
-0.0021119206 0.0020312807 4.8430156e-05
00000000: 2668 0abb 3c1f 053b 7c21 4b38

exp_avg_sq f4 [3, 1]
0.00062429975 0.0012284357 0.00013188709
00000000: 0ca8 233a 7603 a13a 2c4b 0a39

w1 f4 [3, 1]
-0.46463367 -0.4832142 -0.0968468
00000000: 77e4 edbe da67 f7be 9d57 c6bd

exp_avg f4 [3, 1]
-0.0019536526 0.0017056755 -0.0013347707
00000000: da08 00bb f990 df3a 79f3 aeba

exp_avg_sq f4 [3, 1]
0.00064063084 0.0012477082 0.00013666095
00000000: 02f0 273a 248a a33a a54c 0f39

w1 f4 [3, 1]
-0.46782473 -0.48532724 -0.096679285
00000000: b986 efbe d07c f8be caff c5bd

exp_avg f4 [3, 1]
0.004237793 -0.006204635 -0.0020573498
00000000: 2fdd 8a3b 4050 cbbb 9ad4 06bb

exp_avg_sq f4 [3, 1]
0.0006652433 0.0013303331 0.0001321993
00000000: b963 2e3a 925e ae3a fb9e 0a39

w1 f4 [3, 1]
-0.47023034 -0.48817965 -0.09629881
00000000: 08c2 f0be aff2 f9be 4f38 c5bd

exp_avg f4 [3, 1]
-0.000655547 -0.001559325 -0.0018494522
00000000: 04d9 2bba 4462 ccba 5169 f2ba

exp_avg_sq f4 [3, 1]
0.000689893 0.001368149 0.00014078392
00000000: efd9 343a 7653 b33a 659f 1339

w1 f4 [3, 1]
-0.47309414 -0.49067217 -0.09577914
00000000: 6539 f2be 6239 fbbe db27 c4bd

exp_avg f4 [3, 1]
0.0018851407 -0.0016393868 -0.0029720385
00000000: d316 f73a b1e0 d6ba 88c6 42bb

exp_avg_sq f4 [3, 1]
0.00072318775 0.0014404015 0.0001371627
00000000: 4f94 3d3a dbcb bc3a 55d3 0f39

w1 f4 [3, 1]
-0.47627133 -0.49309725 -0.09735767
00000000: d6d9 f3be 3e77 fcbe 7563 c7bd

exp_avg f4 [3, 1]
-0.0015111163 0.0013592925 0.003639029
00000000: a610 c6ba 4a2a b23a c77c 6e3b

exp_avg_sq f4 [3, 1]
0.00067346834 0.00136403 0.00013966938
00000000: b28b 303a 40c9 b23a 3774 1239

w1 f4 [3, 1]
-0.47849703 -0.49584484 -0.09632369
00000000: 90fd f4be 60df fdbe 5b45 c5bd

exp_avg f4 [3, 1]
0.0015243853 0.0013237854 0.0027335926
00000000: e2cd c73a de82 ad3a 1326 333b

exp_avg_sq f4 [3, 1]
0.0006425926 0.0012980707 0.0001419439
00000000: a973 283a 0624 aa3a c7d6 1439

w1 f4 [3, 1]
-0.48133874 -0.4986857 -0.096505396
00000000: 0872 f6be bb53 ffbe 9fa4 c5bd

exp_avg f4 [3, 1]
0.0043826895 -0.0010501018 -0.00049399975
00000000: aa9c 8f3b 92a3 89ba c37f 01ba

exp_avg_sq f4 [3, 1]
0.0005747508 0.0011391825 0.00012523813
00000000: e0aa 163a 9f50 953a 5b52 0339

w1 f4 [3, 1]
-0.4838825 -0.50109047 -0.096132815
00000000: 72bf f7be 7747 00bf 48e1 c4bd

exp_avg f4 [3, 1]
-0.0032372482 0.004615214 0.0013222877
00000000: 0328 54bb 393b 973b 9d50 ad3a

exp_avg_sq f4 [3, 1]
0.00065148063 0.00123729 0.00013070735
00000000: 20c8 2a3a 902c a23a 7d0e 0939

w1 f4 [3, 1]
-0.48609346 -0.5035152 -0.09629212
00000000: 3ee1 f8be 5fe6 00bf ce34 c5bd

exp_avg f4 [3, 1]
-0.0017458003 0.0040991306 0.00037204346
00000000: 56d3 e4ba 0052 863b d40e c339

exp_avg_sq f4 [3, 1]
0.00068838376 0.0013983595 0.00013659244
00000000: a774 343a 2949 b73a 413a 0f39

w1 f4 [3, 1]
-0.48891267 -0.505502 -0.09669561
00000000: c352 fabe 9468 01bf 5908 c6bd

exp_avg f4 [3, 1]
0.00078301446 0.00090652436 -0.00054099114
00000000: 3643 4d3a d2a3 6d3a 4dd1 0dba

exp_avg_sq f4 [3, 1]
0.00069275004 0.0013301151 0.00013201407
00000000: ab99 353a 4257 ae3a 426d 0a39

w1 f4 [3, 1]
-0.49076474 -0.5076774 -0.09525176
00000000: 8445 fbbe 25f7 01bf 5b13 c3bd

exp_avg f4 [3, 1]
0.0025137258 -0.004840575 -0.0024859332
00000000: 52bd 243b b09d 9ebb 0aeb 22bb

exp_avg_sq f4 [3, 1]
0.0006992072 0.0013700298 0.00013427058
00000000: 004b 373a 9292 b33a fcca 0c39

w1 f4 [3, 1]
-0.49317363 -0.50999224 -0.09583113
00000000: 4181 fcbe da8e 02bf 1d43 c4bd

exp_avg f4 [3, 1]
0.00031959848 0.0016728239 0.0005295941
00000000: c88f a739 a842 db3a 75d4 0a3a

exp_avg_sq f4 [3, 1]
0.00073042716 0.0014564906 0.00013609306
00000000: 237a 3f3a b7e7 be3a 34b4 0e39

w1 f4 [3, 1]
-0.49537975 -0.5120211 -0.09669072
00000000: 6aa2 fdbe d113 03bf c905 c6bd

exp_avg f4 [3, 1]
-0.004370109 0.007128092 0.000984146
00000000: 2233 8fbb c592 e93b 76fe 803a

exp_avg_sq f4 [3, 1]
0.0007016063 0.0013878355 0.0001376409
00000000: 00ec 373a 08e8 b53a b353 1039

w1 f4 [3, 1]
-0.497213 -0.51408625 -0.097041845
00000000: b492 febe 289b 03bf e0bd c6bd

exp_avg f4 [3, 1]
0.0021110433 -0.002963374 -0.00072101085
00000000: 6e59 0a3b 2a35 42bb 3802 3dba

exp_avg_sq f4 [3, 1]
0.0007189173 0.0014299889 0.00014261737
00000000: b975 3c3a 776e bb3a 8f8b 1539

w1 f4 [3, 1]
-0.4992342 -0.51583725 -0.09585447
00000000: a09b ffbe e90d 04bf 594f c4bd

exp_avg f4 [3, 1]
0.0037638056 -0.004379009 -0.0002458049
00000000: 2eaa 763b ca7d 8fbb 60df 80b9

exp_avg_sq f4 [3, 1]
0.00077761454 0.0016140399 0.00014091429
00000000: d4d8 4b3a 318e d33a 64c2 1339

w1 f4 [3, 1]
-0.50135636 -0.51760405 -0.096615195
00000000: e458 00bf b381 04bf 30de c5bd

exp_avg f4 [3, 1]
-0.00038140616 0.002200366 -0.0012160452
00000000: 78f7 c7b9 0434 103b b563 9fba

exp_avg_sq f4 [3, 1]
0.0007327917 0.0014777463 0.00014088136
00000000: d218 403a f0b0 c13a 8db9 1339

w1 f4 [3, 1]
-0.50290895 -0.5196691 -0.09617025
00000000: a4be 00bf 0909 05bf e8f4 c4bd

exp_avg f4 [3, 1]
-0.0050627775 0.0072195996 -0.0008237001
00000000: a8e5 a5bb 6492 ec3b 94ed 57ba

exp_avg_sq f4 [3, 1]
0.0007412382 0.0014063427 0.00012801119
00000000: a74f 423a 0855 b83a be3a 0639

w1 f4 [3, 1]
-0.50517243 -0.5212141 -0.0968201
00000000: fb52 01bf 4a6e 05bf 9e49 c6bd

exp_avg f4 [3, 1]
0.002922611 -0.0016553444 0.00018524274
00000000: 4789 3f3b 24f8 d8ba b83d 4239

exp_avg_sq f4 [3, 1]
0.00071386225 0.0014787496 0.00013646399
00000000: 7c22 3b3a 9ad2 c13a c617 0f39

w1 f4 [3, 1]
-0.5070628 -0.5230521 -0.096559614
00000000: dece 01bf bee6 05bf 0cc1 c5bd

exp_avg f4 [3, 1]
-0.0011433054 0.0008436488 0.0034609353
00000000: f7da 95ba 5028 5d3a dcd0 623b

exp_avg_sq f4 [3, 1]
0.00069512625 0.001380686 0.00013111868
00000000: 2239 363a 22f8 b43a e77c 0939

w1 f4 [3, 1]
-0.5093102 -0.5247635 -0.0954724
00000000: 2762 02bf e756 06bf 0987 c3bd

exp_avg f4 [3, 1]
0.0042942786 -0.005136032 -0.001214902
00000000: 05b7 8c3b 294c a8bb 593d 9fba

exp_avg_sq f4 [3, 1]
0.00069762504 0.0013860876 0.00013042818
00000000: d3e0 363a 62ad b53a 8cc3 0839

w1 f4 [3, 1]
-0.51063055 -0.52667195 -0.09618497
00000000: afb8 02bf f9d3 06bf a0fc c4bd

exp_avg f4 [3, 1]
-0.000697847 0.0009848232 0.0023487885
00000000: b8ef 36ba 2f15 813a 22ee 193b

exp_avg_sq f4 [3, 1]
0.0007681709 0.0015255961 0.00013939876
00000000: 145f 493a 83f6 c73a 922b 1239

w1 f4 [3, 1]
-0.51253 -0.528228 -0.09631761
00000000: 2b35 03bf f339 07bf 2b42 c5bd

exp_avg f4 [3, 1]
0.0036990042 -0.0015555911 0.00068655703
00000000: fe6a 723b fae4 cbba 10fa 333a

exp_avg_sq f4 [3, 1]
0.0007768333 0.0015147842 0.00014094921
00000000: 66a4 4b3a b98b c63a c4cb 1339

w1 f4 [3, 1]
-0.5140449 -0.5298509 -0.096209295
00000000: 7298 03bf 4fa4 07bf 6109 c5bd

exp_avg f4 [3, 1]
-0.002255984 0.0005322541 -0.0006149608
00000000: 22d9 13bb f886 0b3a 5235 21ba

exp_avg_sq f4 [3, 1]
0.0008008307 0.0015114243 0.0001403569
00000000: d7ee 513a fc1a c63a c52c 1339

w1 f4 [3, 1]
-0.5156999 -0.5312506 -0.09710544
00000000: e904 04bf 0a00 08bf 38df c6bd

exp_avg f4 [3, 1]
-0.006834325 0.0083564855 0.0006420355
00000000: 79f2 dfbb a4e9 083c 464e 283a

exp_avg_sq f4 [3, 1]
0.00072546524 0.0014275748 0.00013444424
00000000: 262d 3e3a 761d bb3a 9af9 0c39

w1 f4 [3, 1]
-0.5172074 -0.53263193 -0.09722106
00000000: b467 04bf 915a 08bf d61b c7bd

exp_avg f4 [3, 1]
-0.00091197365 0.003484469 0.0024544292
00000000: 8411 6fba b05b 643b 7dda 203b

exp_avg_sq f4 [3, 1]
0.00075715146 0.001528061 0.00013549314
00000000: 937b 463a 3849 c83a 2a13 0e39

w1 f4 [3, 1]
-0.5190852 -0.533919 -0.09628987
00000000: c5e2 04bf eaae 08bf a033 c5bd

exp_avg f4 [3, 1]
0.0036686554 -0.0044219536 -5.3020864e-05
00000000: d36d 703b 09e6 90bb b862 5eb8

exp_avg_sq f4 [3, 1]
0.00079675036 0.0015784722 0.00013746037
00000000: 03dd 503a bde4 ce3a 3d23 1039

w1 f4 [3, 1]
-0.5204015 -0.5356547 -0.09706549
00000000: 0839 05bf ab20 09bf 46ca c6bd

exp_avg f4 [3, 1]
-0.002733183 0.002262049 -0.0025824422
00000000: 341f 33bb e23e 143b 313e 29bb

exp_avg_sq f4 [3, 1]
0.00069058064 0.0013666749 0.00013199542
00000000: 1508 353a 0022 b33a 4068 0a39

w1 f4 [3, 1]
-0.5217859 -0.53717685 -0.09601551
00000000: c393 05bf 6c84 09bf c8a3 c4bd

exp_avg f4 [3, 1]
-0.0043124184 0.0044357944 0.0002889693
00000000: 304f 8dbb 245a 913b ce80 9739

exp_avg_sq f4 [3, 1]
0.00071386684 0.0013841795 0.0001396706
00000000: cb22 3b3a 5b6d b53a 8b74 1239

w1 f4 [3, 1]
-0.5232438 -0.53853923 -0.096159086
00000000: 4ef3 05bf b5dd 09bf 0eef c4bd

exp_avg f4 [3, 1]
0.00029635383 -0.00081590284 -0.000624549
00000000: f05f 9b39 50e2 55ba c6b8 23ba

exp_avg_sq f4 [3, 1]
0.0008067818 0.0015732636 0.00014211312
00000000: 367e 533a f735 ce3a 3304 1539

w1 f4 [3, 1]
-0.52476674 -0.53977734 -0.09565917
00000000: 1d57 06bf d92e 0abf f4e8 c3bd

exp_avg f4 [3, 1]
1.4206395e-05 0.0007082175 -0.0012106723
00000000: 0058 6e37 aca7 393a 6caf 9eba

exp_avg_sq f4 [3, 1]
0.0008287328 0.0015895623 0.00013720027
00000000: 513f 593a dc58 d03a 6bdd 0f39

w1 f4 [3, 1]
-0.5259686 -0.54115534 -0.09790751
00000000: e1a5 06bf 2889 0abf bc83 c8bd

exp_avg f4 [3, 1]
-0.00021806941 0.0009733832 0.0014663883
00000000: 90a9 64b9 a42a 7f3a d433 c03a

exp_avg_sq f4 [3, 1]
0.0008450302 0.001576404 0.00014179015
00000000: 0485 5d3a 579f ce3a 81ad 1439

w1 f4 [3, 1]
-0.5271388 -0.5426844 -0.097328335
00000000: 92f2 06bf 5ded 0abf 1454 c7bd

exp_avg f4 [3, 1]
-0.0013389145 0.00045684166 -0.0016169692
00000000: 847e afba 4084 ef39 7cf0 d3ba

exp_avg_sq f4 [3, 1]
0.00077266974 0.0014970729 0.00014753279
00000000: fd8c 4a3a 6e39 c43a 08b3 1a39

w1 f4 [3, 1]
-0.52871704 -0.5439199 -0.097314395
00000000: 005a 07bf 563e 0bbf c54c c7bd

exp_avg f4 [3, 1]
0.007406317 -0.009007757 0.00036677287
00000000: b1b0 f23b 4595 13bc 6c4b c039

exp_avg_sq f4 [3, 1]
0.0007484945 0.00141327 0.0001377556
00000000: 9e36 443a 793d b93a 7d72 1039

w1 f4 [3, 1]
-0.53014666 -0.54509515 -0.09671717
00000000: b1b7 07bf 5b8b 0bbf a713 c6bd

exp_avg f4 [3, 1]
0.0012684481 -0.0017826025 -0.0008846642
00000000: 0e42 a63a 37a6 e9ba cfe8 67ba

exp_avg_sq f4 [3, 1]
0.00077016494 0.0015348519 0.00014229784
00000000: e5e4 493a 152d c93a c935 1539

w1 f4 [3, 1]
-0.5320187 -0.54576486 -0.09696925
00000000: 6132 08bf 3fb7 0bbf d097 c6bd

exp_avg f4 [3, 1]
0.006454969 -0.006851321 -0.00060449506
00000000: 3484 d33b 0c81 e0bb fa76 1eba

exp_avg_sq f4 [3, 1]
0.00079631805 0.001584715 0.00014132392
00000000: 00c0 503a 36b6 cf3a 5a30 1439

w1 f4 [3, 1]
-0.5327202 -0.54747665 -0.097550675
00000000: 5a60 08bf 6e27 0cbf a6c8 c7bd

exp_avg f4 [3, 1]
0.0019840738 -0.0018700368 0.0014828357
00000000: 3c07 023b 061c f5ba b65b c23a

exp_avg_sq f4 [3, 1]
0.0007361363 0.0013740864 0.0001362946
00000000: 45f9 403a b01a b43a 4eea 0e39

w1 f4 [3, 1]
-0.53403836 -0.54879004 -0.09722045
00000000: bdb6 08bf 817d 0cbf 841b c7bd

exp_avg f4 [3, 1]
-0.0010259852 0.002988118 0.0009884939
00000000: 5a7a 86ba 4dd4 433b 5a90 813a

exp_avg_sq f4 [3, 1]
0.0007313677 0.0014123707 0.0001397055
00000000: 41b9 3f3a 4c1f b93a e97d 1239

w1 f4 [3, 1]
-0.5355313 -0.5499063 -0.09663787
00000000: 9418 09bf a9c6 0cbf 13ea c5bd

exp_avg f4 [3, 1]
0.0019207904 -0.0029835245 -0.0019765869
00000000: 08c3 fb3a 3c87 43bb a089 01bb

exp_avg_sq f4 [3, 1]
0.0007803752 0.0014371559 0.00013904383
00000000: 1892 4c3a f35e bc3a 4bcc 1139

w1 f4 [3, 1]
-0.53672254 -0.55114937 -0.09675158
00000000: a666 09bf 2018 0dbf b125 c6bd

exp_avg f4 [3, 1]
0.007156848 -0.006719005 -0.00021221783
00000000: fe83 ea3b 192b dcbb ca86 5eb9

exp_avg_sq f4 [3, 1]
0.0007465447 0.0012925357 0.00012928598
00000000: c4b3 433a 4d6a a93a f190 0739

w1 f4 [3, 1]
-0.53744745 -0.55247635 -0.096721165
00000000: 2896 09bf 176f 0dbf bf15 c6bd

exp_avg f4 [3, 1]
2.2337772e-05 -0.00094412034 0.0013442277
00000000: 0062 bb37 d87e 77ba cc30 b03a

exp_avg_sq f4 [3, 1]
0.0008824836 0.0016490396 0.00014358193
00000000: 7956 673a 9624 d83a 7b8e 1639

w1 f4 [3, 1]
-0.539254 -0.5531997 -0.09741767
00000000: 8d0c 0abf 7f9e 0dbf ea82 c7bd

exp_avg f4 [3, 1]
0.0029633308 -0.0032467186 0.0004669531
00000000: 7134 423b e6c6 54bb 62d1 f439

exp_avg_sq f4 [3, 1]
0.0007675293 0.0014854373 0.00013946823
00000000: 0534 493a 01b3 c23a 383e 1239

w1 f4 [3, 1]
-0.5400043 -0.5546496 -0.09742254
00000000: b93d 0abf 84fd 0dbf 7885 c7bd

exp_avg f4 [3, 1]
-0.0034522116 0.0025088142 -0.0011943243
00000000: 803e 62bb eb6a 243b e08a 9cba

exp_avg_sq f4 [3, 1]
0.00076644035 0.0013886942 0.00013820454
00000000: f1ea 483a d804 b63a 00eb 1039

w1 f4 [3, 1]
-0.540788 -0.555907 -0.09718448
00000000: 1571 0abf ec4f 0ebf a808 c7bd

exp_avg f4 [3, 1]
0.002273373 -0.0001671873 0.0010292105
00000000: dffc 143b 004f 2fb9 93e6 863a

exp_avg_sq f4 [3, 1]
0.0008170203 0.0015193464 0.0001349558
00000000: 4e2d 563a ce24 c73a ec82 0d39

w1 f4 [3, 1]
-0.5421093 -0.5567063 -0.0968831
00000000: adc7 0abf 4e84 0ebf a66a c6bd

exp_avg f4 [3, 1]
0.0028872672 -0.0042454293 -0.0028210827
00000000: 4e38 3d3b 3e1d 8bbb eae1 38bb

exp_avg_sq f4 [3, 1]
0.00076774985 0.0014643233 0.00013576931
00000000: d242 493a 89ee bf3a 4c5d 0e39

w1 f4 [3, 1]
-0.54311436 -0.5577879 -0.09590433
00000000: 8b09 0bbf 30cb 0ebf 7d69 c4bd

exp_avg f4 [3, 1]
-0.0016657768 0.003823696 -0.0007942254
00000000: 3256 daba f996 7a3b 9033 50ba

exp_avg_sq f4 [3, 1]
0.00078464067 0.0014976783 0.0001409496
00000000: 58b0 4d3a bf4d c43a dfcb 1339

w1 f4 [3, 1]
-0.5443895 -0.55880845 -0.09621265
00000000: 1c5d 0bbf 120e 0fbf 230b c5bd

exp_avg f4 [3, 1]
0.0012437967 -0.0018075033 0.0009444808
00000000: e406 a33a bfe9 ecba 0997 773a

exp_avg_sq f4 [3, 1]
0.0007733951 0.0014287537 0.00013959738
00000000: abbd 4a3a 0545 bb3a e360 1239

w1 f4 [3, 1]
-0.5452645 -0.55978173 -0.09683621
00000000: 7496 0bbf db4d 0fbf 1052 c6bd

exp_avg f4 [3, 1]
0.0036364936 -0.0032697709 0.0004349468
00000000: 3d52 6e3b a749 56bb 9209 e439

exp_avg_sq f4 [3, 1]
0.00078669004 0.0015430135 0.00014344977
00000000: e039 4e3a f13e ca3a 016b 1639

w1 f4 [3, 1]
-0.54652625 -0.5604918 -0.095777616
00000000: 25e9 0bbf 647c 0fbf 0e27 c4bd

exp_avg f4 [3, 1]
0.0026652722 -0.003474969 -0.0029799351
00000000: d9ab 2e3b 4ebc 63bb 044b 43bb

exp_avg_sq f4 [3, 1]
0.0007758778 0.00147533 0.00014237924
00000000: 4764 4b3a dc5f c13a a34b 1539

w1 f4 [3, 1]
-0.54725015 -0.5615969 -0.09753734
00000000: 9618 0cbf d0c4 0fbf a8c1 c7bd

exp_avg f4 [3, 1]
-0.0051116776 0.005202544 -0.00041425048
00000000: dc7f a7bb 1a7a aa3b c22f d9b9

exp_avg_sq f4 [3, 1]
0.00079192145 0.0015086938 0.00013549736
00000000: f398 4f3a 5dbf c53a 4c14 0e39

w1 f4 [3, 1]
-0.5481401 -0.5626271 -0.097553685
00000000: e952 0cbf 5408 10bf 3aca c7bd

exp_avg f4 [3, 1]
0.0012116118 -0.0024460952 0.0019675726
00000000: f2ce 9e3a ab4e 20bb 64f2 003b

exp_avg_sq f4 [3, 1]
0.00081465114 0.0015490934 0.00013341682
00000000: 508e 553a f30a cb3a cee5 0b39

w1 f4 [3, 1]
-0.54900753 -0.56354713 -0.09712268
00000000: c28b 0cbf a044 10bf 41e8 c6bd

exp_avg f4 [3, 1]
-0.0043351403 0.007295049 -0.0010674907
00000000: cb0d 8ebb 4e0b ef3b 0beb 8bba

exp_avg_sq f4 [3, 1]
0.00085510244 0.0016774721 0.00014765267
00000000: f428 603a a0de db3a 36d3 1a39

w1 f4 [3, 1]
-0.55069 -0.5639006 -0.09677363
00000000: 05fa 0cbf ca5b 10bf 4131 c6bd

exp_avg f4 [3, 1]
0.0009413976 -0.0036342074 -0.0053495904
00000000: 20c8 763a e22b 6ebb 9e4b afbb

exp_avg_sq f4 [3, 1]
0.000844955 0.001628812 0.00014048687
00000000: f87f 5d3a dd7d d53a a84f 1339

w1 f4 [3, 1]
-0.5511684 -0.5651196 -0.09708456
00000000: 5f19 0dbf aeab 10bf 45d4 c6bd

exp_avg f4 [3, 1]
0.0014239858 -0.0043383334 -0.00244078
00000000: 09a5 ba3a 9428 8ebb 7ef5 1fbb

exp_avg_sq f4 [3, 1]
0.0007518098 0.0013988065 0.00013192894
00000000: 1a15 453a 2858 b73a 6856 0a39

w1 f4 [3, 1]
-0.55217135 -0.5660042 -0.096718535
00000000: 1a5b 0dbf a7e5 10bf 5e14 c6bd

exp_avg f4 [3, 1]
-0.0011711982 -0.0005385629 -0.0014759277
00000000: e482 99ba 582e 0dba ea73 c1ba

exp_avg_sq f4 [3, 1]
0.00085016404 0.0016618841 0.00014867139
00000000: 8bdd 5e3a 94d3 d93a ace4 1b39

w1 f4 [3, 1]
-0.553248 -0.56669474 -0.09674071
00000000: a9a1 0dbf e812 11bf fe1f c6bd

exp_avg f4 [3, 1]
0.0044908905 -0.006271558 -0.0027148207
00000000: 5228 933b a481 cdbb 22eb 31bb

exp_avg_sq f4 [3, 1]
0.0009106609 0.0017384365 0.00014704281
00000000: 6bb9 6e3a 40dc e33a 812f 1a39

w1 f4 [3, 1]
-0.5535793 -0.568074 -0.096642226
00000000: 5fb7 0dbf 4c6d 11bf 5cec c5bd

exp_avg f4 [3, 1]
-0.008185659 0.009162463 -0.0006416188
00000000: 241d 06bc 281e 163c 4f32 28ba

exp_avg_sq f4 [3, 1]
0.00076311745 0.0014362304 0.00013497847
00000000: f20b 483a e53f bc3a 0289 0d39

w1 f4 [3, 1]
-0.55474263 -0.56875664 -0.09702114
00000000: 9d03 0ebf 099a 11bf 05b3 c6bd

exp_avg f4 [3, 1]
0.0015183205 -0.0020067382 0.0002473347
00000000: 6202 c73a 7b83 03bb b4ac 8139

exp_avg_sq f4 [3, 1]
0.000786304 0.0015277272 0.00013852901
00000000: f81f 4e3a 053e c83a 1942 1139

w1 f4 [3, 1]
-0.55611116 -0.5692837 -0.09694757
00000000: 4d5d 0ebf 94bc 11bf 738c c6bd

exp_avg f4 [3, 1]
0.0030026622 -0.00389126 0.00021425654
00000000: 50c8 443b 8204 7fbb 0daa 6039

exp_avg_sq f4 [3, 1]
0.00075108896 0.0014616009 0.00014292976
00000000: bae4 443a 3093 bf3a 6adf 1539

w1 f4 [3, 1]
-0.5565982 -0.5701894 -0.096543655
00000000: 387d 0ebf eff7 11bf aeb8 c5bd

exp_avg f4 [3, 1]
0.0007631965 -0.0007320375 -0.0010798447
00000000: 4011 483a 34e6 3fba 9389 8dba

exp_avg_sq f4 [3, 1]
0.00083426153 0.0016702316 0.00014591112
00000000: 58b2 5a3a aceb da3a b8ff 1839

w1 f4 [3, 1]
-0.5570786 -0.5714081 -0.096894
00000000: b49c 0ebf cd47 12bf 5d70 c6bd

exp_avg f4 [3, 1]
-0.007031684 0.010617025 0.0013573645
00000000: 0a6a e6bb 08f3 2d3c 98e9 b13a

exp_avg_sq f4 [3, 1]
0.0008104746 0.0015504665 0.00014920543
00000000: 0876 543a 0639 cb3a 0774 1c39

w1 f4 [3, 1]
-0.55798846 -0.57206494 -0.097012945
00000000: 55d8 0ebf d972 12bf b9ae c6bd

exp_avg f4 [3, 1]
0.0005386494 -0.0025701947 -0.00064103527
00000000: 2634 0d3a b670 28bb 260b 28ba

exp_avg_sq f4 [3, 1]
0.0008366187 0.0016356385 0.00014480014
00000000: 8850 5b3a ec62 d63a 7ed5 1739

w1 f4 [3, 1]
-0.55869675 -0.5729048 -0.096735485
00000000: c006 0fbf e4a9 12bf 411d c6bd

exp_avg f4 [3, 1]
-0.006204185 0.0057035577 0.00023430458
00000000: 7a4c cbbb e9e4 ba3b a8af 7539

exp_avg_sq f4 [3, 1]
0.0007956196 0.001514613 0.00013874355
00000000: 2191 503a fb85 c63a b07b 1139

w1 f4 [3, 1]
-0.5600529 -0.57353854 -0.096218444
00000000: a05f 0fbf 6cd3 12bf 2d0e c5bd

exp_avg f4 [3, 1]
-0.0014425779 0.0026659188 0.001971047
00000000: e214 bdba b2b6 2e3b ae2c 013b

exp_avg_sq f4 [3, 1]
0.0007355556 0.0013563833 0.00012411166
00000000: 4dd2 403a acc8 b13a f823 0239

w1 f4 [3, 1]
-0.5603674 -0.574638 -0.09672392
00000000: 3d74 0fbf 7a1b 13bf 3117 c6bd

exp_avg f4 [3, 1]
-0.0011233822 0.0014878754 0.00080614624
00000000: 743e 93ba d004 c33a 8f53 533a

exp_avg_sq f4 [3, 1]
0.0007727464 0.0014633236 0.00012794229
00000000: 2292 4a3a fecc bf3a 3f28 0639

w1 f4 [3, 1]
-0.5614849 -0.575071 -0.09629479
00000000: 79bd 0fbf da37 13bf 3436 c5bd

exp_avg f4 [3, 1]
-0.0021735744 0.0026772073 0.0017067435
00000000: 8772 0ebb 1674 2f3b cfb4 df3a

exp_avg_sq f4 [3, 1]
0.00075269624 0.0014172308 0.00013104077
00000000: 9750 453a 60c2 b93a fd67 0939

w1 f4 [3, 1]
-0.5624043 -0.5756777 -0.09773536
00000000: baf9 0fbf 9d5f 13bf 7a29 c8bd

exp_avg f4 [3, 1]
-8.340343e-05 -0.00131146 0.0030527825
00000000: e0e8 aeb8 4ce5 abba 3111 483b

exp_avg_sq f4 [3, 1]
0.00077566266 0.0015480012 0.0001388611
00000000: d755 4b3a 4de6 ca3a 3e9b 1139

w1 f4 [3, 1]
-0.5627521 -0.5770246 -0.09715892
00000000: 8610 10bf e2b7 13bf 41fb c6bd

exp_avg f4 [3, 1]
-0.005009179 0.008750091 0.0034537097
00000000: 0a24 a4bb 8b5c 0f3c a257 623b

exp_avg_sq f4 [3, 1]
0.0007766656 0.0015577343 0.00013990606
00000000: 2599 4b3a e42c cc3a bfb3 1239

w1 f4 [3, 1]
-0.56356174 -0.5774718 -0.09712601
00000000: 9545 10bf 31d5 13bf 00ea c6bd

exp_avg f4 [3, 1]
-0.0030906028 0.0050404933 0.0028401148
00000000: b68b 4abb b92a a53b 3821 3a3b

exp_avg_sq f4 [3, 1]
0.00079479587 0.0015285554 0.00014188689
00000000: d959 503a cf59 c83a 79c7 1439

w1 f4 [3, 1]
-0.5644457 -0.5780358 -0.097497046
00000000: 837f 10bf 27fa 13bf 88ac c7bd

exp_avg f4 [3, 1]
-0.0008540447 0.0020326937 0.0003606807
00000000: f8e1 5fba f136 053b be19 bd39

exp_avg_sq f4 [3, 1]
0.0007933281 0.0015569619 0.00014131202
00000000: 59f7 4f3a f912 cc3a 282d 1439

w1 f4 [3, 1]
-0.565393 -0.5786632 -0.096164435
00000000: 98bd 10bf 4523 14bf dcf1 c4bd

exp_avg f4 [3, 1]
-0.0015066843 0.0039628875 0.0031622695
00000000: f07b c5ba 1cdb 813b 143e 4f3b

exp_avg_sq f4 [3, 1]
0.0008763213 0.0017035111 0.00014808954
00000000: edb8 653a 5948 df3a 7c48 1b39

w1 f4 [3, 1]
-0.5656957 -0.5795279 -0.096740015
00000000: 6fd1 10bf f15b 14bf a11f c6bd

exp_avg f4 [3, 1]
0.0002759737 0.0033386308 -0.0008688556
00000000: 90b0 9039 eecc 5a3b eac3 63ba

exp_avg_sq f4 [3, 1]
0.00083122053 0.0015986498 0.00013902775
00000000: 44e6 593a c989 d13a fac7 1139
