ckpt/empirical/training/2023-06-18_22-07-07-rep1.pt (torch, 158911 bytes, 19 tensors)

w1 f4 [10, 1]
00000000: d0f8 b83e dde8 dbbe a47e b53e 8260 be3e
00000010: 955b 0cbf 3d61 6ebf f98b 4abf fdd0 4abf
00000020: 89ad 3ebf d856 72bf
0.3612733 -0.42951098 0.35448182 0.37183005 -0.54827243 -0.93117124 -0.7911983 -0.7922514
-0.74483544 -0.94663763

exp_avg f4 [10, 1]
00000000: 5ce1 683b 8a6b bf3b 5dcc 323b 7283 e03b
00000010: d406 133c 20dd 8e3b aa47 5d3b ebac a93b
00000020: bc15 b63a 9bbd 7dbc
0.0035534715 0.005841677 0.0027282455 0.006851607 0.008973796 0.0043598562 0.003376464 0.005178084
0.0013891975 -0.0154871

exp_avg_sq f4 [10, 1]
00000000: 87fa cb39 d9e7 643a 4a79 a339 1841 8e3a
00000010: 601c ed3a 13d4 193a e95a ac39 feb6 6b3a
00000020: 4713 0439 a609 f13b
0.00038905835 0.0008732058 0.0003118015 0.001085314 0.0018090121 0.00058680883 0.0003287413 0.00089918065
0.00012595682 0.0073558865

value f8 []
00000000: 8014 aafe 214e 873f
0.011379495224227876

w1 f4 [10, 1]
00000000: ca3a bd3e 1301 dabe 8e52 c53e 989c be3e
00000010: 59b3 10bf 6809 70bf cc39 4cbf a77d 4cbf
00000020: 4c2c 49bf f302 70bf
0.36958915 -0.42578945 0.38539547 0.37228847 -0.5652366 -0.9376435 -0.7977569 -0.7987923
-0.78583217 -0.937545

exp_avg f4 [10, 1]
00000000: b8fc 173a 70e0 be3a 61b3 a839 ec13 603a
00000010: 24ba 3e3b c899 edb9 63d5 0bba 806d d7b9
00000020: 5ca0 cbb9 2475 033b
0.0005797851 0.0014562737 0.00032177105 0.00085478905 0.0029102648 -0.0004531874 -0.00053342263 -0.0004108958
-0.00038838654 0.0020058835

exp_avg_sq f4 [10, 1]
00000000: fd10 c739 a18b 683a a8e6 9c39 1a59 993a
00000010: b38d ef3a 264f 113a 1692 a939 a512 813a
00000020: 6920 1039 27a3 fb3b
0.00037968895 0.0008870904 0.0002992649 0.0011699528 0.0018276483 0.0005543105 0.00032343034 0.0009847475
0.00013744984 0.0076793614

w1 f4 [10, 1]
00000000: e1a3 be3e 607f d6be 328f d23e 67bf be3e
00000010: bfeb 13bf 0879 71bf 4106 4dbf 1f30 4ebf
00000020: b2ea 50bf d89f 6dbf
0.37234405 -0.41894054 0.41124874 0.37255403 -0.57781595 -0.94325304 -0.8008767 -0.80542177
-0.81608117 -0.9282203

exp_avg f4 [10, 1]
00000000: 389f dcba b2ce 033b 23b2 f0ba 2a82 2eba
00000010: ac81 d139 1d5d b139 b376 e3ba f951 ff3a
00000020: 9851 31bb 68db 8439
-0.0016832119 0.0020112214 -0.0018363636 -0.0006656969 0.000399602 0.00033829446 -0.0017354101 0.0019479386
-0.002705669 0.00025340472

exp_avg_sq f4 [10, 1]
00000000: 6def be39 861d 723a 1985 9439 34a1 a13a
00000010: c1d0 f23a fe75 0a3a 4efc a439 521c 893a
00000020: 543a 1a39 f927 013c
0.0003641801 0.0009235967 0.00028327925 0.0012331367 0.0018525348 0.00052818644 0.000314685 0.0010460711
0.00014708313 0.007883065

w1 f4 [10, 1]
00000000: e0a4 be3e a19b d1be 38a9 de3e 83d4 bf3e
00000010: 122d 16bf 3f35 72bf 71b5 4cbf 4888 4fbf
00000020: e921 56bf d32d 6bbf
0.37235165 -0.40939048 0.4348848 0.3746682 -0.5866252 -0.946125 -0.7996436 -0.81067324
-0.8364549 -0.918668

exp_avg f4 [10, 1]
00000000: 24d4 153a 126e 15ba d442 033a c0a3 b539
00000010: 9065 d5b9 700d 9939 bc36 be39 9ac9 1a3a
00000020: e842 e739 608a 243a
0.00057155103 -0.00057003007 0.00050072116 0.00034645014 -0.00040702196 0.00029192446 0.00036280404 0.0005904675
0.00044109602 0.0006276723

exp_avg_sq f4 [10, 1]
00000000: 2367 b439 7037 6a3a 5d0f 8739 d094 a83a
00000010: 10a4 f23a 78b0 043a 2a7a a339 5ca2 893a
00000020: 4d85 0e39 e34e 023c
0.00034409118 0.00089346524 0.00025760653 0.0012861732 0.0018512029 0.0005061696 0.00031180802 0.0010500657
0.00013591834 0.007953378

w1 f4 [10, 1]
00000000: 9a26 bc3e 7e9c cabe f2dd e83e 8068 c13e
00000010: b73c 17bf b597 72bf 9ad7 4bbf d7d7 50bf
00000020: abdf 59bf 2367 68bf
0.367482 -0.3957252 0.4548183 0.3777504 -0.5907702 -0.94762737 -0.79625857 -0.81579345
-0.85106915 -0.90782374

exp_avg f4 [10, 1]
00000000: 1b01 41bb 8c17 a63a de35 4ebb 96f3 29bb
00000010: f109 24bb 4b8d 51ba 642c 1bbb 18c5 be38
00000020: 746e 37bb 36cc 053b
-0.0029450122 0.0012671812 -0.0031465213 -0.0025932542 -0.002503034 -0.00079937716 -0.0023677582 9.0966176e-05
-0.002798942 0.0020415909

exp_avg_sq f4 [10, 1]
00000000: 17b8 b439 bcd3 713a aec2 8239 0a5a b43a
00000010: 31d6 f93a cc8d 063a 45e6 ad39 a0df 8b3a
00000020: ab33 1339 99b3 083c
0.00034469433 0.0009224971 0.0002494058 0.0013759744 0.0019061026 0.0005132824 0.00033168696 0.0010671504
0.0001403826 0.008343601

w1 f4 [10, 1]
00000000: 2691 b63e 4527 c2be e1b9 f03e 970a c33e
00000010: c9eb 17bf 7286 72bf 5868 4abf 3a38 52bf
00000020: 215a 5cbf 6163 65bf
0.35657614 -0.37920585 0.47016814 0.38094017 -0.59344155 -0.947364 -0.79065466 -0.82117045
-0.86075026 -0.89604765

exp_avg f4 [10, 1]
00000000: 9e76 5d3a 088a 10ba f6e8 183a 9c4b 483a
00000010: 96b2 c73a 4095 bc39 084b 3239 d80b 0c3a
00000020: fce7 5739 a83c acba
0.00084481563 -0.00055137323 0.0005833054 0.0007640661 0.0015235718 0.00035969354 0.00017003354 0.0005342341
0.00020590419 -0.0013140636

exp_avg_sq f4 [10, 1]
00000000: 7b34 ba39 5fb7 623a 9a92 8539 c3a9 b23a
00000010: e2af f13a 21c9 fc39 efb1 b539 b4b0 7e3a
00000020: 7fc0 2139 5c45 023c
0.00035515786 0.000864854 0.00025476963 0.0013630915 0.0018439258 0.00048215038 0.0003465558 0.0009715662
0.00015425867 0.007951107
