ckpt/fisher/training/2023-06-06_02-42-11-rep1.pt (torch, 33807 bytes, 6 tensors)

w1 f4 [6, 1]
00000000: beec 74bf 9488 47bf 7d4e 90bf 810c 76bf
00000010: 1878 42bf 8c14 a5bf
-0.9567374 -0.77942777 -1.1273953 -0.9611283 -0.759645 -1.2896895

exp_avg f4 [6, 1]
00000000: 9970 d93b 4e72 a63b 5745 b53c 6191 45ba
00000010: 2ece fe3c b693 c63a
0.006635737 0.005079544 0.02212779 -0.0007536617 0.031104174 0.0015150222

exp_avg_sq f4 [6, 1]
00000000: 0620 013c 8f86 793b 6c6b 1f3c d663 503b
00000010: 6c8e 383c 69f9 c73b
0.00788117 0.0038074588 0.009730201 0.0031797788 0.011264425 0.00610273

w1 f4 [6, 1]
00000000: 2bc2 77bf 27ed 4abf 12be 93bf 37a8 76bf
00000010: 8f49 4bbf 65d2 a5bf
-0.9678065 -0.79268116 -1.154238 -0.96350425 -0.79409117 -1.2954832

exp_avg f4 [6, 1]
00000000: 329b f63b 8a40 c43b fe1e b43c 108d 043a
00000010: 5eb5 ff3c c80b 263b
0.007525825 0.005989139 0.021987434 0.00050564203 0.031214412 0.0025336612

exp_avg_sq f4 [6, 1]
00000000: 2661 e53b 53ba 5e3b ae88 0e3c a83f 393b
00000010: 7ecb 253c d0e5 b13b
0.0070001064 0.003398557 0.008699579 0.0028266702 0.010119317 0.005429007
