ckpt/fisher/training/2023-05-23_12-57-47-rep2.pt (torch, 167119 bytes, 30 tensors)

w1 f4 [6, 1]
-0.84960115 -0.6224689 -1.0171878 -0.8395198 -0.6538953 -1.1676006
00000000: 767f 59bf 1f5a 1fbf 3633 82bf c5ea 56bf
00000010: af65 27bf f073 95bf

exp_avg f4 [6, 1]
0.0067337514 0.0014971474 0.020410098 -0.0008343051 0.029537177 0.00022335374
00000000: cda6 dc3b ee3b c43a 1433 a73c 44b5 5aba
00000010: f3f7 f13c 1034 6a39

exp_avg_sq f4 [6, 1]
0.0067894356 0.0030035798 0.007856835 0.0026719214 0.009069622 0.005120454
00000000: ea79 de3b b5d7 443b f4b9 003c 671b 2f3b
00000010: c098 143c 7bc9 a73b

w1 f4 [6, 1]
-0.8638581 -0.6308451 -1.046658 -0.8436195 -0.69230825 -1.1723012
00000000: ce25 5dbf 117f 21bf e4f8 85bf 73f7 57bf
00000010: 1d3b 31bf f70d 96bf

exp_avg f4 [6, 1]
0.009634482 0.0029483784 0.022233427 0.0012967334 0.03194746 0.0015946284
00000000: f2d9 1d3c 9539 413b e022 b63c 27f7 a93a
00000010: 57db 023d da02 d13a

exp_avg_sq f4 [6, 1]
0.0060361465 0.0026802854 0.0070380704 0.0023755454 0.008176515 0.004558197
00000000: deca c53b baa7 2f3b 9d9f e63b 0aaf 1b3b
00000010: caf6 053c ee5c 953b

w1 f4 [6, 1]
-0.8762628 -0.6338006 -1.0748044 -0.8434619 -0.73076683 -1.1719981
00000000: c252 60bf c240 22bf 3193 89bf 1eed 57bf
00000010: 8913 3bbf 0904 96bf

exp_avg f4 [6, 1]
0.008698405 0.001629352 0.02141584 9.152982e-05 0.031762157 3.124528e-05
00000000: c183 0e3c fb8f d53a 4670 af3c b3f3 bf38
00000010: 0919 023d 5d0d 0338

exp_avg_sq f4 [6, 1]
0.005365758 0.0023942078 0.0063012103 0.0021133486 0.007371385 0.0040621688
00000000: 3ed3 af3b 24e8 1c3b 627a ce3b 1b80 0a3b
00000010: a98b f13b f11b 853b

w1 f4 [6, 1]
-0.88798255 -0.63398427 -1.1030825 -0.8410953 -0.77061224 -1.1690431
00000000: d352 63bf cb4c 22bf cf31 8dbf 0652 57bf
00000010: d846 45bf 34a3 95bf

exp_avg f4 [6, 1]
0.0076814224 -0.00076046004 0.01957511 -0.0011883274 0.030439792 -0.0027173706
00000000: 71b4 fb3b 9c59 47ba fb5b a03c a7c1 9bba
00000010: df5c f93c ea15 32bb

exp_avg_sq f4 [6, 1]
0.0047729462 0.0021445083 0.005644493 0.0018832498 0.006652947 0.0036288528
00000000: 6066 9c3b e18a 0c3b 70f5 b83b 61d7 f63a
00000010: f700 da3b 0cd2 6d3b

w1 f4 [6, 1]
-0.8978899 -0.6283105 -1.1304234 -0.83451885 -0.8110182 -1.1605686
00000000: 1ddc 65bf f5d8 20bf b7b1 90bf 07a3 55bf
00000010: e49e 4fbf 838d 94bf

exp_avg f4 [6, 1]
0.007444104 -0.00021383376 0.020567719 -0.0014792595 0.032045018 -0.002234547
00000000: aced f33b 9038 60b9 a27d a83c b6e3 c1ba
00000010: a341 033d 7a71 12bb

exp_avg_sq f4 [6, 1]
0.0042410353 0.0019176957 0.005050103 0.0016763922 0.0060027787 0.0032392927
00000000: 62f8 8a3b 315b fb3a 567b a53b 63ba db3a
00000010: f5b2 c43b 504a 543b

w1 f4 [6, 1]
-0.90809095 -0.6202779 -1.1592876 -0.8266274 -0.85438967 -1.1495001
00000000: a678 68bf 88ca 1ebf 8963 94bf da9d 53bf
00000010: 48b9 5abf d222 93bf

exp_avg f4 [6, 1]
0.00068591314 -0.007982824 0.012171618 -0.006189933 0.023345567 -0.010889802
00000000: dace 333a 64ca 02bc 776b 473c ecd4 cabb
00000010: 343f bf3c 246b 32bc

exp_avg_sq f4 [6, 1]
0.0037688047 0.001716807 0.004518713 0.0014929961 0.0054219323 0.0028962954
00000000: 0dfe 763b 7c06 e13a b611 943b a3b0 c33a
00000010: 77aa b13b c6cf 3d3b

w1 f4 [6, 1]
-0.9181578 -0.6109231 -1.1897336 -0.8177852 -0.90062815 -1.1370866
00000000: 640c 6bbf 7565 1cbf 3149 98bf 5f5a 51bf
00000010: 918f 66bf 0e8c 91bf

exp_avg f4 [6, 1]
0.009439576 0.0007305051 0.021573719 0.00041133584 0.033363767 -0.0012055896
00000000: 74a8 1a3c 5e7f 3f3a 5ebb b03c 90a8 d739
00000010: 72a8 083d e004 9eba

exp_avg_sq f4 [6, 1]
0.0033512556 0.0015350021 0.004051522 0.0013293319 0.0049168942 0.0025862197
00000000: bda0 5b3b 2032 c93a a1c2 843b fa3c ae3a
00000010: e61d a13b 917d 293b

w1 f4 [6, 1]
-0.9281835 -0.596941 -1.2215148 -0.8068257 -0.949795 -1.1195996
00000000: 6f9d 6dbf 20d1 18bf 995a 9cbf 218c 4ebf
00000010: c425 73bf 0a4f 8fbf

exp_avg f4 [6, 1]
0.0033883476 -0.0075558466 0.014482155 -0.004171065 0.02667871 -0.010886838
00000000: 0a0f 5e3b 0997 f7bb 9046 6d3c 6ead 88bb
00000010: 4f8d da3c b55e 32bc

exp_avg_sq f4 [6, 1]
0.0029784373 0.0013793507 0.0036329515 0.0011837311 0.0044636712 0.0023233262
00000000: e331 433b 54cb b43a d016 6e3b 6d27 9b3a
00000010: fd43 923b f242 183b

w1 f4 [6, 1]
-0.93725663 -0.57921755 -1.2545449 -0.7937394 -1.0017456 -1.0985003
00000000: 0df0 6fbf 9a47 14bf ed94 a0bf 8132 4bbf
00000010: 3339 80bf a89b 8cbf

exp_avg f4 [6, 1]
0.0040890407 -0.005831185 0.017242486 -0.0040115556 0.030313583 -0.008716902
00000000: 5cfd 853b 8613 bfbb 1d40 8d3c 5e73 83bb
00000010: 3154 f83c 56d1 0ebc

exp_avg_sq f4 [6, 1]
0.0026482856 0.0012388985 0.0032616893 0.0010545128 0.004065218 0.002086867
00000000: dc8e 2d3b 8962 a23a 11c2 553b 9437 8a3a
00000010: 8535 853b d2c3 083b

w1 f4 [6, 1]
-0.9465504 -0.55882007 -1.2901498 -0.780259 -1.0577408 -1.0745317
00000000: 2151 72bf d50e 0fbf a123 a5bf 0ebf 47bf
00000010: 0d64 87bf 418a 89bf

exp_avg f4 [6, 1]
0.003956599 -0.006977713 0.015531013 -0.0026355002 0.0281723 -0.009970909
00000000: 5ca6 813b 4da5 e4bb ca75 7e3c 5bb8 2cbb
00000010: 98c9 e63c 065d 23bc

exp_avg_sq f4 [6, 1]
0.0023576785 0.0011183656 0.0029358114 0.00093994476 0.0037173 0.0018836216
00000000: 4883 1a3b 1f96 923a be66 403b a066 763a
00000010: f29d 733b dae3 f63a
