ckpt/fisher/training/2023-05-23_12-57-47-rep3.pt (torch, 50455 bytes, 9 tensors)

w1 f4 [6, 1]
00000000: b015 61bf a440 2cbf c369 87bf da37 5fbf
00000010: 8e38 33bf fbed 99bf
-0.8792372 -0.67286134 -1.0579151 -0.871946 -0.7000817 -1.2025751

exp_avg f4 [6, 1]
00000000: 80e7 893b 2af9 8f3a 668a 9d3c 4d57 1bbb
00000010: 3ae9 eb3c cc4f bbba
0.004208505 0.0010984291 0.019231033 -0.0023703158 0.028797735 -0.0014290749

exp_avg_sq f4 [6, 1]
00000000: 7726 d23b 1a74 343b a967 fa3b bdd2 203b
00000010: a38b 113c e97b 9a3b
0.006413277 0.0027535022 0.007641752 0.0024539672 0.00888339 0.0047144783

w1 f4 [6, 1]
00000000: 6cd3 63bf e07a 2ebf 0ef5 8abf e696 5fbf
00000010: 7cb3 3cbf 5756 9abf
-0.8899448 -0.6815624 -1.0856035 -0.8733963 -0.7371137 -1.2057599

exp_avg f4 [6, 1]
00000000: 1857 c33b 3fe4 243b 52dd a03c d00f a9b9
00000010: 1b37 f13c be84 5b39
0.00596131 0.002516046 0.019636784 -0.00032245973 0.029445222 0.00020934918

exp_avg_sq f4 [6, 1]
00000000: 1ebb ba3b 9e47 213b cf22 e03b de0e 0f3b
00000010: 3618 033c 819c 893b
0.0056985756 0.0024609338 0.006840087 0.002182893 0.008001378 0.004199565

w1 f4 [6, 1]
00000000: cae6 65bf b214 2fbf 8838 8ebf 7da9 5ebf
00000010: 14fe 45bf 1308 9abf
-0.8980528 -0.68390954 -1.1111002 -0.8697737 -0.7734082 -1.2033714

exp_avg f4 [6, 1]
00000000: 100b b03b 388a 033b 4852 9f3c a4f6 c4ba
00000010: 06d0 f53c 3084 17b9
0.0053724125 0.0020071398 0.019448414 -0.0015027118 0.03000642 -0.00014449726

exp_avg_sq f4 [6, 1]
00000000: 8ed2 a53b 6ee3 0f3b f74b c83b a86e fe3a
00000010: 4fe5 eb3b d1fe 743b
0.0050605005 0.0021955627 0.0061125713 0.001941164 0.0071989666 0.0037383328
