ckpt/fisher/training/2023-06-06_02-53-40-rep1.pt (torch, 17198 bytes, 3 tensors)

w1 f4 [6, 1]
-0.9567374 -0.77942777 -1.1273953 -0.9611283 -0.759645 -1.2896895
00000000: beec 74bf 9488 47bf 7d4e 90bf 810c 76bf
00000010: 1878 42bf 8c14 a5bf

exp_avg f4 [6, 1]
0.006635737 0.005079544 0.02212779 -0.0007536617 0.031104174 0.0015150222
00000000: 9970 d93b 4e72 a63b 5745 b53c 6191 45ba
00000010: 2ece fe3c b693 c63a

exp_avg_sq f4 [6, 1]
0.00788117 0.0038074588 0.009730201 0.0031797788 0.011264425 0.00610273
00000000: 0620 013c 8f86 793b 6c6b 1f3c d663 503b
00000010: 6c8e 383c 69f9 c73b
