ckpt/fisher/training/2023-05-23_12-57-47-rep1.pt (torch, 167119 bytes, 30 tensors)

w1 f4 [6, 1]
0	0xbf74ecbe	-0.9567374
1	0xbf478894	-0.77942777
2	0xbf904e7d	-1.1273953
3	0xbf760c81	-0.9611283
4	0xbf427818	-0.759645
5	0xbfa5148c	-1.2896895

exp_avg f4 [6, 1]
0	0x3bd97099	0.006635737
1	0x3ba6724e	0.005079544
2	0x3cb54557	0.02212779
3	0xba459161	-0.0007536617
4	0x3cfece2e	0.031104174
5	0x3ac693b6	0.0015150222

exp_avg_sq f4 [6, 1]
0	0x3c012006	0.00788117
1	0x3b79868f	0.0038074588
2	0x3c1f6b6c	0.009730201
3	0x3b5063d6	0.0031797788
4	0x3c388e6c	0.011264425
5	0x3bc7f969	0.00610273

w1 f4 [6, 1]
0	0xbf77c22b	-0.9678065
1	0xbf4aed27	-0.79268116
2	0xbf93be12	-1.154238
3	0xbf76a837	-0.96350425
4	0xbf4b498f	-0.79409117
5	0xbfa5d265	-1.2954832

exp_avg f4 [6, 1]
0	0x3bf69b32	0.007525825
1	0x3bc4408a	0.005989139
2	0x3cb41efe	0.021987434
3	0x3a048d10	0.00050564203
4	0x3cffb55e	0.031214412
5	0x3b260bc8	0.0025336612

exp_avg_sq f4 [6, 1]
0	0x3be56126	0.0070001064
1	0x3b5eba53	0.003398557
2	0x3c0e88ae	0.008699579
3	0x3b393fa8	0.0028266702
4	0x3c25cb7e	0.010119317
5	0x3bb1e5d0	0.005429007

w1 f4 [6, 1]
0	0xbf79d79d	-0.97594625
1	0xbf4cffe2	-0.80077946
2	0xbf96dd62	-1.1786311
3	0xbf7601ac	-0.960963
4	0xbf53c642	-0.8272439
5	0xbfa5f0a2	-1.296406

exp_avg f4 [6, 1]
0	0x3bbe3456	0.005804579
1	0x3b989794	0.0046567414
2	0x3ca6d1cf	0.020363716
3	0xbaa78c8f	-0.0012782979
4	0x3cf602bf	0.030030606
5	0x3a8dea0c	0.0010827198

exp_avg_sq f4 [6, 1]
0	0x3bcba22a	0.0062144
1	0x3b4696cd	0.0030302287
2	0x3bfe7f29	0.0077666235
3	0x3b24ae02	0.002512813
4	0x3c14c183	0.00907934
5	0x3b9e3a11	0.0048286994

w1 f4 [6, 1]
0	0xbf7b8233	-0.98245543
1	0xbf4e392f	-0.80556005
2	0xbf99dfb1	-1.202139
3	0xbf7479a8	-0.9549813
4	0xbf5c56b3	-0.8606979
5	0xbfa59f0d	-1.2939163

exp_avg f4 [6, 1]
0	0x3b36dec8	0.0027903784
1	0xb94c50c0	-0.00019485038
2	0x3c83a283	0.016068703
3	0xbb919b54	-0.0044435654
4	0x3cd852a6	0.026406597
5	0xbb8885f7	-0.0041663605

exp_avg_sq f4 [6, 1]
0	0x3bb4dd19	0.005519521
1	0x3b315dfc	0.0027064076
2	0x3be32e44	0.0069330055
3	0x3b12aa84	0.0022379467
4	0x3c057d98	0.00814762
5	0x3b8cfaf5	0.0043023773

w1 f4 [6, 1]
0	0xbf7c3e71	-0.9853278
1	0xbf4dcf20	-0.8039417
2	0xbf9c9572	-1.2233107
3	0xbf713c59	-0.9423271
4	0xbf64b077	-0.89331764
5	0xbfa484ba	-1.2853005

exp_avg f4 [6, 1]
0	0x3afdc39f	0.0019360668
1	0xb9304928	-0.00016811921
2	0x3c87741e	0.016534861
3	0xbbb8805f	-0.0056305374
4	0x3ce0f886	0.027462255
5	0xbb9a0899	-0.004700732

exp_avg_sq f4 [6, 1]
0	0x3ba080ee	0.004898182
1	0x3b1e3a11	0.0024143497
2	0x3bca816e	0.00617998
3	0x3b02a5ab	0.0019935172
4	0x3bef59f0	0.0073044226
5	0x3b7b3ad3	0.0038334623

w1 f4 [6, 1]
0	0xbf7ce262	-0.9878293
1	0xbf4d08cc	-0.8009155
2	0xbf9f6f78	-1.2455893
3	0xbf6d6108	-0.9272618
4	0xbf6dac40	-0.9284096
5	0xbfa32370	-1.274519

exp_avg f4 [6, 1]
0	0xbb41a94c	-0.0029550372
1	0xbb954709	-0.004555587
2	0x3c30b322	0.010784896
3	0xbc0e6f16	-0.008693477
4	0x3cae0ec6	0.021247279
5	0xbc165df0	-0.00917767

exp_avg_sq f4 [6, 1]
0	0x3b8e76c1	0.0043476527
1	0x3b0d3853	0.0021548464
2	0x3bb48b67	0.005509782
3	0x3ae8f69f	0.0017773694
4	0x3bd6c9fc	0.00655484
5	0x3b600c32	0.0034186956

w1 f4 [6, 1]
0	0xbf7d2fe6	-0.9890121
1	0xbf4bdcc3	-0.7963373
2	0xbfa25b7c	-1.2684169
3	0xbf68b4ca	-0.9090086
4	0xbf771b7d	-0.9652632
5	0xbfa17c98	-1.2616148

exp_avg f4 [6, 1]
0	0x3b33aa94	0.0027414905
1	0xba21776a	-0.00061594567
2	0x3c826b7e	0.015920397
3	0xbb9f0c30	-0.004853748
4	0x3cde257a	0.02711748
5	0xbbadef6e	-0.0053080833

exp_avg_sq f4 [6, 1]
0	0x3b7d1bb9	0.003862126
1	0x3afc93f1	0.0019270164
2	0x3ba134ff	0.0049196477
3	0x3ad0060d	0.0015870944
4	0x3bc13c4b	0.00589708
5	0x3b481a60	0.00305333

w1 f4 [6, 1]
0	0xbf7d2669	-0.98886734
1	0xbf49ce50	-0.7883043
2	0xbfa552d4	-1.2915902
3	0xbf62fbe9	-0.88665634
4	0xbf80818d	-1.0039536
5	0xbf9f49cd	-1.2444397

exp_avg f4 [6, 1]
0	0xb90578d0	-0.00012728875
1	0xbb61f8e2	-0.003448062
2	0x3c58848d	0.013215196
3	0xbbf5b9d6	-0.00749896
4	0x3cca5824	0.024700232
5	0xbc09283d	-0.00837141

exp_avg_sq f4 [6, 1]
0	0x3b60de83	0.0034312315
1	0x3ae25ecf	0.0017270687
2	0x3b8ff10d	0.004392749
3	0x3aba1450	0.0014196727
4	0x3badf618	0.0053088777
5	0x3b3345ed	0.0027354911

w1 f4 [6, 1]
0	0xbf7d37a4	-0.98913026
1	0xbf47bcff	-0.7802276
2	0xbfa88e6d	-1.3168465
3	0xbf5ce95b	-0.8629357
4	0xbf85df3b	-1.045875
5	0xbf9cef48	-1.2260523

exp_avg f4 [6, 1]
0	0x3a908054	0.0011024573
1	0xbb26b7b5	-0.0025439088
2	0x3c769699	0.015050554
3	0xbbf1e9f2	-0.007382625
4	0x3cddfe17	0.027098699
5	0xbc03296e	-0.008005483

exp_avg_sq f4 [6, 1]
0	0x3b47dafa	0.003049551
1	0x3acabff4	0.0015468583
2	0x3b80afda	0.003927213
3	0x3aa677c2	0.0012700486
4	0x3b9d0bb4	0.004792655
5	0x3b208ba3	0.0024497292

w1 f4 [6, 1]
0	0xbf7d54b9	-0.989574
1	0xbf45679e	-0.7711123
2	0xbfac0a3d	-1.3440624
3	0xbf565758	-0.83727026
4	0xbf8ba573	-1.0909866
5	0xbf9a425a	-1.2051499

exp_avg f4 [6, 1]
0	0xbabd8a5c	-0.001446079
1	0xbbd5de86	-0.006526771
2	0x3c3749f8	0.011187069
3	0xbc07cd54	-0.0082887
4	0x3cbd6043	0.02311719
5	0xbc4c846d	-0.012482745

exp_avg_sq f4 [6, 1]
0	0x3b31cb38	0.0027129184
1	0x3ab63b87	0.0013903239
2	0x3b666884	0.003515751
3	0x3a953658	0.0011383994
4	0x3b8e182f	0.004336379
5	0x3b1052ba	0.0022021965
