ckpt/nhw/training/2023-05-23_13-00-31-rep1.pt (torch, 100463 bytes, 18 tensors)

w1 f4 [6, 1]
-0.48192587 -0.31799236 -0.4168183 -0.56273973 -0.06814048 -0.82449406
00000000: fdbe f6be e5cf a2be 3569 d5be b60f 10bf
00000010: 3c8d 8bbd 0b12 53bf

exp_avg f4 [6, 1]
0.003768058 -0.00059009186 0.0017383196 0.0012515411 0.0022678147 0.00013174614
00000000: 86f1 763b 65b0 1aba 54d8 e33a c00a a43a
00000010: 9e9f 143b 5625 0a39

exp_avg_sq f4 [6, 1]
0.0007942719 0.00018312842 0.00052169117 0.00023029411 0.0005463998 0.00031979042
00000000: af36 503a 2906 4039 1ac2 083a 1b7b 7139
00000010: 453c 0f3a 8ba9 a739

w1 f4 [6, 1]
-0.4829018 -0.3185173 -0.41596788 -0.5643321 -0.06852884 -0.8250873
00000000: e83e f7be b314 a3be bef9 d4be 1278 10bf
00000010: d958 8cbd ec38 53bf

exp_avg f4 [6, 1]
-0.0038311752 -0.0018859485 -0.0034854559 -0.0024725231 -0.003561092 -0.002811396
00000000: 7414 7bbb ee31 f7ba 3f6c 64bb 0e0a 22bb
00000010: 3661 69bb 663f 38bb

exp_avg_sq f4 [6, 1]
0.0007173722 0.00018283213 0.0004773008 0.00021842567 0.00050048437 0.000310161
00000000: 090e 3c3a a0b6 3f39 3b3e fa39 3209 6539
00000010: f032 033a 1b9d a239

w1 f4 [6, 1]
-0.48367003 -0.32191172 -0.4161947 -0.56764024 -0.06977051 -0.82797337
00000000: 99a3 f7be 9dd1 a4be 7917 d5be df50 11bf
00000010: d7e3 8ebd 10f6 53bf

exp_avg f4 [6, 1]
-0.0029455328 0.0006710368 -0.0015538398 -0.0005269669 -0.0016623919 0.00012542034
00000000: d709 41bb 84e8 2f3a 36aa cbba 2624 0aba
00000010: 9ee4 d9ba 4483 0339

exp_avg_sq f4 [6, 1]
0.0006472671 0.0001745232 0.00043345158 0.00020346884 0.00045522844 0.00029142774
00000000: 5cad 293a 3700 3739 e340 e339 405a 5539
00000010: baab ee39 c5ca 9839

w1 f4 [6, 1]
-0.48513082 -0.32329935 -0.416465 -0.5704698 -0.07115751 -0.8295455
00000000: 1163 f8be 7e87 a5be e73a d5be 4f0a 12bf
00000010: 07bb 91bd 185d 54bf

exp_avg f4 [6, 1]
0.001525049 -0.0014265685 -0.00043316346 -0.00019519936 8.607225e-06 -0.0012995558
00000000: 27e4 c73a b2fb baba 371a e3b9 6eae 4cb9
00000010: c067 1037 db55 aaba

exp_avg_sq f4 [6, 1]
0.0005872375 0.00016726242 0.000395847 0.00019114644 0.0004167594 0.00027550946
00000000: d7f0 193a 2a63 2f39 af89 cf39 7b6e 4839
00000010: 8080 da39 4172 9039

w1 f4 [6, 1]
-0.48622954 -0.32456782 -0.41612124 -0.5728367 -0.07193004 -0.8307637
00000000: 14f3 f8be c12d a6be d80d d5be 6da5 12bf
00000010: 0f50 93bd eeac 54bf

exp_avg f4 [6, 1]
0.004521305 -0.00014183787 0.002706174 0.0018965839 0.0032011764 0.0008741386
00000000: 7527 943b 50ba 14b9 115a 313b cc96 f83a
00000010: d4ca 513b 7326 653a

exp_avg_sq f4 [6, 1]
0.00053356594 0.00016882026 0.00036398918 0.000183668 0.0003840018 0.00026961262
00000000: 01df 0b3a 5805 3139 cdd5 be39 0197 4039
00000010: d953 c939 cb5a 8d39

w1 f4 [6, 1]
-0.48710093 -0.32593915 -0.4161762 -0.5753245 -0.07294849 -0.8321648
00000000: 4b65 f9be 7fe1 a6be 0c15 d5be 7748 13bf
00000010: 0566 95bd c108 55bf

exp_avg f4 [6, 1]
0.00025696086 -0.0043395497 -0.0020374143 -0.0024959699 -0.001791293 -0.004409762
00000000: b4b8 8639 c832 8ebb 2486 05bb 6d93 23bb
00000010: d2c9 eaba c47f 90bb

exp_avg_sq f4 [6, 1]
0.00048755357 0.00016835536 0.00033682495 0.00017772043 0.00035632504 0.00026310232
00000000: 559e ff39 8c88 3039 e197 b039 775a 3a39
00000010: 23d1 ba39 fff0 8939
