ckpt/student/training/2023-05-23_13-01-16-rep2.pt (torch, 167119 bytes, 30 tensors)

w1 f4 [6, 1]
000000 96 d9 16 bf 5d f1 3e be 0f 90 4e bf 21 c6 09 bf
       -0.5892576 -0.1864676 -0.80688566 -0.53817946
000010 33 f6 00 bf 0c cc 46 bf
       -0.5037567 -0.776551

exp_avg f4 [6, 1]
000000 16 20 9c 3b f8 ba 94 bb 73 1d 19 3c b0 63 23 ba
       0.004764567 -0.00453889 0.0093454 -0.0006232811
000010 ae 8c bc 3c bc 4d 22 bc
       0.0230163 -0.009906229

exp_avg_sq f4 [6, 1]
000000 4c 54 d8 3a 42 6e 8a 39 e6 7c ce 3a 16 a1 b8 39
       0.0016504615 0.0002640356 0.0015753775 0.00035215233
000010 f3 44 f3 3a cf b1 30 3a
       0.0018559977 0.0006740363

w1 f4 [6, 1]
000000 a5 bd 1b bf fe fc 35 be e5 13 58 bf 8a 57 0a bf
       -0.6083625 -0.1777229 -0.84405357 -0.54039824
000010 34 2b 13 bf ec a2 40 bf
       -0.574878 -0.752486

exp_avg f4 [6, 1]
000000 a8 ec 16 3c 44 71 85 bb 53 ab 2c 3c 01 3c 95 3a
       0.009211697 -0.00407234 0.010538894 0.001138568
000010 50 8a d0 3c db 2b 32 bc
       0.025456578 -0.010874714

exp_avg_sq f4 [6, 1]
000000 d6 e7 c0 3a ad 23 82 39 bd a9 bb 3a bd 26 a4 39
       0.001471753 0.00024822113 0.0014317554 0.0003130938
000010 0f 3e e6 3a b4 16 25 3a
       0.0017566102 0.00062976335

w1 f4 [6, 1]
000000 ee 01 22 bf 88 9a 33 be 2a 7d 61 bf 80 59 0b bf
       -0.63284194 -0.17539418 -0.8808161 -0.5443344
000010 8b 3e 26 bf e7 ab 39 bf
       -0.64939183 -0.7252793

exp_avg f4 [6, 1]
000000 9f 17 10 3c c8 3d 89 3b c1 00 79 3c de 31 96 3a
       0.008794694 0.004188273 0.015197934 0.0011458953
000010 b9 28 02 3d 96 14 01 ba
       0.031777117 -0.0004924027

exp_avg_sq f4 [6, 1]
000000 8b 4e ac 3a a5 42 77 39 92 24 ab 3a 53 da 91 39
       0.0013145966 0.00023580583 0.0013057163 0.0002781922
000010 1d 84 db 3a bb 08 1c 3a
       0.0016747747 0.00059522287

w1 f4 [6, 1]
000000 3d 80 29 bf 01 4a 3b be 3c dc 6a bf eb c7 0c bf
       -0.662113 -0.18289949 -0.917423 -0.5499255
000010 ca 19 3a bf 71 f4 32 bf
       -0.726956 -0.6990424

exp_avg f4 [6, 1]
000000 15 b6 15 3c 00 fb 90 b6 17 f9 05 3c 32 31 7e 39
       0.00913765 -4.3207547e-06 0.008177063 0.00024241654
000010 94 5b d0 3c 4a f7 0c bc
       0.025434293 -0.00860388

exp_avg_sq f4 [6, 1]
000000 ad 8a 9a 3a 4c 53 6c 39 98 08 9c 3a 7c c8 81 39
       0.0011790596 0.00022537744 0.0011904417 0.0002475417
000010 14 33 d1 3a af 3d 15 3a
       0.0015960657 0.00056930905

w1 f4 [6, 1]
000000 95 65 31 bf 46 38 44 be 8e 5b 73 bf ef 23 0e bf
       -0.69295627 -0.19162092 -0.95061576 -0.5552358
000010 ba fe 4d bf 64 44 2b bf
       -0.80466807 -0.6690123

exp_avg f4 [6, 1]
000000 59 91 10 3c c1 af 6e 3a 96 cd 2a 3c c3 e5 36 3a
       0.008823716 0.0009105169 0.010424992 0.0006976986
000010 17 bf eb 3c 4b 55 d2 bb
       0.028777642 -0.006418859

exp_avg_sq f4 [6, 1]
000000 f1 1e 8b 3a 74 c1 62 39 8a 09 8e 3a 55 4c 67 39
       0.001061408 0.00021625106 0.0010836583 0.00022058313
000010 8c 8c c7 3a 62 92 0f 3a
       0.0015224381 0.000547683

w1 f4 [6, 1]
000000 c6 60 38 bf 11 ed 4f be 58 a3 79 bf d6 78 0e bf
       -0.72022665 -0.20305277 -0.9751487 -0.5565313
000010 97 9f 60 bf 83 39 23 bf
       -0.87743515 -0.6375963

exp_avg f4 [6, 1]
000000 28 46 ca 3b 5f 90 10 3b a0 d8 88 3a 10 67 11 ba
       0.006172914 0.0022058708 0.0010440536 -0.00055466685
000010 41 cb 94 3c 82 1f e8 bb
       0.018163325 -0.007083834

exp_avg_sq f4 [6, 1]
000000 50 06 7a 3a cc 75 56 39 57 79 80 3a f8 24 4e 39
       0.0009537684 0.00020452513 0.0009801787 0.00019659463
000010 f5 ac bb 3a aa c3 08 3a
       0.0014318513 0.00052171445

w1 f4 [6, 1]
000000 a1 00 3e bf 03 49 5c be 74 33 7d bf 1b bf 0d bf
       -0.7421971 -0.21512227 -0.98906636 -0.5536973
000010 d4 42 71 bf 42 a4 1b bf
       -0.94242597 -0.6079751

exp_avg f4 [6, 1]
000000 09 62 be 3b 43 91 38 3a b2 f4 03 3b 02 2e 87 b9
       0.0058100265 0.00070406887 0.0020134863 -0.00025783485
000010 4f 3e 9c 3c 4a 82 c4 bb
       0.01907268 -0.005996977

exp_avg_sq f4 [6, 1]
000000 23 a5 60 3a ee 11 4a 39 fe a3 68 3a de 19 38 39
       0.0008569529 0.000192709 0.00088745344 0.00017557244
000010 9e 9a af 3a 74 b9 01 3a
       0.001339752 0.0004948594

w1 f4 [6, 1]
000000 f2 3c 42 bf 72 da 64 be 3b ee 7e bf 2b f9 0b bf
       -0.75874245 -0.22348955 -0.9958226 -0.54677075
000010 b8 6e 80 bf 0b e3 14 bf
       -1.0033789 -0.5815894

exp_avg f4 [6, 1]
000000 02 18 b6 3b c0 c6 8b 38 44 98 4c ba e4 21 96 b9
       0.005557061 6.6650566e-05 -0.0007804672 -0.0002863548
000010 3d e1 83 3c e6 de ce bb
       0.016098613 -0.0063131927

exp_avg_sq f4 [6, 1]
000000 f6 ee 4a 3a b9 93 40 39 03 5d 53 3a d5 fb 24 39
       0.00077412964 0.00018365578 0.0008062871 0.00015734074
000010 ac af a3 3a 16 94 fc 39
       0.0012488267 0.00048175518

w1 f4 [6, 1]
000000 97 e9 45 bf 76 27 68 be 32 df 7f bf b0 f0 09 bf
       -0.77309555 -0.22671303 -0.99949944 -0.53882885
000010 c8 15 88 bf 32 5d 0f bf
       -1.0631647 -0.5600158

exp_avg f4 [6, 1]
000000 7d 43 17 3b 39 db 9a 3a 80 a0 78 3b 28 2b 98 ba
       0.0023080998 0.0011814601 0.0037937462 -0.0011609541
000010 a7 42 a9 3c ae 63 8c ba
       0.020661665 -0.0010710859

exp_avg_sq f4 [6, 1]
000000 f8 b0 37 3a 78 cc 36 39 ea b7 3f 3a 0b 08 14 39
       0.00070072664 0.00017433043 0.0007313477 0.00014117376
000010 ee 53 98 3a 45 37 f3 39
       0.0011621693 0.0004638975

w1 f4 [6, 1]
000000 4c ed 48 bf a8 1d 6d be fb 22 80 bf c2 5f 07 bf
       -0.78487086 -0.23155844 -1.0010675 -0.5288049
000010 47 a1 8f bf 8d 8e 0c bf
       -1.1221093 -0.54905015

exp_avg f4 [6, 1]
000000 b2 8f d4 3b 80 26 70 bb 39 7b 9f bb 42 bf b5 39
       0.0064868564 -0.0036644042 -0.004866984 0.00034665508
000010 50 bf 36 3c f0 23 fe bb
       0.011154011 -0.007755749

exp_avg_sq f4 [6, 1]
000000 16 08 27 3a 3c 5f 2c 39 26 58 2e 3a 15 c3 04 39
       0.00063717493 0.00016438676 0.00066507084 0.00012661175
000010 42 30 8d 3a be c2 e7 39
       0.0010771828 0.00044204848
