ckpt/student/training/2023-05-23_13-01-16-rep1.pt (torch, 167119 bytes, 30 tensors)

w1 f4 [6, 1]
-0.59592295 -0.23461847 -0.8420269 -0.5705232 -0.52627677 -0.8680945
00000000: 688e 18bf d33f 70be 138f 57bf cf0d 12bf
00000010: 13ba 06bf 713b 5ebf

exp_avg f4 [6, 1]
-0.004535466 -0.009363452 0.006985835 -0.0025522765 0.018485423 -0.012112769
00000000: 3f9e 94bb 2a69 19bc 6ee9 e43b 1844 27bb
00000010: be6e 973c a374 46bc

exp_avg_sq f4 [6, 1]
0.0021989143 0.0004891241 0.0023973614 0.0005791214 0.0027600375 0.0011518886
00000000: a91b 103b 9038 003a 0d1d 1d3b 2ed0 173a
00000010: bfe1 343b f8fa 963a

w1 f4 [6, 1]
-0.5950686 -0.20273814 -0.8691129 -0.5684887 -0.5772975 -0.8413608
00000000: 6a56 18bf 969a 4fbe 2f7e 5ebf 7a88 11bf
00000010: c5c9 13bf 6c63 57bf

exp_avg f4 [6, 1]
-0.0032031205 -0.008463904 0.00834856 -0.0008368538 0.021216426 -0.01202826
00000000: 72eb 51bb 30ac 0abc 66c8 083c 4f60 5bba
00000010: 12ce ad3c 2e12 45bc

exp_avg_sq f4 [6, 1]
0.0019562982 0.00045180778 0.002157319 0.0005143906 0.0025351867 0.0010563374
00000000: 3d35 003b 9de0 ec39 cf61 0d3b 2bd8 063a
00000010: 6025 263b cd74 8a3a

w1 f4 [6, 1]
-0.59170103 -0.16577101 -0.8966156 -0.567984 -0.6326776 -0.8075009
00000000: b879 17bf e0bf 29be 9a88 65bf 6667 11bf
00000010: 29f7 21bf 61b8 4ebf

exp_avg f4 [6, 1]
-0.00052050623 -0.0047236276 0.013135996 0.00037557737 0.027533757 -0.0072576376
00000000: 9572 08ba a9c8 9abb 5c38 573c 24e9 c439
00000010: 798e e13c 7ad1 edbb

exp_avg_sq f4 [6, 1]
0.0017415991 0.0004188985 0.0019454805 0.00045660074 0.0023430823 0.00097623817
00000000: 5e46 e43a 9b9f db39 7eff fe3a ea63 ef39
00000010: 668e 193b 3cea 7f3a

w1 f4 [6, 1]
-0.5905242 -0.13206555 -0.92892 -0.57275736 -0.69603896 -0.7730439
00000000: 982c 17bf 313c 07be b3cd 6dbf 3aa0 12bf
00000010: 9c2f 32bf 34e6 45bf

exp_avg f4 [6, 1]
-0.002322228 -0.0071949307 0.0106699765 0.00077286415 0.026169417 -0.011666671
00000000: 8530 18bb 74c3 ebbb 20d1 2e3c 099a 4a3a
00000010: 3f61 d63c 9125 3fbc

exp_avg_sq f4 [6, 1]
0.0015520806 0.00038928355 0.001760444 0.0004054217 0.002182567 0.00090996624
00000000: 2f6f cb3a c118 cc39 b3be e63a c88e d439
00000010: 6609 0f3b cd8a 6e3a

w1 f4 [6, 1]
-0.58673924 -0.09582097 -0.9609745 -0.57883173 -0.7624767 -0.73298895
00000000: 8b34 16bf c93d c4bd 6d02 76bf 512e 14bf
00000010: ac31 43bf 2aa5 3bbf

exp_avg f4 [6, 1]
0.0002508361 -0.007694945 0.013066673 0.0026397572 0.029462703 -0.013242334
00000000: a782 8339 e125 fcbb 9915 563c c7ff 2c3b
00000010: c45b f13c 60f6 58bc

exp_avg_sq f4 [6, 1]
0.0013802032 0.0003612768 0.0015903616 0.00036050673 0.0020378085 0.00085245393
00000000: efe7 b43a c069 bd39 ae73 d03a 6502 bd39
00000010: c18c 053b 3777 5f3a

w1 f4 [6, 1]
-0.5855681 -0.061418187 -0.99654704 -0.5881952 -0.83467674 -0.6923148
00000000: cae7 15bf a391 7bbd b51d 7fbf f693 16bf
00000010: 60ad 55bf 8b3b 31bf

exp_avg f4 [6, 1]
-0.0021808196 -0.007406821 0.0077510276 0.0019510282 0.023675257 -0.014086984
00000000: 15ec 0ebb ebb4 f2bb 55fc fd3b a5b9 ff3a
00000010: 9df2 c13c 18cd 66bc

exp_avg_sq f4 [6, 1]
0.0012276301 0.00033360047 0.0014382013 0.00032127142 0.0019100811 0.0007979005
00000000: 6ee8 a03a 19e7 ae39 0782 bc3a 5270 a839
00000010: b05b fa3a 322a 513a

w1 f4 [6, 1]
-0.58795047 -0.03264637 -1.0344406 -0.59766483 -0.9102112 -0.65616983
00000000: ec83 16bf 33b8 05bd 8d68 84bf 9000 19bf
00000010: 9a03 69bf bffa 27bf

exp_avg f4 [6, 1]
0.00320456 -0.0036272046 0.012779457 0.0016853018 0.028734488 -0.008152842
00000000: 9803 523b 65b6 6dbb ed60 513c 58e5 dc3a
00000010: 9764 eb3c 7f93 05bc

exp_avg_sq f4 [6, 1]
0.0010935733 0.00030745575 0.0013097842 0.000287151 0.0018072588 0.00074995385
00000000: 3b56 8f3a 0332 a139 11ad ab3a c18c 9639
00000010: 8be1 ec3a 8d98 443a

w1 f4 [6, 1]
-0.59774673 -0.007217733 -1.0765041 -0.60999775 -0.98972344 -0.6234857
00000000: ee05 19bf bc82 ecbb e3ca 89bf d028 1cbf
00000010: 845e 7dbf c29c 1fbf

exp_avg f4 [6, 1]
0.00419993 -0.0036915732 0.010904733 0.0020160764 0.026320213 -0.008673642
00000000: 919f 893b 52ee 71bb c4a9 323c 2620 043b
00000010: 7d9d d73c e41b 0ebc

exp_avg_sq f4 [6, 1]
0.0009726129 0.0002844877 0.0011957246 0.00025858797 0.0017148104 0.0007114962
00000000: f2f6 7e3a 4b27 9539 dcb9 9c3a 1793 8739
00000010: 7dc3 e03a b483 3a3a

w1 f4 [6, 1]
-0.6141015 0.011228284 -1.1170418 -0.6201111 -1.0662736 -0.5956995
00000000: c235 1dbf d6f6 373c 3afb 8ebf 9abf 1ebf
00000010: a77b 88bf c37f 18bf

exp_avg f4 [6, 1]
0.0048312666 -0.002736525 0.01244383 0.00193014 0.027326817 -0.006184753
00000000: 9a4f 9e3b 4557 33bb 35e1 4b3c c0fc fc3a
00000010: 7ddc df3c 78a9 cabb

exp_avg_sq f4 [6, 1]
0.0008667853 0.00026255107 0.0010896189 0.00023462855 0.0016182999 0.0006734786
00000000: fa38 633a 02a7 8939 8bd1 8e3a 9f06 7639
00000010: 221d d43a 628c 303a

w1 f4 [6, 1]
-0.63187695 0.022632252 -1.1529922 -0.6237588 -1.1370746 -0.57371455
00000000: b0c2 21bf 4667 b93c 4095 93bf a8ae 1fbf
00000010: a98b 91bf f5de 12bf

exp_avg f4 [6, 1]
0.0052638073 -0.0034214235 0.0046961065 0.0010609095 0.018222164 -0.010174214
00000000: 047c ac3b f639 60bb cce1 993b 370e 8b3a
00000010: a646 953c bfb1 26bc

exp_avg_sq f4 [6, 1]
0.00077363884 0.00024429336 0.0009926773 0.00021522465 0.0015141031 0.00064573676
00000000: 06ce 4a3a 8014 8039 b91c 823a edad 6139
00000010: df74 c63a a946 293a
