ckpt/student/training/2023-05-23_13-01-16-rep5.pt (torch, 167119 bytes, 30 tensors)

w1 f4 [6, 1]
00000000: 7614 11bf 541b 87be c933 45bf 1aa8 14bf
00000010: ff3d e3be e2f1 57bf
-0.56671846 -0.26388037 -0.7703214 -0.58069 -0.44383237 -0.8435346

exp_avg f4 [6, 1]
00000000: 9271 b33a 8182 54bb 0913 203c 6ccb c6b9
00000010: 16f1 b13c f3fe bfbb
0.0013690463 -0.003242642 0.009770163 -0.00037917064 0.021721404 -0.0058592497

exp_avg_sq f4 [6, 1]
00000000: 7a17 083b 7b9b f539 de1e 083b 1622 123a
00000010: b975 1b3b d036 8f3a
0.0020765946 0.00046845883 0.0020770351 0.0005574537 0.0023721291 0.001092637

w1 f4 [6, 1]
00000000: f135 13bf dc46 80be ab0e 4cbf a942 15bf
00000010: da60 febe ee46 53bf
-0.57504183 -0.2505406 -0.7970988 -0.5830484 -0.49683267 -0.82530105

exp_avg f4 [6, 1]
00000000: 644f ad3b 0664 88bb 8adc 283c 8e77 cf3a
00000010: 8d91 be3c 4f0c 0dbc
0.005289005 -0.0041623143 0.010306487 0.0015828477 0.023262763 -0.008608892

exp_avg_sq f4 [6, 1]
00000000: 8cf1 f13a 1e09 df39 6c26 f53a dcdf 013a
00000010: d24d 0f3b 6d6b 823a
0.0018458827 0.00042540667 0.0018703467 0.0004954317 0.0021866453 0.0009950228

w1 f4 [6, 1]
00000000: 8ccc 15bf f7e3 73be 600c 53bf feb6 15bf
00000010: 41e7 0dbf 09d6 4dbf
-0.5851524 -0.2381743 -0.8244076 -0.5848235 -0.5543099 -0.80404717

exp_avg f4 [6, 1]
00000000: a34f 823b e84e 3a3b e13c 6a3c 9c40 3939
00000010: 7b85 ec3c 4fb8 be3a
0.0039767786 0.002842838 0.014296741 0.00017667044 0.028872242 0.0014550778

exp_avg_sq f4 [6, 1]
00000000: 83e0 d63a 6342 cb39 a15d dd3a 767f e639
00000010: a80e 053b ad70 6f3a
0.0016393814 0.0003876864 0.0016888866 0.00043963984 0.0020302925 0.00091339165

w1 f4 [6, 1]
00000000: 87c2 19bf 13b6 6bbe 50ce 5abf 8fd0 16bf
00000010: db1f 1ebf af38 48bf
-0.6006245 -0.23018675 -0.8547106 -0.58911985 -0.6176736 -0.7821149

exp_avg f4 [6, 1]
00000000: b7dd ac3b ed21 30bb 7893 0e3c bc59 133a
00000010: ba12 c33c 6d1e 11bc
0.005275454 -0.002687569 0.0087021515 0.00056209764 0.02381264 -0.008857352

exp_avg_sq f4 [6, 1]
00000000: 1235 bf3a a176 b839 1366 c83a a7a4 cc39
00000010: 5454 f83a 47af 5c3a
0.001458796 0.000351836 0.001528921 0.00039032588 0.001894603 0.00084184523

w1 f4 [6, 1]
00000000: 2f66 1ebf 622a 67be 1990 62bf 57d0 17bf
00000010: 530d 2fbf 3e13 42bf
-0.6187467 -0.22574762 -0.88501126 -0.59302276 -0.68379706 -0.7581061

exp_avg f4 [6, 1]
00000000: 3e80 073c d92e 01bb 2e66 2a3c 3e99 de3a
00000010: 5362 d43c a92b 11bc
0.008270321 -0.0019711761 0.010400338 0.0016982926 0.02592579 -0.008860507

exp_avg_sq f4 [6, 1]
00000000: 1444 aa3a 35cd a639 28d3 b43a b8aa b539
00000010: a9ca e73a 6b98 4a3a
0.001299026 0.00031814878 0.001379584 0.00034650206 0.0017684299 0.00077284005

w1 f4 [6, 1]
00000000: f2c5 23bf 8251 67be ca46 6abf 38f4 18bf
00000010: 3877 40bf 4697 3bbf
-0.63973916 -0.22589687 -0.91514266 -0.5974765 -0.75181913 -0.732777

exp_avg f4 [6, 1]
00000000: a24f ec3b 041b b6ba 7bf0 833b d0f2 733a
00000010: 0edd 983c 77d8 30bc
0.0072116414 -0.0013893549 0.0040264702 0.0009305896 0.018660095 -0.010793797

exp_avg_sq f4 [6, 1]
00000000: b6d8 973a e054 9739 4f5e a33a ad6e a139
00000010: 808d d83a 16fe 3b3a
0.0011584971 0.000288642 0.0012464019 0.00030790773 0.0016521662 0.00071713456

w1 f4 [6, 1]
00000000: 1f25 29bf e95c 6abe 073a 71bf 3cf2 19bf
00000010: bd92 51bf c398 34bf
-0.6607227 -0.22887005 -0.9422917 -0.60135245 -0.8186453 -0.70545596

exp_avg f4 [6, 1]
00000000: 76e4 1e3c 4a74 06bb f409 e43b 9810 1d3b
00000010: fe24 b43c e675 36bc
0.009698024 -0.002051609 0.0069591943 0.002396619 0.021990295 -0.011136508

exp_avg_sq f4 [6, 1]
00000000: c90a 883a 5b69 8939 bfe6 933a 0ff8 8f39
00000010: 0eb7 ca3a 3d1f 303a
0.0010379191 0.00026209172 0.0011283978 0.00027459904 0.0015465932 0.0006718522

w1 f4 [6, 1]
00000000: 58c8 2dbf dd20 6ebe c228 77bf 734c 1abf
00000010: 8f3c 62bf ec06 2dbf
-0.67883825 -0.23254724 -0.96546566 -0.602729 -0.88373655 -0.67588687

exp_avg f4 [6, 1]
00000000: ac05 d33b b8d5 2dba 7746 3d3b bd0b 763a
00000010: ce1b 923c 1bc6 27bc
0.006439885 -0.0006631273 0.0028881112 0.00093859044 0.017835524 -0.010240103

exp_avg_sq f4 [6, 1]
00000000: 28c1 733a 2dfe 7939 bfc8 853a 4a6f 8039
00000010: a4f3 bc3a 9aa4 263a
0.0009298497 0.00023841178 0.0010206922 0.0002449698 0.0014415872 0.0006356925

w1 f4 [6, 1]
00000000: bd47 31bf 32cc 73be 11da 7bbf 97b9 19bf
00000010: a209 72bf 05bb 25bf
-0.6925009 -0.23808363 -0.9837962 -0.6004881 -0.9454595 -0.64738494

exp_avg f4 [6, 1]
00000000: 5027 62b9 6a4c 613b a94f 973b 8ca9 0ebb
00000010: d5b9 9d3c 1c69 abba
-0.00021567685 0.0034377822 0.0046176505 -0.0021768538 0.01925365 -0.001307759

exp_avg_sq f4 [6, 1]
00000000: ec0a 5b3a dd03 6439 f821 723a 6929 6639
00000010: c3b6 af3a c499 1d3a
0.00083558145 0.00021745214 0.0009236629 0.00021949936 0.0013405908 0.00060119876

w1 f4 [6, 1]
00000000: 6520 34bf 9732 79be 8459 7fbf fb91 18bf
00000010: 3e63 80bf 5a12 1fbf
-0.7036193 -0.24335705 -0.99745965 -0.5959775 -1.0030286 -0.6213738

exp_avg f4 [6, 1]
00000000: b0c7 5e3b fc87 8cba ff7f e23a e00d bf37
00000010: 0402 7d3c 56ab eabb
0.0033993535 -0.0010721679 0.0017280577 2.2775435e-05 0.015442375 -0.007161538

exp_avg_sq f4 [6, 1]
00000000: f4b1 443a 40d2 4e39 9967 5a3a cfed 4d39
00000010: 3822 a23a 5b86 133a
0.0007503324 0.00019724015 0.00083314773 0.00019638914 0.0012369817 0.00056276255
