ckpt/burr/training/2023-05-23_12-38-34-rep3.pt (torch, 167119 bytes, 30 tensors)

w1 f4 [6, 1]
-1.4477493 -1.1469519 -1.492313 -1.4427081 -1.0820944 -1.6746496
00000000: d94f b9bf 52cf 92bf 1d04 bfbf a9aa b8bf
00000010: 1282 8abf eb5a d6bf

exp_avg f4 [6, 1]
0.10553539 0.112432644 0.12828323 0.10041351 0.13215785 0.10609875
00000000: f022 d83d 1643 e63d ae5c 033e 99a5 cd3d
00000010: 6354 073e 4d4a d93d

exp_avg_sq f4 [6, 1]
0.03980362 0.03166245 0.042899422 0.02664087 0.048909944 0.038009726
00000000: 1f09 233d 7cb0 013d 4eb7 2f3d f43d da3c
00000010: cb55 483d 16b0 1b3d

w1 f4 [6, 1]
-1.5048281 -1.2145616 -1.5584618 -1.5086037 -1.1463257 -1.7328916
00000000: 359e c0bf c176 9bbf ad7b c7bf ed19 c1bf
00000010: cdba 92bf 64cf ddbf

exp_avg f4 [6, 1]
0.10169537 0.108089894 0.1224896 0.096391365 0.12721717 0.101060204
00000000: aa45 d03d 3c5e dd3d d4db fa3d d668 c53d
00000010: 3845 023e a7f8 ce3d

exp_avg_sq f4 [6, 1]
0.036515154 0.029475618 0.039835203 0.024736485 0.045290835 0.034932517
00000000: ea90 153d da76 f13c 3d2a 233d 2ba4 ca3c
00000010: e282 393d 6615 0f3d

w1 f4 [6, 1]
-1.5588907 -1.2784628 -1.621105 -1.5705702 -1.2077125 -1.7872885
00000000: bb89 c7bf aba4 a3bf 5e80 cfbf 7208 c9bf
00000010: 5396 9abf dfc5 e4bf

exp_avg f4 [6, 1]
0.08909803 0.096492946 0.10931002 0.08497213 0.11435878 0.088809736
00000000: 0779 b63d 189e c53d efdd df3d de05 ae3d
00000010: f034 ea3d e1e1 b53d

exp_avg_sq f4 [6, 1]
0.033329293 0.02724011 0.036741875 0.022800112 0.041704338 0.03190666
00000000: 4c84 083d a726 df3c a67e 163d 4dc7 ba3c
00000010: 2bd2 2a3d 8fb0 023d

w1 f4 [6, 1]
-1.6081601 -1.3371211 -1.6788585 -1.6268755 -1.2648119 -1.8363764
00000000: 31d8 cdbf c926 abbf d6e4 d6bf 753d d0bf
00000010: 5be5 a1bf 620e ebbf

exp_avg f4 [6, 1]
0.07692214 0.08340489 0.09559536 0.07249066 0.10127705 0.07479885
00000000: 5b89 9d3d 2fd0 aa3d 80c7 c33d fc75 943d
00000010: 586a cf3d 2430 993d

exp_avg_sq f4 [6, 1]
0.030236067 0.024972357 0.0336391 0.020842066 0.038152147 0.028948378
00000000: a1b1 f73c d492 cc3c 27c9 093d fbbc aa3c
00000010: 6d45 1c3d 2625 ed3c

w1 f4 [6, 1]
-1.6549298 -1.3934313 -1.7342869 -1.6802408 -1.3199836 -1.8829528
00000000: bdd4 d3bf f55b b2bf 1dfd ddbf 2112 d7bf
00000010: 39f5 a8bf 9904 f1bf

exp_avg f4 [6, 1]
0.06683797 0.07508359 0.08573648 0.06378471 0.09124074 0.06616392
00000000: 58e2 883d 6dc5 993d 9c96 af3d 8fa1 823d
00000010: 6ddc ba3d f380 873d

exp_avg_sq f4 [6, 1]
0.027351802 0.022818899 0.030697633 0.018981924 0.034803256 0.02619398
00000000: e310 e03c b3ee ba3c 9a79 fb3c fb7f 9b3c
00000010: dc8d 0e3d c294 d63c

w1 f4 [6, 1]
-1.6958752 -1.4432516 -1.7839724 -1.7265836 -1.3701032 -1.9230411
00000000: 7012 d9bf 78bc b8bf 3559 e4bf b100 ddbf
00000010: 8b5f afbf 3626 f6bf

exp_avg f4 [6, 1]
0.048507523 0.05550967 0.06466509 0.04610886 0.06990047 0.046370093
00000000: d3af 463d 1c5e 633d 216f 843d a5dc 3c3d
00000010: fa27 8f3d 91ee 3d3d

exp_avg_sq f4 [6, 1]
0.02460979 0.020694412 0.027826022 0.017160477 0.031557314 0.023560846
00000000: 789a c93c 5487 a93c 66f3 e33c 2194 8c3c
00000010: 3e42 013d ad02 c13c

w1 f4 [6, 1]
-1.7296473 -1.4855577 -1.8267024 -1.7648284 -1.4138036 -1.9558873
00000000: 1565 ddbf c126 bebf 62d1 e9bf e6e5 e1bf
00000010: 84f7 b4bf 845a fabf

exp_avg f4 [6, 1]
0.044375066 0.051316764 0.059419826 0.042287737 0.06474258 0.043174196
00000000: a1c2 353d 8731 523d 3462 733d e835 2d3d
00000010: c297 843d 6dd7 303d

exp_avg_sq f4 [6, 1]
0.022030434 0.018645523 0.025070602 0.015413146 0.02845227 0.021088133
00000000: 2b79 b43c 7fbe 983c dd60 cd3c 6b87 7c3c
00000010: bc14 e93c 05c1 ac3c

w1 f4 [6, 1]
-1.7589505 -1.5227461 -1.864808 -1.7977796 -1.4533979 -1.9838217
00000000: 4a25 e1bf 58e9 c2bf 07b2 eebf a41d e6bf
00000010: f108 babf dfed fdbf

exp_avg f4 [6, 1]
0.02875803 0.032844063 0.04101833 0.026107265 0.046827506 0.024194438
00000000: f695 eb3c 7f87 063d d602 283d e7de d53c
00000010: 33ce 3f3d 6a33 c63c

exp_avg_sq f4 [6, 1]
0.019662665 0.016726943 0.022497283 0.0137888035 0.0255565 0.018816816
00000000: 9913 a13c f106 893c 394c b83c 6fea 613c
00000010: dd5b d13c b925 9a3c

w1 f4 [6, 1]
-1.7832853 -1.5541363 -1.8980352 -1.8245391 -1.4888234 -2.0059075
00000000: b142 e4bf f0ed c6bf d1f2 f2bf 7f8a e9bf
00000010: c491 bebf ca60 00c0

exp_avg f4 [6, 1]
0.027313422 0.031407177 0.039581157 0.024330815 0.04580996 0.02276191
00000000: 66c0 df3c d0a4 003d da1f 223d 6b51 c73c
00000010: 3aa3 3b3d 2f77 ba3c

exp_avg_sq f4 [6, 1]
0.01751348 0.014959044 0.020132678 0.012300295 0.022899203 0.016752413
00000000: 6e78 8f3c c716 753c 49ed a43c 2d87 493c
00000010: 1c97 bb3c 5b3c 893c

w1 f4 [6, 1]
-1.8050176 -1.5826459 -1.9290645 -1.8477874 -1.5226785 -2.024755
00000000: d10a e7bf 2494 cabf 96eb f6bf 4c84 ecbf
00000010: 21e7 c2bf 9695 01c0

exp_avg f4 [6, 1]
0.020970918 0.022802975 0.03120261 0.017316062 0.03780027 0.013872889
00000000: 34cb ab3c 4ecd ba3c 9e9c ff3c 6ada 8d3c
00000010: 75d4 1a3d 1d4b 633c

exp_avg_sq f4 [6, 1]
0.015583532 0.013355556 0.01799048 0.010956101 0.020493288 0.01489741
00000000: 1252 7f3c 43d1 5a3c c560 933c 3881 333c
00000010: 8ae1 a73c 4414 743c
