ckpt/burr/training/2023-05-23_12-37-41-rep1.pt (torch, 83815 bytes, 15 tensors)

w1 f4 [6, 1]
0	0xbfc0cfce	-1.5063417
1	0xbf9a33c4	-1.2047048
2	0xbfc5e0e6	-1.5459259
3	0xbfbf92a2	-1.4966624
4	0xbf915fd3	-1.1357368
5	0xbfdd663b	-1.7296823

exp_avg f4 [6, 1]
0	0x3e0bb760	0.13644171
1	0x3e13a379	0.14417829
2	0x3e248599	0.16066588
3	0x3e0413cc	0.12898177
4	0x3e292e63	0.16521601
5	0x3e0bb974	0.13644964

exp_avg_sq f4 [6, 1]
0	0x3d3c4ad1	0.045969788
1	0x3d1998b7	0.037499156
2	0x3d4c8c66	0.049938582
3	0x3cffac62	0.031210128
4	0x3d687954	0.056756333
5	0x3d3439d9	0.04400048

w1 f4 [6, 1]
0	0xbfc956fe	-1.5729673
1	0xbfa446d5	-1.2834116
2	0xbfcf91d1	-1.6216375
3	0xbfc96ae0	-1.5735741
4	0xbf9abdd1	-1.2089177
5	0xbfe62ec4	-1.7983022

exp_avg f4 [6, 1]
0	0x3dfca77a	0.12336631
1	0x3e08a628	0.13344634
2	0x3e1774e9	0.14790691
3	0x3df24f8b	0.11831578
4	0x3e1c4479	0.15260495
5	0x3dfdf11c	0.123995036

exp_avg_sq f4 [6, 1]
0	0x3d2edd92	0.042691775
1	0x3d1171f5	0.03550907
2	0x3d40aa04	0.04703714
3	0x3cf156cc	0.029460333
4	0x3d5a104a	0.05323819
5	0x3d27ec3f	0.040996786

w1 f4 [6, 1]
0	0xbfd165f3	-1.6359237
1	0xbfade77f	-1.3586272
2	0xbfd8d049	-1.6938564
3	0xbfd2c2a8	-1.6465654
4	0xbfa3b97f	-1.2790984
5	0xbfee7fef	-1.8632792

exp_avg f4 [6, 1]
0	0x3de8cfa0	0.11367726
1	0x3e021339	0.12702645
2	0x3e0ed6f6	0.13949189
3	0x3de3a9cc	0.111163706
4	0x3e13aa01	0.1442032
5	0x3def764d	0.11692486

exp_avg_sq f4 [6, 1]
0	0x3d216054	0.039398506
1	0x3d08b006	0.033370994
2	0x3d3429c2	0.043985136
3	0x3ce1ffbf	0.02758777
4	0x3d4b4802	0.04962922
5	0x3d1b74a0	0.03795302

w1 f4 [6, 1]
0	0xbfd950db	-1.69778
1	0xbfb751bc	-1.4321818
2	0xbfe1d653	-1.7643532
3	0xbfdbe9b4	-1.7180696
4	0xbfac8b5b	-1.3480028
5	0xbff69f87	-1.9267434

exp_avg f4 [6, 1]
0	0x3dd966cf	0.10615312
1	0x3deff8f3	0.11717405
2	0x3e03b2d4	0.12861186
3	0x3dd33869	0.10313494
4	0x3e091b50	0.13389325
5	0x3ddbdb40	0.10735178

exp_avg_sq f4 [6, 1]
0	0x3d14812c	0.036256
1	0x3cffac99	0.03121023
2	0x3d27b57d	0.040944565
3	0x3cd2ba48	0.025723591
4	0x3d3ccc56	0.046093307
5	0x3d0f608b	0.03500418

w1 f4 [6, 1]
0	0xbfe0f24f	-1.7573947
1	0xbfc05f87	-1.5029153
2	0xbfea7c90	-1.8319263
3	0xbfe4beaa	-1.7870686
4	0xbfb50746	-1.4142845
5	0xbffe7591	-1.9879628

exp_avg f4 [6, 1]
0	0x3dbfdfc1	0.093688495
1	0x3dd86507	0.105661444
2	0x3debc4b6	0.11512129
3	0x3dbdcad8	0.09267205
4	0x3df57a95	0.11986271
5	0x3dc514be	0.09623097

exp_avg_sq f4 [6, 1]
0	0x3d081f19	0.033232782
1	0x3cedc590	0.02902487
2	0x3d1b425d	0.037905086
3	0x3cc37f7b	0.023864498
4	0x3d2e798a	0.042596377
5	0x3d03b62e	0.032156162
