ckpt/burr/training/2023-05-23_12-38-34-rep4.pt (torch, 167119 bytes, 30 tensors)

w1 f4 [6, 1]
00000000: ba2f b8bf 1276 92bf 25fb bdbf fbf4 b7bf
00000010: 2164 89bf 89db d5bf
-1.4389565 -1.1442282 -1.4842268 -1.4371637 -1.0733682 -1.6707622

exp_avg f4 [6, 1]
00000000: fb2e ce3d 6432 da3d cc87 f63d ec4b c63d
00000010: 9fbe fc3d cf69 cd3d
0.100675546 0.106541425 0.1203762 0.0968245 0.123410456 0.10029947

exp_avg_sq f4 [6, 1]
00000000: da4a 243d 5360 023d 0b49 313d 3604 db3c
00000010: 0f37 4a3d b3ab 1c3d
0.040110447 0.031830143 0.04328255 0.026735406 0.049368914 0.038249683

w1 f4 [6, 1]
00000000: 0f2b bfbf c9d0 9abf b4ff c5bf bf38 c0bf
00000010: 711b 91bf d414 ddbf
-1.4935015 -1.2094966 -1.5468659 -1.5017318 -1.13365 -1.7271981

exp_avg f4 [6, 1]
00000000: caac c33d 4109 d03d d836 e93d d0a5 bc3d
00000010: 77de f03d 863d c33d
0.09554441 0.10158015 0.11387414 0.09211314 0.11761182 0.09533219

exp_avg_sq f4 [6, 1]
00000000: c03c 163d 8bde f13c 56cb 233d bdf0 ca3c
00000010: 9a3b 3a3d 1ea3 0f3d
0.03667903 0.029525062 0.039988838 0.024772996 0.045466997 0.03506767

w1 f4 [6, 1]
00000000: 4cd0 c5bf e3ba a2bf 8d9a cdbf 6509 c8bf
00000010: b67e 98bf 49e7 e3bf
-1.5454192 -1.2713283 -1.606279 -1.5627867 -1.1913669 -1.7804958

exp_avg f4 [6, 1]
00000000: 6461 af3d 0de5 bf3d 5802 d53d d3b0 ab3d
00000010: be98 dc3d 9b68 b33d
0.08563498 0.0936986 0.10400838 0.08383336 0.10771321 0.08760186

exp_avg_sq f4 [6, 1]
00000000: 55d1 083d 2bfd de3c 9d7c 163d b1e1 ba3c
00000010: 3fbb 2a3d 9e12 033d
0.03340276 0.02722033 0.036739934 0.022812696 0.041682478 0.032000177

w1 f4 [6, 1]
00000000: b345 ccbf 585b aabf a6ec d4bf 0695 cfbf
00000010: 49a9 9fbf 2a7d eabf
-1.595877 -1.3309126 -1.6634719 -1.6217353 -1.2473537 -1.8319447

exp_avg f4 [6, 1]
00000000: e65d a63d ec14 b13d bcc3 c53d 5baa 9f3d
00000010: 5a77 cf3d 398b a53d
0.081233785 0.08646569 0.09656474 0.077961646 0.101301864 0.08083195

exp_avg_sq f4 [6, 1]
00000000: 4aa0 f83c b8b5 cc3c 65ba 093d d96d ab3c
00000010: 5d09 1c3d 7979 ee3c
0.03034987 0.024988994 0.033625025 0.020926403 0.038094867 0.029110657

w1 f4 [6, 1]
00000000: 3fa0 d2bf d7bc b1bf 910b dcbf ace5 d6bf
00000010: f8b3 a6bf 2adc f0bf
-1.6455153 -1.3885754 -1.719103 -1.678884 -1.3023672 -1.8817189

exp_avg f4 [6, 1]
00000000: ec29 973d 36ec a13d 0da2 b43d 9968 913d
00000010: 9d86 be3d ed53 963d
0.07381043 0.07906382 0.08819971 0.071000285 0.09303019 0.07340226

exp_avg_sq f4 [6, 1]
00000000: 7c89 e13c 0955 bb3c 9f6e fb3c d9c6 9c3c
00000010: 9452 0e3d 086c d83c
0.027531378 0.022867696 0.030692397 0.019137787 0.03474672 0.0264187

w1 f4 [6, 1]
00000000: 3680 d8bf f67b b8bf f69e e2bf 4e94 ddbf
00000010: 7248 adbf 079f f6bf
-1.6914127 -1.441283 -1.7704761 -1.7310884 -1.3537734 -1.9267281

exp_avg f4 [6, 1]
00000000: 8553 6b3d 2e6e 713d a124 893d 81ba 5e3d
00000010: 20f2 923d 3f8c 5a3d
0.057452697 0.058942966 0.066964395 0.054377083 0.07175088 0.053356405

exp_avg_sq f4 [6, 1]
00000000: 40c6 cb3c 2162 aa3c ff4b e43c e387 8e3c
00000010: 7137 013d 4f75 c33c
0.024874806 0.020798745 0.027868269 0.01739878 0.031547014 0.023859648

w1 f4 [6, 1]
00000000: 809c ddbf 1664 bebf 6e69 e8bf a666 e3bf
00000010: 8221 b3bf 8d97 fbbf
-1.7313385 -1.4874294 -1.8157175 -1.7765701 -1.3994601 -1.9655625

exp_avg f4 [6, 1]
00000000: 9e2c 5e3d 1073 6c3d 2ed5 833d fc8f 563d
00000010: 52ce 8c3d 1b34 583d
0.05424177 0.05772692 0.06437145 0.052383408 0.0687529 0.052784067

exp_avg_sq f4 [6, 1]
00000000: 9a30 b73c 8b02 9a3c 5a20 ce3c c7bf 803c
00000010: ae66 e93c 00a6 af3c
0.022362042 0.01880004 0.02516191 0.015716447 0.028491344 0.02144146

w1 f4 [6, 1]
00000000: d62d e2bf 2ca8 c3bf c0a0 edbf bd93 e8bf
00000010: 3f76 b8bf a7f1 ffbf
-1.7670238 -1.5285697 -1.8564682 -1.8170086 -1.4411086 -1.9995621

exp_avg f4 [6, 1]
00000000: 19d9 103d 0cd9 0f3d ec41 2f3d 3acd 023d
00000010: 761e 463d 65f0 eb3c
0.03536329 0.0351191 0.042787477 0.031934 0.048368894 0.028801152

exp_avg_sq f4 [6, 1]
00000000: 671d a43c 8788 8a3c 6f4e b93c 9e7f 673c
00000010: 0ef4 d13c 183f 9d3c
0.020033551 0.016910804 0.022620408 0.014129547 0.02562907 0.019195125

w1 f4 [6, 1]
00000000: dd4b e6bf ef5f c8bf f25d f2bf 2833 edbf
00000010: b960 bdbf 6ae3 01c0
-1.7991902 -1.5654277 -1.893492 -1.8531237 -1.4795142 -2.0295053

exp_avg f4 [6, 1]
00000000: 8d59 1d3d 3346 213d 6046 3d3d 5cd8 113d
00000010: bd01 533d d279 0b3d
0.03841548 0.039373588 0.046209693 0.035606727 0.05151533 0.034051724

exp_avg_sq f4 [6, 1]
00000000: 84cb 923c 2fb3 783c ed44 a63c aeaf 4f3c
00000010: af88 bc3c 158f 8c3c
0.01791931 0.015179439 0.020296538 0.012676163 0.023014395 0.01715807

w1 f4 [6, 1]
00000000: e928 eabf 33ba ccbf a9d5 f6bf b072 f1bf
00000010: b418 c2bf 299c 03c0
-1.8293735 -1.5994323 -1.9283954 -1.8863125 -1.5163789 -2.0564063

exp_avg f4 [6, 1]
00000000: 8abd f93c a3e1 f93c 2f20 183d f9f3 e13c
00000010: c942 2e3d 27ee cd3c
0.030485887 0.0305031 0.037140068 0.027582156 0.04254416 0.025137974

exp_avg_sq f4 [6, 1]
00000000: c41e 833c 53c0 5e3c 13ec 943c 88ed 393c
00000010: 5c0b a93c 11db 7a3c
0.016005881 0.013595658 0.018178975 0.011348136 0.0206353 0.015311019
