ckpt/burr/training/2023-05-23_12-38-34-rep5.pt (torch, 167119 bytes, 30 tensors)

w1 f4 [6, 1]
-1.4875796 -1.1774713 -1.5231141 -1.4771786 -1.112194 -1.7080318
00000000: 0269 bebf 61b7 96bf 67f5 c2bf 3014 bdbf
00000010: 5f5c 8ebf c9a0 dabf

exp_avg f4 [6, 1]
0.10881455 0.1167269 0.13035147 0.1066942 0.1323389 0.11007652
00000000: 2ada de3d 830e ef3d db7a 053e 7d82 da3d
00000010: d983 073e cc6f e13d

exp_avg_sq f4 [6, 1]
0.046220247 0.037124038 0.049089003 0.03143449 0.056119613 0.044059478
00000000: 7151 3d3d 600f 183d 8d11 493d 74c1 003d
00000010: aedd 653d b677 343d

w1 f4 [6, 1]
-1.540891 -1.2414496 -1.5849869 -1.5406564 -1.171171 -1.7633672
00000000: eb3b c5bf d2e7 9ebf dae0 cabf 3b34 c5bf
00000010: eee8 95bf 04b6 e1bf

exp_avg f4 [6, 1]
0.097356364 0.10363867 0.115829855 0.09522945 0.118618675 0.09609015
00000000: c662 c73d 8340 d43d 3438 ed3d a807 c33d
00000010: 59ee f23d eaca c43d

exp_avg_sq f4 [6, 1]
0.042196825 0.034363903 0.04529566 0.029075166 0.051585335 0.040330935
00000000: 94d6 2c3d 2ac1 0c3d f187 393d 0b2f ee3c
00000010: 254b 533d 0d32 253d

w1 f4 [6, 1]
-1.5885103 -1.299232 -1.640808 -1.5977197 -1.2246294 -1.8125544
00000000: 4e54 cbbf 3c4d a6bf ff05 d2bf 1482 ccbf
00000010: a8c0 9cbf c801 e8bf

exp_avg f4 [6, 1]
0.08167042 0.092206344 0.10139718 0.08276534 0.103343956 0.08422023
00000000: d242 a73d aed6 bc3d 53a9 cf3d e080 a93d
00000010: ffa5 d33d a87b ac3d

exp_avg_sq f4 [6, 1]
0.038249724 0.031516608 0.041429915 0.026637444 0.047050554 0.036636226
00000000: beab 1c3d 8f17 013d 6ab2 293d c536 da3c
00000010: 15b8 403d de0f 163d

w1 f4 [6, 1]
-1.6313789 -1.3520082 -1.6916525 -1.6494923 -1.2734753 -1.8568187
00000000: 06d1 d0bf 9b0e adbf 1288 d8bf 9022 d3bf
00000010: 3d01 a3bf 3cac edbf

exp_avg f4 [6, 1]
0.066862725 0.076556124 0.08481805 0.06793183 0.0871999 0.068212986
00000000: 53ef 883d 75c9 9c3d 16b5 ad3d d81f 8b3d
00000010: dc95 b23d 40b3 8b3d

exp_avg_sq f4 [6, 1]
0.034493897 0.028698478 0.037642393 0.02422808 0.04266233 0.03308561
00000000: 7949 0d3d 1219 eb3c e92e 1a3d f779 c63c
00000010: b2be 2e3d c784 073d

w1 f4 [6, 1]
-1.6686708 -1.3990625 -1.7370547 -1.694985 -1.3173126 -1.8955244
00000000: 0197 d5bf 7b14 b3bf cf57 debf 45f5 d8bf
00000010: b39d a8bf 8ba0 f2bf

exp_avg f4 [6, 1]
0.05416937 0.065068394 0.07156731 0.056656398 0.07355424 0.05694113
00000000: b4e0 5d3d 9442 853d e291 923d 8a10 683d
00000010: 9ba3 963d 1a3b 693d

exp_avg_sq f4 [6, 1]
0.030957408 0.025973886 0.034007534 0.021894036 0.03848659 0.02973669
00000000: 649a fd3c 30c7 d43c 7c4b 0b3d 1f5b b33c
00000010: 1da4 1d3d 5c9a f33c

w1 f4 [6, 1]
-1.700509 -1.4399838 -1.7768298 -1.7340567 -1.3560506 -1.9283458
00000000: 47aa d9bf 6451 b8bf 296f e3bf 92f5 ddbf
00000010: 1193 adbf 09d4 f6bf

exp_avg f4 [6, 1]
0.03783766 0.045693833 0.051298473 0.039679863 0.053410657 0.0376235
00000000: aafb 1a3d 7529 3b3d 591e 523d 5a87 223d
00000010: 22c5 5a3d 191b 1a3d

exp_avg_sq f4 [6, 1]
0.02768104 0.023378082 0.030572003 0.019677551 0.03456834 0.026615452
00000000: 59c3 e23c 6483 bf3c 2372 fa3c d132 a13c
00000010: 8897 0d3d a608 da3c

w1 f4 [6, 1]
-1.7280668 -1.4762231 -1.8123332 -1.7680249 -1.3909837 -1.9567715
00000000: 4b31 ddbf e1f4 bcbf 89fa e7bf a44e e2bf
00000010: c10b b2bf 7d77 fabf

exp_avg f4 [6, 1]
0.038886663 0.046000283 0.051703427 0.039823577 0.054474287 0.038579475
00000000: 9f47 1f3d cb6a 3c3d f9c6 533d 0c1e 233d
00000010: 6e20 5f3d 8305 1e3d

exp_avg_sq f4 [6, 1]
0.024692105 0.020970955 0.027402408 0.01762304 0.030969998 0.023761662
00000000: 1947 ca3c 48cb ab3c 047b e03c 325e 903c
00000010: cbb4 fd3c d1a7 c23c

w1 f4 [6, 1]
-1.7532138 -1.5096302 -1.8454496 -1.7987767 -1.4240354 -1.9826093
00000000: 4f69 e0bf 903b c1bf b137 ecbf 513e e6bf
00000010: cb46 b6bf 24c6 fdbf

exp_avg f4 [6, 1]
0.027742945 0.029850407 0.036621477 0.026221767 0.04069279 0.022223461
00000000: 2c45 e33c d788 f43c 6700 163d 08cf d63c
00000010: 7cad 263d fa0d b63c

exp_avg_sq f4 [6, 1]
0.021997578 0.018771553 0.024515968 0.015749464 0.027704017 0.021184644
00000000: 4434 b43c cdc6 993c b6d5 c83c 0505 813c
00000010: 89f3 e23c 6b8b ad3c

w1 f4 [6, 1]
-1.7756437 -1.5394555 -1.8756814 -1.8257234 -1.454837 -2.005128
00000000: 4b48 e3bf e10c c5bf 5416 f0bf 4eb1 e9bf
00000010: 1938 babf 0454 00c0

exp_avg f4 [6, 1]
0.02881175 0.03567601 0.041061014 0.029335642 0.04457137 0.02947022
00000000: 9e06 ec3c 0221 123d 982f 283d 4d51 f03c
00000010: 7890 363d 886b f13c

exp_avg_sq f4 [6, 1]
0.019577479 0.016776206 0.021904591 0.014052116 0.024756951 0.018867515
00000000: f360 a03c 416e 893c 4271 b33c d93a 663c
00000010: 17cf ca3c 0c90 9a3c

w1 f4 [6, 1]
-1.797258 -1.5680455 -1.9051356 -1.8511385 -1.4853884 -2.0265977
00000000: 8d0c e6bf b7b5 c8bf 7cdb f3bf 1bf2 ecbf
00000010: 3521 bebf c7b3 01c0

exp_avg f4 [6, 1]
0.024242057 0.028822124 0.034346685 0.023730624 0.03828628 0.022956096
00000000: 4797 c63c 601c ec3c 1caf 0c3d ba66 c23c
00000010: 13d2 1c3d 6c0e bc3c

exp_avg_sq f4 [6, 1]
0.017415022 0.01497569 0.019555222 0.01252455 0.022111945 0.016790222
00000000: f3a9 8e3c 995c 753c 4632 a03c c533 4d3c
00000010: 1c24 b53c a68b 893c
