ckpt/burr/training/2023-05-23_12-38-34-rep8.pt (torch, 167119 bytes, 30 tensors)

w1 f4 [6, 1]
0	0xbfb96820	-1.4484901
1	0xbf91e067	-1.1396607
2	0xbfbe451a	-1.4864838
3	0xbfb8abb4	-1.44274
4	0xbf897e79	-1.0741721
5	0xbfd60e8c	-1.6723189

exp_avg f4 [6, 1]
0	0x3dd15217	0.102207355
1	0x3dd7006c	0.10498127
2	0x3df347ec	0.118789524
3	0x3dc910d7	0.09817665
4	0x3df8a553	0.12140908
5	0x3dce3152	0.10068001

exp_avg_sq f4 [6, 1]
0	0x3d2abb1a	0.04168234
1	0x3d0809f7	0.03321263
2	0x3d345097	0.04402217
3	0x3ce7a160	0.028275192
4	0x3d4e19fb	0.050317746
5	0x3d23a296	0.039949976

w1 f4 [6, 1]
0	0xbfc015a9	-1.500661
1	0xbf99b072	-1.2006972
2	0xbfc5e560	-1.5460625
3	0xbfc08448	-1.5040369
4	0xbf90ccb8	-1.1312475
5	0xbfdce2b4	-1.7256684

exp_avg f4 [6, 1]
0	0x3dc1fcef	0.094720714
1	0x3dca67a8	0.09883052
2	0x3de32d3e	0.11092614
3	0x3dbb8eb2	0.09158076
4	0x3de95cf0	0.113946795
5	0x3dc05bb5	0.09392492

exp_avg_sq f4 [6, 1]
0	0x3d1bafcf	0.03800946
1	0x3cfaeddd	0.030631
2	0x3d25ebdd	0.04050814
3	0x3cd5a9c6	0.02608193
4	0x3d3d09b5	0.046151835
5	0x3d157a81	0.036493782

w1 f4 [6, 1]
0	0xbfc65f16	-1.5497768
1	0xbfa10256	-1.2578838
2	0xbfcd1799	-1.6022826
3	0xbfc7d251	-1.5611058
4	0xbf97c554	-1.1857095
5	0xbfe334d6	-1.7750499

exp_avg f4 [6, 1]
0	0x3da150ac	0.07876715
1	0x3dae279c	0.08503649
2	0x3dc43ece	0.095822915
3	0x3d9d7425	0.076881684
4	0x3dcb0a84	0.09914115
5	0x3da291c4	0.07937959

exp_avg_sq f4 [6, 1]
0	0x3d0d5537	0.034505095
1	0x3ce5eec6	0.028067958
2	0x3d17d1c0	0.037065268
3	0x3cc3b804	0.023891456
4	0x3d2c9c7d	0.042141426
5	0x3d07cb05	0.0331526

w1 f4 [6, 1]
0	0xbfcbb1d6	-1.5913646
1	0xbfa7478b	-1.3068708
2	0xbfd34fed	-1.6508766
3	0xbfce0491	-1.6095144
4	0xbf9dd99d	-1.2332035
5	0xbfe87f6f	-1.816389

exp_avg f4 [6, 1]
0	0x3d766eee	0.060164385
1	0x3d82ec51	0.0639273
2	0x3d97e48f	0.07416641
3	0x3d6cd77c	0.05782269
4	0x3da01bee	0.07817827
5	0x3d6ab305	0.057299633

exp_avg_sq f4 [6, 1]
0	0x3cfe9dfd	0.031081194
1	0x3cd08ec1	0.025458695
2	0x3d099ed6	0.033598743
3	0x3cb1683a	0.021656144
4	0x3d1c4be6	0.03815832
5	0x3cf4a79e	0.029865082

w1 f4 [6, 1]
0	0xbfd045e6	-1.6271331
1	0xbfacc124	-1.3496442
2	0xbfd8c8f6	-1.6936328
3	0xbfd35e3a	-1.6513131
4	0xbfa33ef9	-1.2753593
5	0xbfed01aa	-1.8516133

exp_avg f4 [6, 1]
0	0x3d4b982e	0.049705677
1	0x3d68b05b	0.05680881
2	0x3d84cd10	0.06484425
3	0x3d4b5588	0.049642116
4	0x3d8b874b	0.068129145
5	0x3d4e065b	0.05029903

exp_avg_sq f4 [6, 1]
0	0x3ce44b88	0.027868047
1	0x3cbc186c	0.022960864
2	0x3cf82485	0.030290851
3	0x3c9fd8a7	0.019512488
4	0x3d0cd27e	0.03438043
5	0x3cdb6287	0.02678038

w1 f4 [6, 1]
0	0xbfd48658	-1.6603498
1	0xbfb1d7e5	-1.3894011
2	0xbfdded21	-1.7337991
3	0xbfd84c1c	-1.6898227
4	0xbfa85fd0	-1.315424
5	0xbff11a8e	-1.8836229

exp_avg f4 [6, 1]
0	0x3d3386fa	0.043829896
1	0x3d3cb068	0.04606667
2	0x3d5d8f7d	0.05409192
3	0x3d2c2396	0.042026125
4	0x3d6d4d64	0.057935134
5	0x3d20317e	0.0391097

exp_avg_sq f4 [6, 1]
0	0x3ccc5cfb	0.02494668
1	0x3ca931e6	0.020653676
2	0x3cdf3236	0.027245622
3	0x3c8fa785	0.017535934
4	0x3cfd48df	0.030918537
5	0x3cc44e32	0.023963068

w1 f4 [6, 1]
0	0xbfd87e2e	-1.6913507
1	0xbfb69bb2	-1.4266264
2	0xbfe2cda3	-1.7719005
3	0xbfdcd93f	-1.7253798
4	0xbfad4d43	-1.3539203
5	0xbff4d8ba	-1.912864

exp_avg f4 [6, 1]
0	0x3d2b4fe2	0.04182423
1	0x3d3d8f80	0.04627943
2	0x3d5cc239	0.053896163
3	0x3d259990	0.04042965
4	0x3d6db199	0.0580307
5	0x3d21c10e	0.039490752

exp_avg_sq f4 [6, 1]
0	0x3cb6a19f	0.022293864
1	0x3c97e234	0.01854048
2	0x3cc86b44	0.02446521
3	0x3c80c910	0.015720874
4	0x3ce37b19	0.027768658
5	0x3caf5736	0.02140389

w1 f4 [6, 1]
0	0xbfdbf748	-1.7184839
1	0xbfbaccd1	-1.4593755
2	0xbfe73454	-1.8062844
3	0xbfe0c5db	-1.7560381
4	0xbfb1d54a	-1.3893216
5	0xbff7fe4b	-1.9374479

exp_avg f4 [6, 1]
0	0x3cd34f83	0.02579475
1	0x3cd8e060	0.026474178
2	0x3d0f9d67	0.03506222
3	0x3cba9203	0.022774702
4	0x3d24bcbf	0.040219065
5	0x3c952871	0.01820776

exp_avg_sq f4 [6, 1]
0	0x3ca2d741	0.019878032
1	0x3c87e3d3	0.016588127
2	0x3cb36de5	0.021902988
3	0x3c662759	0.014047467
4	0x3ccbc513	0.024874246
5	0x3c9c3b16	0.019071143

w1 f4 [6, 1]
0	0xbfdf3054	-1.7436624
1	0xbfbeb2e7	-1.4898347
2	0xbfeb5bd4	-1.8387399
3	0xbfe45fb8	-1.7841711
4	0xbfb62c42	-1.4232256
5	0xbffad633	-1.9596618

exp_avg f4 [6, 1]
0	0x3cf27241	0.029595496
1	0x3d033eea	0.03204242
2	0x3d22ff5c	0.03979431
3	0x3cdf8d14	0.027288951
4	0x3d37798a	0.044793643
5	0x3cca2352	0.024675045

exp_avg_sq f4 [6, 1]
0	0x3c911c19	0.017713593
1	0x3c730143	0.014831844
2	0x3ca088af	0.019596426
3	0x3c4d7eaa	0.012542406
4	0x3cb6717d	0.022270912
5	0x3c8b2520	0.016985476

w1 f4 [6, 1]
0	0xbfe24310	-1.7676716
1	0xbfc25a41	-1.5183793
2	0xbfef5954	-1.8699136
3	0xbfe7b73b	-1.8102793
4	0xbfba6b6c	-1.4564033
5	0xbffd64c0	-1.9796371

exp_avg f4 [6, 1]
0	0x3cd5984a	0.026073594
1	0x3ce01ab3	0.027356481
2	0x3d0dfbb7	0.034663882
3	0x3cc0ecba	0.02355038
4	0x3d227e3e	0.039671175
5	0x3ca8a3ff	0.020586012

exp_avg_sq f4 [6, 1]
0	0x3c813cc1	0.01577604
1	0x3c58fc10	0.01324369
2	0x3c8f7b47	0.017514838
3	0x3c374552	0.011185961
4	0x3ca33a42	0.01992524
5	0x3c779552	0.015111284
