ckpt/burr/training/2023-05-23_12-38-34-rep7.pt (torch, 167119 bytes, 30 tensors)

w1 f4 [6, 1]
-1.4901592 -1.1823101 -1.5269016 -1.4805444 -1.1157619 -1.7117131
00000000: 89bd bebf f055 97bf 8371 c3bf 7b82 bdbf
00000010: 49d1 8ebf 6a19 dbbf

exp_avg f4 [6, 1]
0.11549814 0.124317266 0.13850164 0.11263275 0.14110681 0.11718186
00000000: 4a8a ec3d 0d9a fe3d 60d3 0d3e 00ac e63d
00000010: 4e7e 103e 0bfd ef3d

exp_avg_sq f4 [6, 1]
0.046330053 0.037364148 0.049436655 0.031572912 0.05641404 0.04425058
00000000: 95c4 3d3d 260b 193d 177e 4a3d 9952 013d
00000010: 6912 673d 1940 353d

w1 f4 [6, 1]
-1.5461948 -1.250011 -1.5922605 -1.5469923 -1.1783235 -1.7701639
00000000: b6e9 c5bf 5c00 a0bf 31cf cbbf d803 c6bf
00000010: 4ed3 96bf bb94 e2bf

exp_avg f4 [6, 1]
0.105236374 0.11493327 0.12745236 0.10345253 0.13064817 0.10656369
00000000: 2b86 d73d 2262 eb3d df82 023e ecde d33d
00000010: a2c8 053e 103e da3d

exp_avg_sq f4 [6, 1]
0.04243646 0.03477356 0.045840457 0.029328125 0.05210623 0.040663343
00000000: dad1 2d3d b86e 0e3d 34c3 3b3d 8941 f03c
00000010: 586d 553d 9b8e 263d

w1 f4 [6, 1]
-1.5999138 -1.3152422 -1.6550663 -1.6107242 -1.238855 -1.826023
00000000: fac9 ccbf db59 a8bf 36d9 d3bf 362c cebf
00000010: cd92 9ebf 1fbb e9bf

exp_avg f4 [6, 1]
0.0959933 0.107741445 0.118332855 0.09578056 0.121627614 0.09915477
00000000: 2398 c43d 8ca7 dc3d 7f58 f23d 9928 c43d
00000010: e617 f93d a811 cb3d

exp_avg_sq f4 [6, 1]
0.038720198 0.03219821 0.042295065 0.027097458 0.047932606 0.037207473
00000000: 1299 1e3d 45e2 033d 973d 2d3d 7dfb dd3c
00000010: fb54 443d dd66 183d

w1 f4 [6, 1]
-1.652573 -1.3791068 -1.7161549 -1.6732169 -1.2979962 -1.88089
00000000: 8387 d3bf 9286 b0bf f7aa dbbf f92b d6bf
00000010: bd24 a6bf 01c1 f0bf

exp_avg f4 [6, 1]
0.09092525 0.100689426 0.11005602 0.09029095 0.113786496 0.0931284
00000000: 0437 ba3d 4236 ce3d 0d65 e13d 76ea b83d
00000010: e508 e93d 1aba be3d

exp_avg_sq f4 [6, 1]
0.03525947 0.02971565 0.038887434 0.024963982 0.043964494 0.033971332
00000000: 3c6c 103d 3c6e f33c 6e48 1f3d 4481 cc3c
00000010: 1d14 343d 8625 0b3d

w1 f4 [6, 1]
-1.7035486 -1.4404118 -1.7747109 -1.7334015 -1.3550366 -1.933829
00000000: e10d dabf 6a5f b8bf ba29 e3bf 1ae0 ddbf
00000010: d771 adbf b587 f7bf

exp_avg f4 [6, 1]
0.07940009 0.09010418 0.0977127 0.08017281 0.10116594 0.08335248
00000000: 849c a23d 8a88 b83d 991d c83d a431 a43d
00000010: 1730 cf3d b4b4 aa3d

exp_avg_sq f4 [6, 1]
0.03202085 0.027304498 0.03560619 0.022905447 0.0401825 0.030925699
00000000: 4b28 033d afad df3c ccd7 113d 34a4 bb3c
00000010: 6896 243d e457 fd3c

w1 f4 [6, 1]
-1.7492645 -1.4952189 -1.8273522 -1.7871135 -1.4067891 -1.9810283
00000000: e6e7 dfbf 5563 bfbf ade6 e9bf 23c0 e4bf
00000010: aa11 b4bf 5692 fdbf

exp_avg f4 [6, 1]
0.058475945 0.06456931 0.07145812 0.058231317 0.07520088 0.058174185
00000000: 7984 6f3d ea3c 843d a358 923d f683 6e3d
00000010: eb02 9a3d 0e48 6e3d

exp_avg_sq f4 [6, 1]
0.028915713 0.024872547 0.03235767 0.020842705 0.036482982 0.027967677
00000000: a5e0 ec3c 83c1 cb3c 7a89 043d 52be aa3c
00000010: 2e6f 153d 781c e53c

w1 f4 [6, 1]
-1.7878491 -1.5418187 -1.8724638 -1.8324951 -1.4516127 -2.0207787
00000000: 3dd8 e4bf 515a c5bf e5ac efbf 338f eabf
00000010: 72ce b9bf 7054 01c0

exp_avg f4 [6, 1]
0.053994734 0.059069254 0.06557087 0.05326854 0.06968318 0.05322466
00000000: 9529 5d3d 9af2 713d 054a 863d 1d30 5a3d
00000010: 0eb6 8e3d 1a02 5a3d

exp_avg_sq f4 [6, 1]
0.025967505 0.022485055 0.029207727 0.018821782 0.032921553 0.02514389
00000000: ceb9 d43c 9432 b83c 0b45 ef3c 2330 9a3c
00000010: c0d8 063d 8ffa cd3c

w1 f4 [6, 1]
-1.8206376 -1.581657 -1.9115887 -1.8708959 -1.4910967 -2.054127
00000000: a70a e9bf bd73 cabf f0ae f4bf 8479 efbf
00000010: 42dc bebf d176 03c0

exp_avg f4 [6, 1]
0.034833796 0.03701382 0.043925185 0.0330863 0.04890565 0.030680219
00000000: e2ad 0e3d ce9b 173d e5ea 333d 8085 073d
00000010: 4a51 483d 1555 fb3c

exp_avg_sq f4 [6, 1]
0.023219544 0.020204931 0.026225604 0.016894728 0.029565645 0.02249904
00000000: ea36 be3c d084 a53c 14d7 d63c d066 8a3c
00000010: a733 f23c e84f b83c

w1 f4 [6, 1]
-1.8490623 -1.6160344 -1.9460218 -1.9038098 -1.5265334 -2.0822659
00000000: 13ae ecbf 37da cebf 3e17 f9bf 0ab0 f3bf
00000010: 7265 c3bf d843 05c0

exp_avg f4 [6, 1]
0.03444255 0.038480017 0.044478476 0.03362467 0.049181197 0.032910552
00000000: a213 0d3d 399d 1d3d 102f 363d 06ba 093d
00000010: 3972 493d 37cd 063d

exp_avg_sq f4 [6, 1]
0.020721413 0.018101677 0.023486605 0.015121633 0.026490841 0.020086294
00000000: f4bf a93c f849 943c fb66 c03c bac0 773c
00000010: 5203 d93c 038c a43c

w1 f4 [6, 1]
-1.8745239 -1.6466126 -1.9772913 -1.932864 -1.5593858 -2.1067781
00000000: 66f0 efbf 34c4 d2bf e217 fdbf 1668 f7bf
00000010: f499 c7bf 74d5 06c0

exp_avg f4 [6, 1]
0.028542737 0.030420683 0.036325216 0.027013598 0.04125386 0.025272962
00000000: 75d2 e93c cc34 f93c c0c9 143d 9f4b dd3c
00000010: cff9 283d 3e09 cf3c

exp_avg_sq f4 [6, 1]
0.018462446 0.016175242 0.020987231 0.013501742 0.023690045 0.017896986
00000000: 8e3e 973c f181 843c 6aed ab3c 6936 5d3c
00000010: a011 c23c b39c 923c
