ckpt/burr/training/2023-05-23_12-38-34-rep6.pt (torch, 167119 bytes, 30 tensors)

w1 f4 [6, 1]
0	0xbfc16ede	-1.5111959
1	0xbf9ad5e1	-1.2096521
2	0xbfc6733e	-1.5503919
3	0xbfc03384	-1.5015721
4	0xbf91fb02	-1.1404727
5	0xbfde0a5f	-1.7346915

exp_avg f4 [6, 1]
0	0x3e026e04	0.1273728
1	0x3e0c6496	0.13710245
2	0x3e1c1065	0.15240629
3	0x3dfa0751	0.12208427
4	0x3e1fb3c1	0.15595914
5	0x3e0432ad	0.12909956

exp_avg_sq f4 [6, 1]
0	0x3d3e4fd4	0.04646285
1	0x3d1b3c39	0.03789923
2	0x3d4e1178	0.05030963
3	0x3d013c20	0.03155148
4	0x3d6a5349	0.057208333
5	0x3d35e8ac	0.044411346

w1 f4 [6, 1]
0	0xbfc91797	-1.5710324
1	0xbfa405dc	-1.2814288
2	0xbfcf50e8	-1.6196566
3	0xbfc92721	-1.5715066
4	0xbf9a8503	-1.2071842
5	0xbfe5fdd3	-1.7968086

exp_avg f4 [6, 1]
0	0x3de2312f	0.11044537
1	0x3df2e411	0.118599065
2	0x3e077347	0.13227569
3	0x3dd90ee5	0.10598544
4	0x3e0baf5f	0.13641118
5	0x3ddff7da	0.10935946

exp_avg_sq f4 [6, 1]
0	0x3d2f14f6	0.0427446
1	0x3d114983	0.035470497
2	0x3d401421	0.046894196
3	0x3cf136c3	0.029445058
4	0x3d59984d	0.05312376
5	0x3d27e428	0.04098907

w1 f4 [6, 1]
0	0xbfd02660	-1.6261711
1	0xbfac8f55	-1.3481241
2	0xbfd789f8	-1.683898
3	0xbfd17652	-1.6364233
4	0xbfa27a03	-1.2693485
5	0xbfed5175	-1.8540484

exp_avg f4 [6, 1]
0	0x3dcae592	0.09907068
1	0x3de31d27	0.11089545
2	0x3dfa1b6e	0.12212263
3	0x3dc8fced	0.09813867
4	0x3e00d0d8	0.12579668
5	0x3dd0b60f	0.10190975

exp_avg_sq f4 [6, 1]
0	0x3d200129	0.039063606
1	0x3d06cfbd	0.03291296
2	0x3d319081	0.0433507
3	0x3cdf3ff4	0.027252175
4	0x3d4894a8	0.048969895
5	0x3d19e468	0.03757134

w1 f4 [6, 1]
0	0xbfd6c68d	-1.6779343
1	0xbfb48ec4	-1.4106069
2	0xbfdf4021	-1.7441446
3	0xbfd945ac	-1.6974387
4	0xbfa9fc65	-1.328015
5	0xbff426de	-1.9074361

exp_avg f4 [6, 1]
0	0x3db20ae1	0.08693481
1	0x3dc951cf	0.09830057
2	0x3dde1d85	0.10845474
3	0x3db0a6c4	0.08625558
4	0x3de645fd	0.11243818
5	0x3db6b92d	0.08922038

exp_avg_sq f4 [6, 1]
0	0x3d1183a0	0.035525918
1	0x3cf84c96	0.030309957
2	0x3d230a03	0.03980447
3	0x3ccd327b	0.025048485
4	0x3d37d14f	0.044877347
5	0x3d0c39db	0.034234863

w1 f4 [6, 1]
0	0xbfdce5a1	-1.7257577
1	0xbfbc04cf	-1.4688967
2	0xbfe676f6	-1.8005054
3	0xbfe08034	-1.7539124
4	0xbfb10df2	-1.3832381
5	0xbffa7662	-1.9567378

exp_avg f4 [6, 1]
0	0x3d97658f	0.07392418
1	0x3dadf7da	0.084945396
2	0x3dc1458d	0.09437094
3	0x3d975d4b	0.07390841
4	0x3dc9e092	0.098572865
5	0x3d9a5acd	0.0753685

exp_avg_sq f4 [6, 1]
0	0x3d03bab0	0.03216046
1	0x3ce34869	0.027744489
2	0x3d14e393	0.036349844
3	0x3cbb6e5f	0.022879777
4	0x3d27a615	0.040929873
5	0x3cfe4d35	0.031042675

w1 f4 [6, 1]
0	0xbfe2a1a6	-1.7705581
1	0xbfc2f8c6	-1.523217
2	0xbfed3e9a	-1.853473
3	0xbfe736f2	-1.8063643
4	0xbfb7c28f	-1.435625
5	0xc0002019	-2.001959

exp_avg f4 [6, 1]
0	0x3d683980	0.05669546
1	0x3d868367	0.06568032
2	0x3d979318	0.07401103
3	0x3d66fa4e	0.056391053
4	0x3d9ff314	0.07810035
5	0x3d636b73	0.055522393

exp_avg_sq f4 [6, 1]
0	0x3cedc4be	0.029024478
1	0x3ccf012a	0.02526911
2	0x3d076264	0.033052817
3	0x3caa61c9	0.02079858
4	0x3d1857c3	0.03719307
5	0x3ce5a33d	0.02803194

w1 f4 [6, 1]
0	0xbfe7f1af	-1.8120631
1	0xbfc982a7	-1.5742997
2	0xbff3a4ec	-1.9034705
3	0xbfed6dfa	-1.8549187
4	0xbfbe2107	-1.4853829
5	0xc002ccc6	-2.0437484

exp_avg f4 [6, 1]
0	0x3d7bb48b	0.061451476
1	0x3d8aed51	0.06783546
2	0x3d9c77b0	0.07640016
3	0x3d7466c2	0.05966831
4	0x3da65f62	0.081236616
5	0x3d6e66d5	0.058203537

exp_avg_sq f4 [6, 1]
0	0x3cd6126d	0.026131833
1	0x3cbbfdb0	0.022948116
2	0x3cf5926e	0.02997705
3	0x3c9a5d98	0.018843457
4	0x3d0a1fc2	0.033721693
5	0x3cced964	0.025250144

w1 f4 [6, 1]
0	0xbfed266b	-1.8527349
1	0xbfcfe99a	-1.6243165
2	0xbff9f1fd	-1.9526974
3	0xbff3742b	-1.9019827
4	0xbfc47366	-1.5347717
5	0xc005628a	-2.0841393

exp_avg f4 [6, 1]
0	0x3d4b841d	0.04968654
1	0x3d65b26d	0.056078363
2	0x3d842f89	0.06454379
3	0x3d4356f1	0.047690336
4	0x3d8f0066	0.06982498
5	0x3d3c0a40	0.045908213

exp_avg_sq f4 [6, 1]
0	0x3cc07b37	0.023496253
1	0x3caa655d	0.020800287
2	0x3cde5f93	0.027145183
3	0x3c8b8a26	0.017033648
4	0x3cfa2c3a	0.030538667
5	0x3cba015d	0.022705728

w1 f4 [6, 1]
0	0xbff21db7	-1.8915318
1	0xbfd601ad	-1.6719261
2	0xbfffffe1	-1.9999963
3	0xbff92084	-1.9463048
4	0xbfca96a3	-1.5827221
5	0xc007cd46	-2.121904

exp_avg f4 [6, 1]
0	0x3d46e5f4	0.048559144
1	0x3d626901	0.05527592
2	0x3d81cc15	0.06337754
3	0x3d3ee11b	0.046601396
4	0x3d8cd8ed	0.06877313
5	0x3d392193	0.045198034

exp_avg_sq f4 [6, 1]
0	0x3cace043	0.02110303
1	0x3c9a2bde	0.018819746
2	0x3cc91182	0.024544481
3	0x3c7bccd8	0.015368663
4	0x3ce24dff	0.027625082
5	0x3ca7038f	0.020387439

w1 f4 [6, 1]
0	0xbff6d9dc	-1.9285235
1	0xbfdbcf7e	-1.7172697
2	0xc002e855	-2.0454304
3	0xbffe7af6	-1.9881275
4	0xbfd08b34	-1.6292481
5	0xc00a10ae	-2.157268

exp_avg f4 [6, 1]
0	0x3d26af4a	0.040694512
1	0x3d436273	0.04770131
2	0x3d60ee5e	0.054914825
3	0x3d214f69	0.039382372
4	0x3d75f1a8	0.060044914
5	0x3d1bde9a	0.038054086

exp_avg_sq f4 [6, 1]
0	0x3c9b0668	0.018923953
1	0x3c8b2bca	0.016988654
2	0x3cb5708f	0.022148399
3	0x3c62aa00	0.0138344765
4	0x3ccc5cfa	0.024946678
5	0x3c95b27e	0.018273588
