ckpt/burr/training/2023-05-23_12-38-34-rep1.pt (torch, 167119 bytes, 30 tensors)

w1 f4 [6, 1]
000000 ce cf c0 bf c4 33 9a bf e6 e0 c5 bf a2 92 bf bf
       -1.5063417 -1.2047048 -1.5459259 -1.4966624
000010 d3 5f 91 bf 3b 66 dd bf
       -1.1357368 -1.7296823

exp_avg f4 [6, 1]
000000 60 b7 0b 3e 79 a3 13 3e 99 85 24 3e cc 13 04 3e
       0.13644171 0.14417829 0.16066588 0.12898177
000010 63 2e 29 3e 74 b9 0b 3e
       0.16521601 0.13644964

exp_avg_sq f4 [6, 1]
000000 d1 4a 3c 3d b7 98 19 3d 66 8c 4c 3d 62 ac ff 3c
       0.045969788 0.037499156 0.049938582 0.031210128
000010 54 79 68 3d d9 39 34 3d
       0.056756333 0.04400048

w1 f4 [6, 1]
000000 fe 56 c9 bf d5 46 a4 bf d1 91 cf bf e0 6a c9 bf
       -1.5729673 -1.2834116 -1.6216375 -1.5735741
000010 d1 bd 9a bf c4 2e e6 bf
       -1.2089177 -1.7983022

exp_avg f4 [6, 1]
000000 7a a7 fc 3d 28 a6 08 3e e9 74 17 3e 8b 4f f2 3d
       0.12336631 0.13344634 0.14790691 0.11831578
000010 79 44 1c 3e 1c f1 fd 3d
       0.15260495 0.123995036

exp_avg_sq f4 [6, 1]
000000 92 dd 2e 3d f5 71 11 3d 04 aa 40 3d cc 56 f1 3c
       0.042691775 0.03550907 0.04703714 0.029460333
000010 4a 10 5a 3d 3f ec 27 3d
       0.05323819 0.040996786

w1 f4 [6, 1]
000000 f3 65 d1 bf 7f e7 ad bf 49 d0 d8 bf a8 c2 d2 bf
       -1.6359237 -1.3586272 -1.6938564 -1.6465654
000010 7f b9 a3 bf ef 7f ee bf
       -1.2790984 -1.8632792

exp_avg f4 [6, 1]
000000 a0 cf e8 3d 39 13 02 3e f6 d6 0e 3e cc a9 e3 3d
       0.11367726 0.12702645 0.13949189 0.111163706
000010 01 aa 13 3e 4d 76 ef 3d
       0.1442032 0.11692486

exp_avg_sq f4 [6, 1]
000000 54 60 21 3d 06 b0 08 3d c2 29 34 3d bf ff e1 3c
       0.039398506 0.033370994 0.043985136 0.02758777
000010 02 48 4b 3d a0 74 1b 3d
       0.04962922 0.03795302

w1 f4 [6, 1]
000000 db 50 d9 bf bc 51 b7 bf 53 d6 e1 bf b4 e9 db bf
       -1.69778 -1.4321818 -1.7643532 -1.7180696
000010 5b 8b ac bf 87 9f f6 bf
       -1.3480028 -1.9267434

exp_avg f4 [6, 1]
000000 cf 66 d9 3d f3 f8 ef 3d d4 b2 03 3e 69 38 d3 3d
       0.10615312 0.11717405 0.12861186 0.10313494
000010 50 1b 09 3e 40 db db 3d
       0.13389325 0.10735178

exp_avg_sq f4 [6, 1]
000000 2c 81 14 3d 99 ac ff 3c 7d b5 27 3d 48 ba d2 3c
       0.036256 0.03121023 0.040944565 0.025723591
000010 56 cc 3c 3d 8b 60 0f 3d
       0.046093307 0.03500418

w1 f4 [6, 1]
000000 4f f2 e0 bf 87 5f c0 bf 90 7c ea bf aa be e4 bf
       -1.7573947 -1.5029153 -1.8319263 -1.7870686
000010 46 07 b5 bf 91 75 fe bf
       -1.4142845 -1.9879628

exp_avg f4 [6, 1]
000000 c1 df bf 3d 07 65 d8 3d b6 c4 eb 3d d8 ca bd 3d
       0.093688495 0.105661444 0.11512129 0.09267205
000010 95 7a f5 3d be 14 c5 3d
       0.11986271 0.09623097

exp_avg_sq f4 [6, 1]
000000 19 1f 08 3d 90 c5 ed 3c 5d 42 1b 3d 7b 7f c3 3c
       0.033232782 0.02902487 0.037905086 0.023864498
000010 8a 79 2e 3d 2e b6 03 3d
       0.042596377 0.032156162

w1 f4 [6, 1]
000000 74 fe e7 bf c2 af c8 bf 94 76 f2 bf 87 dd ec bf
       -1.8124528 -1.5678637 -1.8942437 -1.8505105
000010 08 e9 bc bf 13 d1 02 c0
       -1.4758615 -2.0440109

exp_avg f4 [6, 1]
000000 66 e2 95 3d 12 ed a7 3d ae bc b8 3d ab 8e 93 3d
       0.07318573 0.081995144 0.09020363 0.07204946
000010 64 40 c2 3d 51 84 95 3d
       0.09484938 0.07300628

exp_avg_sq f4 [6, 1]
000000 8a 0e f8 3c 3c 1f db 3c 73 99 0e 3d 58 d6 b3 3c
       0.03028037 0.026748292 0.03481431 0.021952793
000010 e7 19 20 3d 61 4f f0 3c
       0.039087202 0.029334726

w1 f4 [6, 1]
000000 cd 62 ee bf d2 47 d0 bf 96 c5 f9 bf 41 3b f4 bf
       -1.8623902 -1.6271918 -1.9513423 -1.9080583
000010 dd 2d c4 bf 38 13 06 c0
       -1.5326496 -2.094923

exp_avg f4 [6, 1]
000000 ac 57 97 3d c6 a3 a8 3d 1d b0 b7 3d c0 70 95 3d
       0.07389769 0.08234362 0.08969138 0.07296896
000010 dc 4f c1 3d a7 00 99 3d
       0.0943906 0.074708275

exp_avg_sq f4 [6, 1]
000000 25 ef e0 3c c6 ac c8 3c 43 3d 02 3d 1c 61 a4 3c
       0.027457783 0.024496447 0.031796705 0.020065837
000010 0c 2a 12 3d 8f 2b da 3c
       0.03568463 0.026632098

w1 f4 [6, 1]
000000 5e fb f3 bf f7 e8 d6 bf cc 1c 00 c0 70 a2 fa bf
       -1.9061086 -1.6789845 -2.0017576 -1.9580822
000010 37 ac ca bf cd de 08 c0
       -1.5833806 -2.1385987

exp_avg f4 [6, 1]
000000 1f f8 4a 3d 75 95 5f 3d 70 d6 7e 3d 5c d3 42 3d
       0.049553033 0.054585893 0.062216222 0.04756485
000010 04 a7 8a 3d 52 62 3c 3d
       0.06770137 0.045992203

exp_avg_sq f4 [6, 1]
000000 47 a2 ca 3c 66 11 b6 3c 22 fd eb 3c 2b e4 94 3c
       0.024735583 0.022225093 0.028807227 0.018175205
000010 e8 74 04 3d 92 92 c4 3c
       0.032338053 0.023995671

w1 f4 [6, 1]
000000 ca ba f8 bf 48 a5 dc bf 04 ef 02 c0 b5 09 00 c0
       -1.9432003 -1.723794 -2.0458384 -2.0005925
000010 53 6b d0 bf b8 38 0b c0
       -1.6282753 -2.1753368

exp_avg f4 [6, 1]
000000 f8 c0 3c 3d bd b5 52 3d a9 5b 6f 3d 36 bc 36 3d
       0.046082467 0.05144285 0.058437023 0.044613086
000010 32 b8 82 3d 55 24 31 3d
       0.06382789 0.04324754

exp_avg_sq f4 [6, 1]
000000 32 c0 b5 3c 29 50 a4 3c a2 c5 d4 3c c6 1e 86 3c
       0.022186372 0.020057755 0.025973145 0.016372096
000010 6e fa ee 3c 37 5a b0 3c
       0.029172149 0.021527393

w1 f4 [6, 1]
000000 04 de fc bf 0e af e1 bf 4b 74 05 c0 6e 63 02 c0
       -1.9755254 -1.7631547 -2.085223 -2.0373187
000010 a5 a3 d5 bf 1a 36 0d c0
       -1.6690565 -2.206427

exp_avg f4 [6, 1]
000000 d0 93 15 3d b0 94 2a 3d 79 3e 45 3d 35 9b 10 3d
       0.036517918 0.041645706 0.04815528 0.035304267
000010 e8 41 5b 3d 4e 36 09 3d
       0.05352965 0.033499055

exp_avg_sq f4 [6, 1]
000000 c8 81 a2 3c c3 9d 93 3c df 17 bf 3c 10 90 70 3c
       0.019837275 0.018019563 0.023326812 0.014682785
000010 de d1 d6 3c 91 9f 9d 3c
       0.02622312 0.019241126
