ckpt/burr/training/2023-05-23_12-38-34-rep2.pt (torch, 167183 bytes, 30 tensors)

w1 f4 [6, 1]
000000 c6 fd b9 bf 39 09 93 bf 52 6d bf bf 5f 3b b9 bf
       -1.453057 -1.148719 -1.4955237 -1.4471244
000010 a1 b4 8a bf 31 d3 d6 bf
       -1.0836374 -1.67832

exp_avg f4 [6, 1]
000000 f0 1e d6 3d aa e2 e3 3d 8a 50 01 3e 53 53 ce 3d
       0.104551196 0.11127217 0.1262838 0.100744866
000010 39 60 04 3e 61 d8 d6 3d
       0.12927331 0.1049049

exp_avg_sq f4 [6, 1]
000000 51 de 2a 3d d1 e7 08 3d 24 b9 36 3d a2 43 e7 3c
       0.041715924 0.033424202 0.044610158 0.028230492
000010 32 7c 50 3d cd df 23 3d
       0.050899692 0.040008355

w1 f4 [6, 1]
000000 0d bd c0 bf e0 1f 9b bf 91 4f c7 bf 4c 31 c1 bf
       -1.5057694 -1.2119102 -1.5571157 -1.5093169
000010 cd 47 92 bf 79 ce dd bf
       -1.1428162 -1.7328635

exp_avg f4 [6, 1]
000000 bc 19 b7 3d eb 84 c6 3d 0a 90 de 3d b2 7c b3 3d
       0.08940455 0.09693321 0.10867317 0.08764018
000010 13 81 e4 3d 0b 6b b9 3d
       0.111574315 0.0905362

exp_avg_sq f4 [6, 1]
000000 50 e1 1b 3d 3d 32 fd 3c 58 88 28 3d 83 8a d5 3c
       0.03805667 0.030907745 0.041145653 0.026067024
000010 fe ac 3f 3d eb e1 15 3d
       0.046795838 0.036592405

w1 f4 [6, 1]
000000 9d b6 c6 bf e2 50 a2 bf 76 52 ce bf a7 40 c8 bf
       -1.5524479 -1.2680933 -1.6118915 -1.564473
000010 0d 12 99 bf 55 f5 e3 bf
       -1.1958634 -1.7809244

exp_avg f4 [6, 1]
000000 c0 a3 99 3d dd 99 a9 3d ab 7d be 3d 6c b8 97 3d
       0.07501936 0.082813 0.09301313 0.074082226
000010 c0 49 c5 3d 18 ba 9c 3d
       0.09633207 0.07652682

exp_avg_sq f4 [6, 1]
000000 0c 31 0d 3d 00 c3 e7 3c 63 f7 19 3d 57 36 c3 3c
       0.034470603 0.028291225 0.037589442 0.023829622
000010 9f c2 2e 3d 53 fe 07 3d
       0.042666074 0.033201527

w1 f4 [6, 1]
000000 6e e6 cb bf a7 99 a8 bf c0 7a d4 bf b1 63 ce bf
       -1.5929697 -1.3171891 -1.659996 -1.6124173
000010 a0 16 9f bf 26 44 e9 bf
       -1.242878 -1.8223922

exp_avg f4 [6, 1]
000000 dc eb 72 3d d4 46 87 3d d6 0a 9a 3d 55 63 6f 3d
       0.059306964 0.06605306 0.07521598 0.05844434
000010 0f b1 a1 3d 31 54 74 3d
       0.07895099 0.059650604

exp_avg_sq f4 [6, 1]
000000 9f 24 fe 3c ef 40 d2 3c 3d 82 0b 3d ee e0 b0 3c
       0.031023322 0.025665728 0.03405975 0.02159163
000010 73 2d 1e 3d 47 0d f5 3c
       0.038617563 0.029913558

w1 f4 [6, 1]
000000 7d 58 d0 bf bd 04 ae bf 78 da d9 bf e1 a3 d3 bf
       -1.6277004 -1.3595196 -1.7019796 -1.6534387
000010 5b 67 a4 bf d1 be ed bf
       -1.2844042 -1.8573858

exp_avg f4 [6, 1]
000000 a2 27 45 3d 07 83 62 3d 80 84 81 3d cf fc 44 3d
       0.0481335 0.05530074 0.063241005 0.04809266
000010 2c 05 89 3d a5 1b 48 3d
       0.066904396 0.04885449

exp_avg_sq f4 [6, 1]
000000 88 b5 e3 3c e3 88 bd 3c dd 5e fb 3c 26 43 9f 3c
       0.027796522 0.023136562 0.030684883 0.019441199
000010 60 70 0e 3d da af db 3c
       0.034775138 0.026817251

w1 f4 [6, 1]
000000 9f 33 d4 bf 2c c2 b2 bf dd a2 de bf 8c 2a d8 bf
       -1.6578254 -1.3965507 -1.7393452 -1.6887984
000010 e6 35 a9 bf df 91 f1 bf
       -1.3219573 -1.8872641

exp_avg f4 [6, 1]
000000 33 2c 0f 3d ee 80 21 3d 1f 25 40 3d 28 25 0c 3d
       0.03495426 0.039429598 0.0469104 0.034215122
000010 81 62 50 3d 81 87 06 3d
       0.05087519 0.03284407

exp_avg_sq f4 [6, 1]
000000 d5 6b cb 3c 95 1e aa 3c 94 97 e1 3c 31 c8 8e 3c
       0.024831692 0.020766536 0.027538098 0.017429443
000010 d3 ab ff 3c cf 4d c4 3c
       0.031209862 0.023962883

w1 f4 [6, 1]
000000 c3 b5 d7 bf 9b 14 b7 bf e7 10 e3 bf c2 3c dc bf
       -1.6852344 -1.4303163 -1.7739533 -1.7206042
000010 70 bb ad bf 32 fd f4 bf
       -1.3572826 -1.9139769

exp_avg f4 [6, 1]
000000 dc 75 1f 3d ba 12 30 3d cc 0f 4e 3d 8b d2 19 3d
       0.03893076 0.04298661 0.050308034 0.037554305
000010 4b 36 60 3d af 6b 18 3d
       0.054739278 0.03721207

exp_avg_sq f4 [6, 1]
000000 39 75 b5 3c 06 5d 98 3c 28 18 ca 3c ff 6e 7f 3c
       0.022150623 0.018599045 0.024669722 0.015590428
000010 76 21 e5 3c 2d 1b af 3c
       0.027970057 0.021375263

w1 f4 [6, 1]
000000 a5 0e db bf 5e 1d bb bf 6e 50 e7 bf 06 00 e0 bf
       -1.7113844 -1.4618337 -1.807142 -1.7500007
000010 2d 28 b2 bf 4c 16 f8 bf
       -1.3918511 -1.9381804

exp_avg f4 [6, 1]
000000 de 75 e9 3c f3 f3 f1 3c 2d 07 1b 3d b4 6b d1 3c
       0.028498586 0.02953527 0.03784864 0.025564052
000010 2b 03 31 3d f8 ea b9 3c
       0.04321591 0.02269505

exp_avg_sq f4 [6, 1]
000000 75 bf a1 3c 0b 43 88 3c d7 d6 b4 3c 89 26 64 3c
       0.019744614 0.016633531 0.0220751 0.013925203
000010 2a 2f cd 3c dd 08 9c 3c
       0.025046904 0.019047195

w1 f4 [6, 1]
000000 49 39 de bf 8f db be bf db 60 eb bf 3e 71 e3 bf
       -1.7361232 -1.4910754 -1.8388933 -1.7768934
000010 28 7a b6 bf c6 d7 fa bf
       -1.4256029 -1.9597099

exp_avg f4 [6, 1]
000000 89 5e f1 3c b1 38 fc 3c 26 a5 21 3d 87 c7 d4 3c
       0.029464023 0.030788751 0.03946414 0.025974048
000010 c9 bc 39 3d a4 31 c2 3c
       0.045346055 0.023705311

exp_avg_sq f4 [6, 1]
000000 07 1a 90 3c 4b 7b 73 3c 92 b6 a1 3c 5f 91 4b 3c
       0.017590536 0.014860938 0.019740377 0.012424796
000010 55 ad b7 3c 83 eb 8a 3c
       0.022421518 0.016958004

w1 f4 [6, 1]
000000 82 4a e1 bf bc 6f c2 bf 14 5f ef bf 1b ab e6 bf
       -1.7600863 -1.5190349 -1.870089 -1.8020967
000010 8b cc ba bf 07 60 fd bf
       -1.4593672 -1.979493

exp_avg f4 [6, 1]
000000 94 1a d8 3c 26 c0 d2 3c 53 fd 0c 3d 14 83 b5 3c
       0.026379861 0.02572639 0.034421276 0.02215723
000010 0c db 25 3d 62 2e 99 3c
       0.040492103 0.018698875

exp_avg_sq f4 [6, 1]
000000 72 5c 80 3c 62 6b 59 3c 31 90 90 3c d0 89 35 3c
       0.015669081 0.013270231 0.01764688 0.01108022
000010 55 69 a4 3c 99 44 77 3c
       0.020069757 0.015092039
