ckpt/burr/training/2023-05-23_12-38-34-rep10.pt (torch, 167119 bytes, 30 tensors)

w1 f4 [6, 1]
0	0xbfbdc8d7	-1.4826916
1	0xbf988249	-1.191476
2	0xbfc39217	-1.5278958
3	0xbfbd3123	-1.478062
4	0xbf8f3540	-1.1188126
5	0xbfdb4b6a	-1.713239

exp_avg f4 [6, 1]
0	0x3dedbc7f	0.116082184
1	0x3e01ac60	0.12663412
2	0x3e11c12f	0.1423385
3	0x3de34cbc	0.1109862
4	0x3e15ba76	0.1462191
5	0x3df1dfc9	0.11810262

exp_avg_sq f4 [6, 1]
0	0x3d2d871b	0.042365175
1	0x3d0bd216	0.0341359
2	0x3d3e5760	0.046470046
3	0x3ce75d08	0.028242603
4	0x3d5825c5	0.052770395
5	0x3d2516e0	0.04030502

w1 f4 [6, 1]
0	0xbfc58667	-1.5431641
1	0xbfa1de85	-1.2646033
2	0xbfcc9368	-1.5982485
3	0xbfc63b60	-1.548687
4	0xbf97eeb8	-1.1869726
5	0xbfe354b6	-1.7760227

exp_avg f4 [6, 1]
0	0x3de0def3	0.10980024
1	0x3df5d2a8	0.1200307
2	0x3e09a9c2	0.13443664
3	0x3dd72bd8	0.105064094
4	0x3e0e6eaf	0.1390941
5	0x3de24ac6	0.11049418

exp_avg_sq f4 [6, 1]
0	0x3d1fdca4	0.03902878
1	0x3d033dbb	0.032041293
2	0x3d31d42d	0.043415237
3	0x3cd84e07	0.026404394
4	0x3d4943a5	0.049136776
5	0x3d189a78	0.037256688

w1 f4 [6, 1]
0	0xbfcd2aad	-1.6028649
1	0xbfab1021	-1.3364297
2	0xbfd56944	-1.667275
3	0xbfcf1e2b	-1.6181082
4	0xbfa08e98	-1.2543516
5	0xbfeb3364	-1.8375058

exp_avg f4 [6, 1]
0	0x3dd8075d	0.105482794
1	0x3decb3ec	0.11557755
2	0x3e040db2	0.1289585
3	0x3dcf2cb0	0.10115945
4	0x3e0989ab	0.13431422
5	0x3dd91fb7	0.10601752

exp_avg_sq f4 [6, 1]
0	0x3d12f34b	0.035876554
1	0x3cf572c1	0.029961945
2	0x3d258a13	0.04041488
3	0x3cc98936	0.02460156
4	0x3d3ae6e2	0.045630343
5	0x3d0ca6d0	0.034338772

w1 f4 [6, 1]
0	0xbfd4c495	-1.6622492
1	0xbfb41c78	-1.4071188
2	0xbfde1dda	-1.735286
3	0xbfd7e38b	-1.6866316
4	0xbfa91e42	-1.3212359
5	0xbff2eecc	-1.8979125

exp_avg f4 [6, 1]
0	0x3dc6e17c	0.097109765
1	0x3ddbbc11	0.1072923
2	0x3df50790	0.11964333
3	0x3dbf33e7	0.093360715
4	0x3e005d6f	0.12535642
5	0x3dc786b3	0.09742489

exp_avg_sq f4 [6, 1]
0	0x3d06d165	0.032914538
1	0x3ce49a26	0.027905535
2	0x3d1990df	0.037491675
3	0x3cbb1f5d	0.022842104
4	0x3d2d1cb0	0.042263687
5	0x3d01397a	0.031548955

w1 f4 [6, 1]
0	0xbfdc2ff5	-1.7202135
1	0xbfbcfdf0	-1.4764996
2	0xbfe6a4a6	-1.8018997
3	0xbfe07483	-1.7535557
4	0xbfb189bf	-1.3870162
5	0xbffa807c	-1.957046

exp_avg f4 [6, 1]
0	0x3db505cb	0.088389955
1	0x3dc90d87	0.09817033
2	0x3ddfbf60	0.10925174
3	0x3daf0152	0.08545174
4	0x3deb61d4	0.114932686
5	0x3db4d332	0.08829345

exp_avg_sq f4 [6, 1]
0	0x3cf6be54	0.030120052
1	0x3cd44122	0.025909964
2	0x3d0e04a5	0.034672398
3	0x3cad2b1a	0.021138716
4	0x3d1fe914	0.03904064
5	0x3cece2fe	0.028916832

w1 f4 [6, 1]
0	0xbfe36ce4	-1.7767606
1	0xbfc5958e	-1.5436265
2	0xbfeee56e	-1.8663766
3	0xbfe8c4ab	-1.8185018
4	0xbfb9bb45	-1.4510275
5	0xc000e8a7	-2.0142

exp_avg f4 [6, 1]
0	0x3d99e7cb	0.07514914
1	0x3dac94ea	0.084268406
2	0x3dbf45d0	0.093394876
3	0x3d95f22a	0.0732158
4	0x3dc99e6c	0.0984467
5	0x3d9943b0	0.074836135

exp_avg_sq f4 [6, 1]
0	0x3ce141bc	0.027497165
1	0x3cc4436b	0.023957929
2	0x3d02d647	0.031942632
3	0x3c9fae6d	0.019492352
4	0x3d133876	0.035942517
5	0x3cd878b1	0.026424738

w1 f4 [6, 1]
0	0xbfea192e	-1.8288934
1	0xbfcd8d30	-1.6058712
2	0xbff68ec9	-1.9262325
3	0xbff070d5	-1.8784434
4	0xbfc160c3	-1.5107654
5	0xc0044872	-2.0669217

exp_avg f4 [6, 1]
0	0x3d9383d9	0.07202882
1	0x3da52a74	0.08064738
2	0x3db663dd	0.08905766
3	0x3d8f92bc	0.07010409
4	0x3dc124fd	0.09430883
5	0x3d92b234	0.07162896

exp_avg_sq f4 [6, 1]
0	0x3ccca9bc	0.02498328
1	0x3cb45062	0.022010986
2	0x3cefaf5d	0.029258424
3	0x3c9250cc	0.017860793
4	0x3d06d2a1	0.032915715
5	0x3cc4d7bf	0.024028657

w1 f4 [6, 1]
0	0xbfeff137	-1.8745488
1	0xbfd49270	-1.6607189
2	0xbffd61f6	-1.979552
3	0xbff7204a	-1.9306729
4	0xbfc8450f	-1.5646075
5	0xc007338f	-2.112522

exp_avg f4 [6, 1]
0	0x3d5573d7	0.052112427
1	0x3d6dc7bb	0.058051806
2	0x3d87e8cb	0.066361986
3	0x3d4b5aaa	0.04964701
4	0x3d93eea2	0.0722325
5	0x3d48d4a1	0.049030904

exp_avg_sq f4 [6, 1]
0	0x3cb8b331	0.022546383
1	0x3ca420de	0.020035204
2	0x3cd9cad3	0.026585972
3	0x3c84d7db	0.01621621
4	0x3cf52120	0.029923022
5	0x3cb1aeeb	0.021689853

w1 f4 [6, 1]
0	0xbff52069	-1.9150516
1	0xbfdacf5f	-1.7094535
2	0xc001c289	-2.0274985
3	0xbffd03b4	-1.9766755
4	0xbfce8bc6	-1.6136405
5	0xc009bdfd	-2.152221

exp_avg f4 [6, 1]
0	0x3d44e55b	0.048070293
1	0x3d5b7462	0.05357779
2	0x3d7c1160	0.061540008
3	0x3d3b1bea	0.045680918
4	0x3d8a54d5	0.06754462
5	0x3d36e204	0.04464914

exp_avg_sq f4 [6, 1]
0	0x3ca61420	0.020273268
1	0x3c949c63	0.018140977
2	0x3cc4ff59	0.02404754
3	0x3c700367	0.014649249
4	0x3cddea51	0.02708927
5	0x3c9fba45	0.019498

w1 f4 [6, 1]
0	0xbff9895c	-1.9495044
1	0xbfe02c95	-1.7513605
2	0xc0047392	-2.0695539
3	0xc000fcd2	-2.015431
4	0xbfd42649	-1.6574184
5	0xc00bd6c8	-2.1849842

exp_avg f4 [6, 1]
0	0x3d14a16e	0.036286764
1	0x3d28e16e	0.04123061
2	0x3d47075f	0.048591014
3	0x3d0c775b	0.034293514
4	0x3d5f4294	0.054506853
5	0x3d0478f6	0.03234192

exp_avg_sq f4 [6, 1]
0	0x3c94ac83	0.018148666
1	0x3c85be79	0.016326176
2	0x3cb14000	0.021636963
3	0x3c5787e6	0.013154959
4	0x3cc7e8ed	0.02440306
5	0x3c8ee4c6	0.017443072
