ckpt/burr/training/2023-05-23_12-38-34-rep9.pt (torch, 167119 bytes, 30 tensors)

w1 f4 [6, 1]
0	0xbfbc5e3e	-1.471626
1	0xbf97775e	-1.1833303
2	0xbfc2793e	-1.519325
3	0xbfbbf4cc	-1.4684081
4	0xbf8e1f22	-1.1103251
5	0xbfda1aed	-1.7039467

exp_avg f4 [6, 1]
0	0x3de903ba	0.11377664
1	0x3df9f887	0.12205606
2	0x3e0d8222	0.13819173
3	0x3ddbb77e	0.10728358
4	0x3e11d381	0.14240839
5	0x3de772b3	0.11301174

exp_avg_sq f4 [6, 1]
0	0x3d287a7e	0.041132443
1	0x3d074c40	0.033031702
2	0x3d397149	0.045274053
3	0x3cdf5651	0.027262839
4	0x3d52a55c	0.05142723
5	0x3d201eaa	0.039091744

w1 f4 [6, 1]
0	0xbfc3f620	-1.5309486
1	0xbfa0b9f8	-1.2556753
2	0xbfcb5baf	-1.5887355
3	0xbfc4df1d	-1.5380589
4	0xbf96b8c4	-1.1775136
5	0xbfe200fa	-1.7656548

exp_avg f4 [6, 1]
0	0x3ddae1bf	0.10687589
1	0x3deefcc1	0.11669303
2	0x3e060478	0.13087642
3	0x3dd16168	0.10223657
4	0x3e0aba72	0.13547686
5	0x3ddb48d0	0.10707247

exp_avg_sq f4 [6, 1]
0	0x3d1af61a	0.037832357
1	0x3cfdaf8f	0.030967502
2	0x3d2d001f	0.042236444
3	0x3cd07dd0	0.025450617
4	0x3d43da08	0.047815353
5	0x3d13cd26	0.036084317

w1 f4 [6, 1]
0	0xbfcb7738	-1.5895758
1	0xbfa9d30e	-1.3267534
2	0xbfd40ef1	-1.656706
3	0xbfcda827	-1.6066941
4	0xbf9f33da	-1.2437699
5	0xbfe9c360	-1.8262749

exp_avg f4 [6, 1]
0	0x3dcc9c29	0.09990723
1	0x3de2f058	0.11080998
2	0x3dfc7a8e	0.12328063
3	0x3dc60d81	0.096705444
4	0x3e0334b1	0.12813069
5	0x3dcfb262	0.10141446

exp_avg_sq f4 [6, 1]
0	0x3d0e3c56	0.03472551
1	0x3cece5f5	0.028918246
2	0x3d20c4f5	0.039250333
3	0x3cc1febd	0.023681039
4	0x3d358e91	0.044325415
5	0x3d080c32	0.033214755

w1 f4 [6, 1]
0	0xbfd2b7bf	-1.6462325
1	0xbfb27c9a	-1.3944275
2	0xbfdc5961	-1.7214776
3	0xbfd6175c	-1.6725879
4	0xbfa75796	-1.3073604
5	0xbff1246c	-1.883924

exp_avg f4 [6, 1]
0	0x3db3dfe2	0.08782937
1	0x3dc44cd9	0.0958497
2	0x3ddb60d0	0.10711825
3	0x3dacc0aa	0.08435185
4	0x3de60689	0.11231715
5	0x3db197c0	0.08671522

exp_avg_sq f4 [6, 1]
0	0x3d020cf4	0.031750634
1	0x3cdba138	0.026810274
2	0x3d1471e8	0.036241442
3	0x3cb36cf0	0.021902531
4	0x3d2760e9	0.040863905
5	0x3cf91a6b	0.030408105

w1 f4 [6, 1]
0	0xbfd9056e	-1.6954782
1	0xbfba149a	-1.4537537
2	0xbfe3a3b5	-1.7784334
3	0xbfdd7542	-1.7301409
4	0xbfae8a01	-1.3635865
5	0xbff78572	-1.9337599

exp_avg f4 [6, 1]
0	0x3d90c0d9	0.07068033
1	0x3da79b7f	0.081839554
2	0x3db8f549	0.090311594
3	0x3d909321	0.070593126
4	0x3dc11799	0.09428329
5	0x3d957462	0.07297589

exp_avg_sq f4 [6, 1]
0	0x3cebbd41	0.028776767
1	0x3cc945b9	0.02456938
2	0x3d07a215	0.033113558
3	0x3ca412f6	0.020028573
4	0x3d18cb87	0.037303474
5	0x3ce1fe47	0.02758707

w1 f4 [6, 1]
0	0xbfde5971	-1.7371045
1	0xbfc094fb	-1.5045465
2	0xbfe9ec0a	-1.8275158
3	0xbfe3b813	-1.779055
4	0xbfb4c9dc	-1.4124103
5	0xbffcde46	-1.9755332

exp_avg f4 [6, 1]
0	0x3d46d20a	0.048540153
1	0x3d660f42	0.056166895
2	0x3d821f54	0.063536316
3	0x3d454982	0.048165806
4	0x3d8a26b0	0.0674566
5	0x3d40d9d8	0.047082752

exp_avg_sq f4 [6, 1]
0	0x3cd42cec	0.025900327
1	0x3cb69e9f	0.022292433
2	0x3cf5acb4	0.029989578
3	0x3c949d8d	0.018141532
4	0x3d0a56db	0.033774238
5	0x3ccb7510	0.024836093

w1 f4 [6, 1]
0	0xbfe31832	-1.7741759
1	0xbfc6789f	-1.5505561
2	0xbfefa26a	-1.872144
3	0xbfe9505a	-1.8227646
4	0xbfba8283	-1.4571079
5	0xc000d015	-2.0127003

exp_avg f4 [6, 1]
0	0x3d53f172	0.051743932
1	0x3d6f0364	0.058352843
2	0x3d861d24	0.06548527
3	0x3d4fee81	0.050764564
4	0x3d8eeb9a	0.06978531
5	0x3d4cf019	0.050033662

exp_avg_sq f4 [6, 1]
0	0x3cbe625c	0.02324026
1	0x3ca51146	0.020149838
2	0x3cddbbe8	0.02706714
3	0x3c861108	0.016365543
4	0x3cf9b676	0.030482512
5	0x3cb6a03b	0.0222932

w1 f4 [6, 1]
0	0xbfe77929	-1.808385
1	0xbfcbed6e	-1.5931833
2	0xbff4f9c8	-1.9138727
3	0xbfee71c2	-1.8628466
4	0xbfbfea77	-1.4993428
5	0xc002f92d	-2.0464585

exp_avg f4 [6, 1]
0	0x3d196a55	0.03745492
1	0x3d2bc836	0.041938983
2	0x3d49ba73	0.049250077
3	0x3d1219c9	0.035669122
4	0x3d5ddcbc	0.054165587
5	0x3d07b2a9	0.033129368

exp_avg_sq f4 [6, 1]
0	0x3caa6dcc	0.020804308
1	0x3c94ae44	0.018149503
2	0x3cc78690	0.024356157
3	0x3c710b58	0.014712177
4	0x3ce0c5ba	0.027438033
5	0x3ca37e53	0.019957697

w1 f4 [6, 1]
0	0xbfeb4b17	-1.8382291
1	0xbfd0b9a3	-1.6306652
2	0xbff9bc4b	-1.9510587
3	0xbff2e7f9	-1.8977042
4	0xbfc4cc51	-1.5374852
5	0xc004d148	-2.0752735

exp_avg f4 [6, 1]
0	0x3d0b7f76	0.034057103
1	0x3d21c145	0.039490957
2	0x3d3b860a	0.045782126
3	0x3d0868de	0.033303134
4	0x3d4e197e	0.05031728
5	0x3d01ff22	0.031737454

exp_avg_sq f4 [6, 1]
0	0x3c982ddd	0.018576557
1	0x3c856fac	0.0162886
2	0x3cb2f707	0.021846307
3	0x3c57f25a	0.01318034
4	0x3cc9b7c4	0.02462376
5	0x3c91f96b	0.017819127

w1 f4 [6, 1]
0	0xbfee6302	-1.8623965
1	0xbfd4c264	-1.6621823
2	0xbffdce19	-1.9828521
3	0xbff68df0	-1.9262066
4	0xbfc90b37	-1.5706547
5	0xc0064dec	-2.098506

exp_avg f4 [6, 1]
0	0x3cb6ef5b	0.02233093
1	0x3cdaee29	0.026724892
2	0x3d050d1a	0.032483198
3	0x3cb1db41	0.021710994
4	0x3d178095	0.03698786
5	0x3c9d4149	0.01919617

exp_avg_sq f4 [6, 1]
0	0x3c878937	0.016544921
1	0x3c6ea151	0.014564828
2	0x3c9ffa82	0.019528631
3	0x3c40cd51	0.011767701
4	0x3cb46eca	0.022025485
5	0x3c82043b	0.015871158
